// -----// IR Dump Before Inliner (inline) ('builtin.module' operation) //----- //
#loc = loc("examples/kernels/binary_ops.py":97:0)
module {
  tt.func public @add_2d_kernel(%arg0: !tt.ptr<f32> {tt.divisibility = 16 : i32} loc("examples/kernels/binary_ops.py":97:0), %arg1: !tt.ptr<f32> {tt.divisibility = 16 : i32} loc("examples/kernels/binary_ops.py":97:0), %arg2: !tt.ptr<f32> {tt.divisibility = 16 : i32} loc("examples/kernels/binary_ops.py":97:0), %arg3: i32 {tt.divisibility = 16 : i32} loc("examples/kernels/binary_ops.py":97:0), %arg4: i32 {tt.divisibility = 16 : i32} loc("examples/kernels/binary_ops.py":97:0), %arg5: i32 {tt.divisibility = 16 : i32} loc("examples/kernels/binary_ops.py":97:0), %arg6: i32 {tt.divisibility = 16 : i32} loc("examples/kernels/binary_ops.py":97:0), %arg7: i32 {tt.divisibility = 16 : i32} loc("examples/kernels/binary_ops.py":97:0)) attributes {noinline = false} {
    %0 = tt.get_program_id x : i32 loc(#loc1)
    %1 = tt.get_program_id y : i32 loc(#loc2)
    %c32_i32 = arith.constant 32 : i32 loc(#loc3)
    %c32_i32_0 = arith.constant 32 : i32 loc(#loc3)
    %2 = arith.extsi %0 : i32 to i64 loc(#loc3)
    %3 = arith.extsi %c32_i32_0 : i32 to i64 loc(#loc3)
    %4 = arith.muli %2, %3 : i64 loc(#loc3) // pid_x * BLOCK_SIZE_X
    
    //----- ignore this block, just sanity check
    %c2147483647_i64 = arith.constant 2147483647 : i64 loc(#loc3)
    %c-2147483648_i64 = arith.constant -2147483648 : i64 loc(#loc3)
    %5 = arith.cmpi sle, %4, %c2147483647_i64 : i64 loc(#loc3)
    %6 = arith.cmpi sge, %4, %c-2147483648_i64 : i64 loc(#loc3)
    %7 = arith.andi %5, %6 : i1 loc(#loc3)
    //----

    %8 = arith.muli %0, %c32_i32_0 : i32 loc(#loc3)
    %9 = tt.make_range {end = 32 : i32, start = 0 : i32} : tensor<32xi32> loc(#loc4)
    %10 = tt.splat %8 : i32 -> tensor<32xi32> loc(#loc5)
    %11 = arith.extsi %10 : tensor<32xi32> to tensor<32xi64> loc(#loc5)
    %12 = arith.extsi %9 : tensor<32xi32> to tensor<32xi64> loc(#loc5)
    %13 = arith.addi %11, %12 : tensor<32xi64> loc(#loc5) // offs_m = pid_x * BLOCK_SIZE_X + tl.arange(0,32)

    //----
    %c2147483647_i64_1 = arith.constant 2147483647 : i64 loc(#loc5)
    %c-2147483648_i64_2 = arith.constant -2147483648 : i64 loc(#loc5)
    %cst = arith.constant dense<2147483647> : tensor<32xi64> loc(#loc5)
    %14 = arith.cmpi sle, %13, %cst : tensor<32xi64> loc(#loc5)
    %cst_3 = arith.constant dense<-2147483648> : tensor<32xi64> loc(#loc5)
    %15 = arith.cmpi sge, %13, %cst_3 : tensor<32xi64> loc(#loc5)
    %16 = arith.andi %14, %15 : tensor<32xi1> loc(#loc5)
    //----

    %17 = arith.addi %10, %9 : tensor<32xi32> loc(#loc5) // offs_m:i32 = pid_x * BLOCK_SIZE_X + tl.arange(0,32)
    %18 = tt.splat %arg3 : i32 -> tensor<32xi32> loc(#loc6)
    %19 = arith.remsi %17, %18 : tensor<32xi32> loc(#loc6) // offs_m % M

    //---- similar instructions for pid_y
    %c32_i32_4 = arith.constant 32 : i32 loc(#loc7)
    %c32_i32_5 = arith.constant 32 : i32 loc(#loc7)
    %20 = arith.extsi %1 : i32 to i64 loc(#loc7)
    %21 = arith.extsi %c32_i32_5 : i32 to i64 loc(#loc7)
    %22 = arith.muli %20, %21 : i64 loc(#loc7)
    %c2147483647_i64_6 = arith.constant 2147483647 : i64 loc(#loc7)
    %c-2147483648_i64_7 = arith.constant -2147483648 : i64 loc(#loc7)
    %23 = arith.cmpi sle, %22, %c2147483647_i64_6 : i64 loc(#loc7)
    %24 = arith.cmpi sge, %22, %c-2147483648_i64_7 : i64 loc(#loc7)
    %25 = arith.andi %23, %24 : i1 loc(#loc7)
    %26 = arith.muli %1, %c32_i32_5 : i32 loc(#loc7)
    %27 = tt.make_range {end = 32 : i32, start = 0 : i32} : tensor<32xi32> loc(#loc8)
    %28 = tt.splat %26 : i32 -> tensor<32xi32> loc(#loc9)
    %29 = arith.extsi %28 : tensor<32xi32> to tensor<32xi64> loc(#loc9)
    %30 = arith.extsi %27 : tensor<32xi32> to tensor<32xi64> loc(#loc9)
    %31 = arith.addi %29, %30 : tensor<32xi64> loc(#loc9)
    %c2147483647_i64_8 = arith.constant 2147483647 : i64 loc(#loc9)
    %c-2147483648_i64_9 = arith.constant -2147483648 : i64 loc(#loc9)
    %cst_10 = arith.constant dense<2147483647> : tensor<32xi64> loc(#loc9)
    %32 = arith.cmpi sle, %31, %cst_10 : tensor<32xi64> loc(#loc9)
    %cst_11 = arith.constant dense<-2147483648> : tensor<32xi64> loc(#loc9)
    %33 = arith.cmpi sge, %31, %cst_11 : tensor<32xi64> loc(#loc9)
    %34 = arith.andi %32, %33 : tensor<32xi1> loc(#loc9)
    %35 = arith.addi %28, %27 : tensor<32xi32> loc(#loc9)
    %36 = tt.splat %arg4 : i32 -> tensor<32xi32> loc(#loc10)
    %37 = arith.remsi %35, %36 : tensor<32xi32> loc(#loc10) // offs_n % N
    //----

    //--- offs_m[:, None] * stride_am + offs_n[None, :] * stride_an
    %38 = tt.expand_dims %19 {axis = 1 : i32} : tensor<32xi32> -> tensor<32x1xi32> loc(#loc11)
    %39 = tt.splat %arg5 : i32 -> tensor<32x1xi32> loc(#loc12)
    %40 = arith.extsi %38 : tensor<32x1xi32> to tensor<32x1xi64> loc(#loc12)
    %41 = arith.extsi %39 : tensor<32x1xi32> to tensor<32x1xi64> loc(#loc12)
    %42 = arith.muli %40, %41 : tensor<32x1xi64> loc(#loc12) // offs_m[:, None] * stride_am

    %c2147483647_i64_12 = arith.constant 2147483647 : i64 loc(#loc12)
    %c-2147483648_i64_13 = arith.constant -2147483648 : i64 loc(#loc12)
    %cst_14 = arith.constant dense<2147483647> : tensor<32x1xi64> loc(#loc12)
    %43 = arith.cmpi sle, %42, %cst_14 : tensor<32x1xi64> loc(#loc12)
    %cst_15 = arith.constant dense<-2147483648> : tensor<32x1xi64> loc(#loc12)
    %44 = arith.cmpi sge, %42, %cst_15 : tensor<32x1xi64> loc(#loc12)
    %45 = arith.andi %43, %44 : tensor<32x1xi1> loc(#loc12)
    %46 = arith.muli %38, %39 : tensor<32x1xi32> loc(#loc12) //i32: offs_m[:, None] * stride_am

    %47 = tt.expand_dims %37 {axis = 0 : i32} : tensor<32xi32> -> tensor<1x32xi32> loc(#loc13) // %37=offs_n
    %c1_i32 = arith.constant 1 : i32 loc(#loc14)
    %c1_i32_16 = arith.constant 1 : i32 loc(#loc14)
    %cst_17 = arith.constant dense<1> : tensor<1x32xi32> loc(#loc14)
    %48 = arith.extsi %47 : tensor<1x32xi32> to tensor<1x32xi64> loc(#loc14)
    %49 = arith.extsi %cst_17 : tensor<1x32xi32> to tensor<1x32xi64> loc(#loc14)
    %50 = arith.muli %48, %49 : tensor<1x32xi64> loc(#loc14) // offs_n[None, :] * stride_an

    %c2147483647_i64_18 = arith.constant 2147483647 : i64 loc(#loc14)
    %c-2147483648_i64_19 = arith.constant -2147483648 : i64 loc(#loc14)
    %cst_20 = arith.constant dense<2147483647> : tensor<1x32xi64> loc(#loc14)
    %51 = arith.cmpi sle, %50, %cst_20 : tensor<1x32xi64> loc(#loc14)
    %cst_21 = arith.constant dense<-2147483648> : tensor<1x32xi64> loc(#loc14)
    %52 = arith.cmpi sge, %50, %cst_21 : tensor<1x32xi64> loc(#loc14)
    %53 = arith.andi %51, %52 : tensor<1x32xi1> loc(#loc14)
    %54 = arith.muli %47, %cst_17 : tensor<1x32xi32> loc(#loc14) // offs_n[None, :] * stride_an

    %55 = tt.broadcast %46 : tensor<32x1xi32> -> tensor<32x32xi32> loc(#loc15)
    %56 = tt.broadcast %54 : tensor<1x32xi32> -> tensor<32x32xi32> loc(#loc15)
    %57 = arith.extsi %55 : tensor<32x32xi32> to tensor<32x32xi64> loc(#loc15)
    %58 = arith.extsi %56 : tensor<32x32xi32> to tensor<32x32xi64> loc(#loc15)
    %59 = arith.addi %57, %58 : tensor<32x32xi64> loc(#loc15) // add both offsets: offs_m[:, None] * stride_am + offs_n[None, :] * stride_an
    
    %c2147483647_i64_22 = arith.constant 2147483647 : i64 loc(#loc15)
    %c-2147483648_i64_23 = arith.constant -2147483648 : i64 loc(#loc15)
    %cst_24 = arith.constant dense<2147483647> : tensor<32x32xi64> loc(#loc15)
    %60 = arith.cmpi sle, %59, %cst_24 : tensor<32x32xi64> loc(#loc15)
    %cst_25 = arith.constant dense<-2147483648> : tensor<32x32xi64> loc(#loc15)
    %61 = arith.cmpi sge, %59, %cst_25 : tensor<32x32xi64> loc(#loc15)
    %62 = arith.andi %60, %61 : tensor<32x32xi1> loc(#loc15)
    %63 = arith.addi %55, %56 : tensor<32x32xi32> loc(#loc15) // i32: offs_m[:, None] * stride_am + offs_n[None, :] * stride_an
    
    %64 = tt.splat %arg0 : !tt.ptr<f32> -> tensor<32x32x!tt.ptr<f32>> loc(#loc16)
    %65 = tt.addptr %64, %63 : tensor<32x32x!tt.ptr<f32>>, tensor<32x32xi32> loc(#loc16) // a_ptr + offs

    //---- b and c pointers: b_ptrs = b_ptr + offs
    %66 = tt.expand_dims %19 {axis = 1 : i32} : tensor<32xi32> -> tensor<32x1xi32> loc(#loc17)
    %67 = tt.splat %arg6 : i32 -> tensor<32x1xi32> loc(#loc18)
    %68 = arith.extsi %66 : tensor<32x1xi32> to tensor<32x1xi64> loc(#loc18)
    %69 = arith.extsi %67 : tensor<32x1xi32> to tensor<32x1xi64> loc(#loc18)
    %70 = arith.muli %68, %69 : tensor<32x1xi64> loc(#loc18)
    %c2147483647_i64_26 = arith.constant 2147483647 : i64 loc(#loc18)
    %c-2147483648_i64_27 = arith.constant -2147483648 : i64 loc(#loc18)
    %cst_28 = arith.constant dense<2147483647> : tensor<32x1xi64> loc(#loc18)
    %71 = arith.cmpi sle, %70, %cst_28 : tensor<32x1xi64> loc(#loc18)
    %cst_29 = arith.constant dense<-2147483648> : tensor<32x1xi64> loc(#loc18)
    %72 = arith.cmpi sge, %70, %cst_29 : tensor<32x1xi64> loc(#loc18)
    %73 = arith.andi %71, %72 : tensor<32x1xi1> loc(#loc18)
    %74 = arith.muli %66, %67 : tensor<32x1xi32> loc(#loc18)
    %75 = tt.expand_dims %37 {axis = 0 : i32} : tensor<32xi32> -> tensor<1x32xi32> loc(#loc19)
    %c1_i32_30 = arith.constant 1 : i32 loc(#loc20)
    %c1_i32_31 = arith.constant 1 : i32 loc(#loc20)
    %cst_32 = arith.constant dense<1> : tensor<1x32xi32> loc(#loc20)
    %76 = arith.extsi %75 : tensor<1x32xi32> to tensor<1x32xi64> loc(#loc20)
    %77 = arith.extsi %cst_32 : tensor<1x32xi32> to tensor<1x32xi64> loc(#loc20)
    %78 = arith.muli %76, %77 : tensor<1x32xi64> loc(#loc20)
    %c2147483647_i64_33 = arith.constant 2147483647 : i64 loc(#loc20)
    %c-2147483648_i64_34 = arith.constant -2147483648 : i64 loc(#loc20)
    %cst_35 = arith.constant dense<2147483647> : tensor<1x32xi64> loc(#loc20)
    %79 = arith.cmpi sle, %78, %cst_35 : tensor<1x32xi64> loc(#loc20)
    %cst_36 = arith.constant dense<-2147483648> : tensor<1x32xi64> loc(#loc20)
    %80 = arith.cmpi sge, %78, %cst_36 : tensor<1x32xi64> loc(#loc20)
    %81 = arith.andi %79, %80 : tensor<1x32xi1> loc(#loc20)
    %82 = arith.muli %75, %cst_32 : tensor<1x32xi32> loc(#loc20)
    %83 = tt.broadcast %74 : tensor<32x1xi32> -> tensor<32x32xi32> loc(#loc21)
    %84 = tt.broadcast %82 : tensor<1x32xi32> -> tensor<32x32xi32> loc(#loc21)
    %85 = arith.extsi %83 : tensor<32x32xi32> to tensor<32x32xi64> loc(#loc21)
    %86 = arith.extsi %84 : tensor<32x32xi32> to tensor<32x32xi64> loc(#loc21)
    %87 = arith.addi %85, %86 : tensor<32x32xi64> loc(#loc21)
    %c2147483647_i64_37 = arith.constant 2147483647 : i64 loc(#loc21)
    %c-2147483648_i64_38 = arith.constant -2147483648 : i64 loc(#loc21)
    %cst_39 = arith.constant dense<2147483647> : tensor<32x32xi64> loc(#loc21)
    %88 = arith.cmpi sle, %87, %cst_39 : tensor<32x32xi64> loc(#loc21)
    %cst_40 = arith.constant dense<-2147483648> : tensor<32x32xi64> loc(#loc21)
    %89 = arith.cmpi sge, %87, %cst_40 : tensor<32x32xi64> loc(#loc21)
    %90 = arith.andi %88, %89 : tensor<32x32xi1> loc(#loc21)
    %91 = arith.addi %83, %84 : tensor<32x32xi32> loc(#loc21)
    %92 = tt.splat %arg1 : !tt.ptr<f32> -> tensor<32x32x!tt.ptr<f32>> loc(#loc22)
    %93 = tt.addptr %92, %91 : tensor<32x32x!tt.ptr<f32>>, tensor<32x32xi32> loc(#loc22)
    %94 = tt.expand_dims %19 {axis = 1 : i32} : tensor<32xi32> -> tensor<32x1xi32> loc(#loc23)
    %95 = tt.splat %arg7 : i32 -> tensor<32x1xi32> loc(#loc24)
    %96 = arith.extsi %94 : tensor<32x1xi32> to tensor<32x1xi64> loc(#loc24)
    %97 = arith.extsi %95 : tensor<32x1xi32> to tensor<32x1xi64> loc(#loc24)
    %98 = arith.muli %96, %97 : tensor<32x1xi64> loc(#loc24)
    %c2147483647_i64_41 = arith.constant 2147483647 : i64 loc(#loc24)
    %c-2147483648_i64_42 = arith.constant -2147483648 : i64 loc(#loc24)
    %cst_43 = arith.constant dense<2147483647> : tensor<32x1xi64> loc(#loc24)
    %99 = arith.cmpi sle, %98, %cst_43 : tensor<32x1xi64> loc(#loc24)
    %cst_44 = arith.constant dense<-2147483648> : tensor<32x1xi64> loc(#loc24)
    %100 = arith.cmpi sge, %98, %cst_44 : tensor<32x1xi64> loc(#loc24)
    %101 = arith.andi %99, %100 : tensor<32x1xi1> loc(#loc24)
    %102 = arith.muli %94, %95 : tensor<32x1xi32> loc(#loc24)
    %103 = tt.expand_dims %37 {axis = 0 : i32} : tensor<32xi32> -> tensor<1x32xi32> loc(#loc25)
    %c1_i32_45 = arith.constant 1 : i32 loc(#loc26)
    %c1_i32_46 = arith.constant 1 : i32 loc(#loc26)
    %cst_47 = arith.constant dense<1> : tensor<1x32xi32> loc(#loc26)
    %104 = arith.extsi %103 : tensor<1x32xi32> to tensor<1x32xi64> loc(#loc26)
    %105 = arith.extsi %cst_47 : tensor<1x32xi32> to tensor<1x32xi64> loc(#loc26)
    %106 = arith.muli %104, %105 : tensor<1x32xi64> loc(#loc26)
    %c2147483647_i64_48 = arith.constant 2147483647 : i64 loc(#loc26)
    %c-2147483648_i64_49 = arith.constant -2147483648 : i64 loc(#loc26)
    %cst_50 = arith.constant dense<2147483647> : tensor<1x32xi64> loc(#loc26)
    %107 = arith.cmpi sle, %106, %cst_50 : tensor<1x32xi64> loc(#loc26)
    %cst_51 = arith.constant dense<-2147483648> : tensor<1x32xi64> loc(#loc26)
    %108 = arith.cmpi sge, %106, %cst_51 : tensor<1x32xi64> loc(#loc26)
    %109 = arith.andi %107, %108 : tensor<1x32xi1> loc(#loc26)
    %110 = arith.muli %103, %cst_47 : tensor<1x32xi32> loc(#loc26)
    %111 = tt.broadcast %102 : tensor<32x1xi32> -> tensor<32x32xi32> loc(#loc27)
    %112 = tt.broadcast %110 : tensor<1x32xi32> -> tensor<32x32xi32> loc(#loc27)
    %113 = arith.extsi %111 : tensor<32x32xi32> to tensor<32x32xi64> loc(#loc27)
    %114 = arith.extsi %112 : tensor<32x32xi32> to tensor<32x32xi64> loc(#loc27)
    %115 = arith.addi %113, %114 : tensor<32x32xi64> loc(#loc27)
    %c2147483647_i64_52 = arith.constant 2147483647 : i64 loc(#loc27)
    %c-2147483648_i64_53 = arith.constant -2147483648 : i64 loc(#loc27)
    %cst_54 = arith.constant dense<2147483647> : tensor<32x32xi64> loc(#loc27)
    %116 = arith.cmpi sle, %115, %cst_54 : tensor<32x32xi64> loc(#loc27)
    %cst_55 = arith.constant dense<-2147483648> : tensor<32x32xi64> loc(#loc27)
    %117 = arith.cmpi sge, %115, %cst_55 : tensor<32x32xi64> loc(#loc27)
    %118 = arith.andi %116, %117 : tensor<32x32xi1> loc(#loc27)
    %119 = arith.addi %111, %112 : tensor<32x32xi32> loc(#loc27)
    %120 = tt.splat %arg2 : !tt.ptr<f32> -> tensor<32x32x!tt.ptr<f32>> loc(#loc28)
    %121 = tt.addptr %120, %119 : tensor<32x32x!tt.ptr<f32>>, tensor<32x32xi32> loc(#loc28)
    //----

    %122 = tt.expand_dims %19 {axis = 1 : i32} : tensor<32xi32> -> tensor<32x1xi32> loc(#loc29) // offs_m[:, None]
    %123 = tt.splat %arg3 : i32 -> tensor<32x1xi32> loc(#loc30) // M
    %124 = arith.cmpi slt, %122, %123 : tensor<32x1xi32> loc(#loc30) // offs_m < M
    %125 = tt.expand_dims %37 {axis = 0 : i32} : tensor<32xi32> -> tensor<1x32xi32> loc(#loc31) // offs_n[None, :]
    %126 = tt.splat %arg4 : i32 -> tensor<1x32xi32> loc(#loc32) // N
    %127 = arith.cmpi slt, %125, %126 : tensor<1x32xi32> loc(#loc32) // offs_n < N
    %128 = tt.broadcast %124 : tensor<32x1xi1> -> tensor<32x32xi1> loc(#loc33) 
    %129 = tt.broadcast %127 : tensor<1x32xi1> -> tensor<32x32xi1> loc(#loc33)
    %130 = arith.andi %128, %129 : tensor<32x32xi1> loc(#loc33) // mask = (offs_m[:, None] < M) & (offs_n[None, :] < M)
    %cst_56 = arith.constant 0.000000e+00 : f32 loc(#loc34)
    %cst_57 = arith.constant dense<0.000000e+00> : tensor<32x32xf32> loc(#loc34)
    %131 = tt.load %65, %130, %cst_57 : tensor<32x32x!tt.ptr<f32>> loc(#loc34) // load a = tt.load(a_ptrs, mask, other)
    %cst_58 = arith.constant 0.000000e+00 : f32 loc(#loc35)
    %cst_59 = arith.constant dense<0.000000e+00> : tensor<32x32xf32> loc(#loc35)
    %132 = tt.load %93, %130, %cst_59 : tensor<32x32x!tt.ptr<f32>> loc(#loc35) // load b
    %133 = arith.addf %131, %132 : tensor<32x32xf32> loc(#loc36) // c = a + b
    tt.store %121, %133, %130 : tensor<32x32x!tt.ptr<f32>> loc(#loc37) // store c: tt.store(c_ptrs, c, mask)
    tt.return loc(#loc38)
  } loc(#loc)
} loc(#loc)
#loc1 = loc("examples/kernels/binary_ops.py":106:26)
#loc2 = loc("examples/kernels/binary_ops.py":107:26)
#loc3 = loc("examples/kernels/binary_ops.py":108:22)
#loc4 = loc("examples/kernels/binary_ops.py":108:50)
#loc5 = loc("examples/kernels/binary_ops.py":108:37)
#loc6 = loc("examples/kernels/binary_ops.py":108:67)
#loc7 = loc("examples/kernels/binary_ops.py":109:22)
#loc8 = loc("examples/kernels/binary_ops.py":109:50)
#loc9 = loc("examples/kernels/binary_ops.py":109:37)
#loc10 = loc("examples/kernels/binary_ops.py":109:67)
#loc11 = loc("examples/kernels/binary_ops.py":110:29)
#loc12 = loc("examples/kernels/binary_ops.py":110:40)
#loc13 = loc("examples/kernels/binary_ops.py":110:59)
#loc14 = loc("examples/kernels/binary_ops.py":110:70)
#loc15 = loc("examples/kernels/binary_ops.py":110:52)
#loc16 = loc("examples/kernels/binary_ops.py":110:22)
#loc17 = loc("examples/kernels/binary_ops.py":111:29)
#loc18 = loc("examples/kernels/binary_ops.py":111:40)
#loc19 = loc("examples/kernels/binary_ops.py":111:59)
#loc20 = loc("examples/kernels/binary_ops.py":111:70)
#loc21 = loc("examples/kernels/binary_ops.py":111:52)
#loc22 = loc("examples/kernels/binary_ops.py":111:22)
#loc23 = loc("examples/kernels/binary_ops.py":112:29)
#loc24 = loc("examples/kernels/binary_ops.py":112:40)
#loc25 = loc("examples/kernels/binary_ops.py":112:59)
#loc26 = loc("examples/kernels/binary_ops.py":112:70)
#loc27 = loc("examples/kernels/binary_ops.py":112:52)
#loc28 = loc("examples/kernels/binary_ops.py":112:22)
#loc29 = loc("examples/kernels/binary_ops.py":114:20)
#loc30 = loc("examples/kernels/binary_ops.py":114:31)
#loc31 = loc("examples/kernels/binary_ops.py":114:44)
#loc32 = loc("examples/kernels/binary_ops.py":114:55)
#loc33 = loc("examples/kernels/binary_ops.py":114:37)
#loc34 = loc("examples/kernels/binary_ops.py":116:16)
#loc35 = loc("examples/kernels/binary_ops.py":117:16)
#loc36 = loc("examples/kernels/binary_ops.py":118:12)
#loc37 = loc("examples/kernels/binary_ops.py":119:21)
#loc38 = loc("examples/kernels/binary_ops.py":119:4)


// -----// IR Dump Before Canonicalizer (canonicalize) ('tt.func' operation: @add_2d_kernel) //----- //
#loc = loc("examples/kernels/binary_ops.py":97:0)
module {
  tt.func public @add_2d_kernel(%arg0: !tt.ptr<f32> {tt.divisibility = 16 : i32} loc("examples/kernels/binary_ops.py":97:0), %arg1: !tt.ptr<f32> {tt.divisibility = 16 : i32} loc("examples/kernels/binary_ops.py":97:0), %arg2: !tt.ptr<f32> {tt.divisibility = 16 : i32} loc("examples/kernels/binary_ops.py":97:0), %arg3: i32 {tt.divisibility = 16 : i32} loc("examples/kernels/binary_ops.py":97:0), %arg4: i32 {tt.divisibility = 16 : i32} loc("examples/kernels/binary_ops.py":97:0), %arg5: i32 {tt.divisibility = 16 : i32} loc("examples/kernels/binary_ops.py":97:0), %arg6: i32 {tt.divisibility = 16 : i32} loc("examples/kernels/binary_ops.py":97:0), %arg7: i32 {tt.divisibility = 16 : i32} loc("examples/kernels/binary_ops.py":97:0)) attributes {noinline = false} {
    %0 = tt.get_program_id x : i32 loc(#loc1)
    %1 = tt.get_program_id y : i32 loc(#loc2)
    %c32_i32 = arith.constant 32 : i32 loc(#loc3)
    %c32_i32_0 = arith.constant 32 : i32 loc(#loc3)
    %2 = arith.extsi %0 : i32 to i64 loc(#loc3)
    %3 = arith.extsi %c32_i32_0 : i32 to i64 loc(#loc3)
    %4 = arith.muli %2, %3 : i64 loc(#loc3)
    %c2147483647_i64 = arith.constant 2147483647 : i64 loc(#loc3)
    %c-2147483648_i64 = arith.constant -2147483648 : i64 loc(#loc3)
    %5 = arith.cmpi sle, %4, %c2147483647_i64 : i64 loc(#loc3)
    %6 = arith.cmpi sge, %4, %c-2147483648_i64 : i64 loc(#loc3)
    %7 = arith.andi %5, %6 : i1 loc(#loc3)
    %8 = arith.muli %0, %c32_i32_0 : i32 loc(#loc3)
    %9 = tt.make_range {end = 32 : i32, start = 0 : i32} : tensor<32xi32> loc(#loc4)
    %10 = tt.splat %8 : i32 -> tensor<32xi32> loc(#loc5)
    %11 = arith.extsi %10 : tensor<32xi32> to tensor<32xi64> loc(#loc5)
    %12 = arith.extsi %9 : tensor<32xi32> to tensor<32xi64> loc(#loc5)
    %13 = arith.addi %11, %12 : tensor<32xi64> loc(#loc5)
    %c2147483647_i64_1 = arith.constant 2147483647 : i64 loc(#loc5)
    %c-2147483648_i64_2 = arith.constant -2147483648 : i64 loc(#loc5)
    %cst = arith.constant dense<2147483647> : tensor<32xi64> loc(#loc5)
    %14 = arith.cmpi sle, %13, %cst : tensor<32xi64> loc(#loc5)
    %cst_3 = arith.constant dense<-2147483648> : tensor<32xi64> loc(#loc5)
    %15 = arith.cmpi sge, %13, %cst_3 : tensor<32xi64> loc(#loc5)
    %16 = arith.andi %14, %15 : tensor<32xi1> loc(#loc5)
    %17 = arith.addi %10, %9 : tensor<32xi32> loc(#loc5)
    %18 = tt.splat %arg3 : i32 -> tensor<32xi32> loc(#loc6)
    %19 = arith.remsi %17, %18 : tensor<32xi32> loc(#loc6)
    %c32_i32_4 = arith.constant 32 : i32 loc(#loc7)
    %c32_i32_5 = arith.constant 32 : i32 loc(#loc7)
    %20 = arith.extsi %1 : i32 to i64 loc(#loc7)
    %21 = arith.extsi %c32_i32_5 : i32 to i64 loc(#loc7)
    %22 = arith.muli %20, %21 : i64 loc(#loc7)
    %c2147483647_i64_6 = arith.constant 2147483647 : i64 loc(#loc7)
    %c-2147483648_i64_7 = arith.constant -2147483648 : i64 loc(#loc7)
    %23 = arith.cmpi sle, %22, %c2147483647_i64_6 : i64 loc(#loc7)
    %24 = arith.cmpi sge, %22, %c-2147483648_i64_7 : i64 loc(#loc7)
    %25 = arith.andi %23, %24 : i1 loc(#loc7)
    %26 = arith.muli %1, %c32_i32_5 : i32 loc(#loc7)
    %27 = tt.make_range {end = 32 : i32, start = 0 : i32} : tensor<32xi32> loc(#loc8)
    %28 = tt.splat %26 : i32 -> tensor<32xi32> loc(#loc9)
    %29 = arith.extsi %28 : tensor<32xi32> to tensor<32xi64> loc(#loc9)
    %30 = arith.extsi %27 : tensor<32xi32> to tensor<32xi64> loc(#loc9)
    %31 = arith.addi %29, %30 : tensor<32xi64> loc(#loc9)
    %c2147483647_i64_8 = arith.constant 2147483647 : i64 loc(#loc9)
    %c-2147483648_i64_9 = arith.constant -2147483648 : i64 loc(#loc9)
    %cst_10 = arith.constant dense<2147483647> : tensor<32xi64> loc(#loc9)
    %32 = arith.cmpi sle, %31, %cst_10 : tensor<32xi64> loc(#loc9)
    %cst_11 = arith.constant dense<-2147483648> : tensor<32xi64> loc(#loc9)
    %33 = arith.cmpi sge, %31, %cst_11 : tensor<32xi64> loc(#loc9)
    %34 = arith.andi %32, %33 : tensor<32xi1> loc(#loc9)
    %35 = arith.addi %28, %27 : tensor<32xi32> loc(#loc9)
    %36 = tt.splat %arg4 : i32 -> tensor<32xi32> loc(#loc10)
    %37 = arith.remsi %35, %36 : tensor<32xi32> loc(#loc10)
    %38 = tt.expand_dims %19 {axis = 1 : i32} : tensor<32xi32> -> tensor<32x1xi32> loc(#loc11)
    %39 = tt.splat %arg5 : i32 -> tensor<32x1xi32> loc(#loc12)
    %40 = arith.extsi %38 : tensor<32x1xi32> to tensor<32x1xi64> loc(#loc12)
    %41 = arith.extsi %39 : tensor<32x1xi32> to tensor<32x1xi64> loc(#loc12)
    %42 = arith.muli %40, %41 : tensor<32x1xi64> loc(#loc12)
    %c2147483647_i64_12 = arith.constant 2147483647 : i64 loc(#loc12)
    %c-2147483648_i64_13 = arith.constant -2147483648 : i64 loc(#loc12)
    %cst_14 = arith.constant dense<2147483647> : tensor<32x1xi64> loc(#loc12)
    %43 = arith.cmpi sle, %42, %cst_14 : tensor<32x1xi64> loc(#loc12)
    %cst_15 = arith.constant dense<-2147483648> : tensor<32x1xi64> loc(#loc12)
    %44 = arith.cmpi sge, %42, %cst_15 : tensor<32x1xi64> loc(#loc12)
    %45 = arith.andi %43, %44 : tensor<32x1xi1> loc(#loc12)
    %46 = arith.muli %38, %39 : tensor<32x1xi32> loc(#loc12)
    %47 = tt.expand_dims %37 {axis = 0 : i32} : tensor<32xi32> -> tensor<1x32xi32> loc(#loc13)
    %c1_i32 = arith.constant 1 : i32 loc(#loc14)
    %c1_i32_16 = arith.constant 1 : i32 loc(#loc14)
    %cst_17 = arith.constant dense<1> : tensor<1x32xi32> loc(#loc14)
    %48 = arith.extsi %47 : tensor<1x32xi32> to tensor<1x32xi64> loc(#loc14)
    %49 = arith.extsi %cst_17 : tensor<1x32xi32> to tensor<1x32xi64> loc(#loc14)
    %50 = arith.muli %48, %49 : tensor<1x32xi64> loc(#loc14)
    %c2147483647_i64_18 = arith.constant 2147483647 : i64 loc(#loc14)
    %c-2147483648_i64_19 = arith.constant -2147483648 : i64 loc(#loc14)
    %cst_20 = arith.constant dense<2147483647> : tensor<1x32xi64> loc(#loc14)
    %51 = arith.cmpi sle, %50, %cst_20 : tensor<1x32xi64> loc(#loc14)
    %cst_21 = arith.constant dense<-2147483648> : tensor<1x32xi64> loc(#loc14)
    %52 = arith.cmpi sge, %50, %cst_21 : tensor<1x32xi64> loc(#loc14)
    %53 = arith.andi %51, %52 : tensor<1x32xi1> loc(#loc14)
    %54 = arith.muli %47, %cst_17 : tensor<1x32xi32> loc(#loc14)
    %55 = tt.broadcast %46 : tensor<32x1xi32> -> tensor<32x32xi32> loc(#loc15)
    %56 = tt.broadcast %54 : tensor<1x32xi32> -> tensor<32x32xi32> loc(#loc15)
    %57 = arith.extsi %55 : tensor<32x32xi32> to tensor<32x32xi64> loc(#loc15)
    %58 = arith.extsi %56 : tensor<32x32xi32> to tensor<32x32xi64> loc(#loc15)
    %59 = arith.addi %57, %58 : tensor<32x32xi64> loc(#loc15)
    %c2147483647_i64_22 = arith.constant 2147483647 : i64 loc(#loc15)
    %c-2147483648_i64_23 = arith.constant -2147483648 : i64 loc(#loc15)
    %cst_24 = arith.constant dense<2147483647> : tensor<32x32xi64> loc(#loc15)
    %60 = arith.cmpi sle, %59, %cst_24 : tensor<32x32xi64> loc(#loc15)
    %cst_25 = arith.constant dense<-2147483648> : tensor<32x32xi64> loc(#loc15)
    %61 = arith.cmpi sge, %59, %cst_25 : tensor<32x32xi64> loc(#loc15)
    %62 = arith.andi %60, %61 : tensor<32x32xi1> loc(#loc15)
    %63 = arith.addi %55, %56 : tensor<32x32xi32> loc(#loc15)
    %64 = tt.splat %arg0 : !tt.ptr<f32> -> tensor<32x32x!tt.ptr<f32>> loc(#loc16)
    %65 = tt.addptr %64, %63 : tensor<32x32x!tt.ptr<f32>>, tensor<32x32xi32> loc(#loc16)
    %66 = tt.expand_dims %19 {axis = 1 : i32} : tensor<32xi32> -> tensor<32x1xi32> loc(#loc17)
    %67 = tt.splat %arg6 : i32 -> tensor<32x1xi32> loc(#loc18)
    %68 = arith.extsi %66 : tensor<32x1xi32> to tensor<32x1xi64> loc(#loc18)
    %69 = arith.extsi %67 : tensor<32x1xi32> to tensor<32x1xi64> loc(#loc18)
    %70 = arith.muli %68, %69 : tensor<32x1xi64> loc(#loc18)
    %c2147483647_i64_26 = arith.constant 2147483647 : i64 loc(#loc18)
    %c-2147483648_i64_27 = arith.constant -2147483648 : i64 loc(#loc18)
    %cst_28 = arith.constant dense<2147483647> : tensor<32x1xi64> loc(#loc18)
    %71 = arith.cmpi sle, %70, %cst_28 : tensor<32x1xi64> loc(#loc18)
    %cst_29 = arith.constant dense<-2147483648> : tensor<32x1xi64> loc(#loc18)
    %72 = arith.cmpi sge, %70, %cst_29 : tensor<32x1xi64> loc(#loc18)
    %73 = arith.andi %71, %72 : tensor<32x1xi1> loc(#loc18)
    %74 = arith.muli %66, %67 : tensor<32x1xi32> loc(#loc18)
    %75 = tt.expand_dims %37 {axis = 0 : i32} : tensor<32xi32> -> tensor<1x32xi32> loc(#loc19)
    %c1_i32_30 = arith.constant 1 : i32 loc(#loc20)
    %c1_i32_31 = arith.constant 1 : i32 loc(#loc20)
    %cst_32 = arith.constant dense<1> : tensor<1x32xi32> loc(#loc20)
    %76 = arith.extsi %75 : tensor<1x32xi32> to tensor<1x32xi64> loc(#loc20)
    %77 = arith.extsi %cst_32 : tensor<1x32xi32> to tensor<1x32xi64> loc(#loc20)
    %78 = arith.muli %76, %77 : tensor<1x32xi64> loc(#loc20)
    %c2147483647_i64_33 = arith.constant 2147483647 : i64 loc(#loc20)
    %c-2147483648_i64_34 = arith.constant -2147483648 : i64 loc(#loc20)
    %cst_35 = arith.constant dense<2147483647> : tensor<1x32xi64> loc(#loc20)
    %79 = arith.cmpi sle, %78, %cst_35 : tensor<1x32xi64> loc(#loc20)
    %cst_36 = arith.constant dense<-2147483648> : tensor<1x32xi64> loc(#loc20)
    %80 = arith.cmpi sge, %78, %cst_36 : tensor<1x32xi64> loc(#loc20)
    %81 = arith.andi %79, %80 : tensor<1x32xi1> loc(#loc20)
    %82 = arith.muli %75, %cst_32 : tensor<1x32xi32> loc(#loc20)
    %83 = tt.broadcast %74 : tensor<32x1xi32> -> tensor<32x32xi32> loc(#loc21)
    %84 = tt.broadcast %82 : tensor<1x32xi32> -> tensor<32x32xi32> loc(#loc21)
    %85 = arith.extsi %83 : tensor<32x32xi32> to tensor<32x32xi64> loc(#loc21)
    %86 = arith.extsi %84 : tensor<32x32xi32> to tensor<32x32xi64> loc(#loc21)
    %87 = arith.addi %85, %86 : tensor<32x32xi64> loc(#loc21)
    %c2147483647_i64_37 = arith.constant 2147483647 : i64 loc(#loc21)
    %c-2147483648_i64_38 = arith.constant -2147483648 : i64 loc(#loc21)
    %cst_39 = arith.constant dense<2147483647> : tensor<32x32xi64> loc(#loc21)
    %88 = arith.cmpi sle, %87, %cst_39 : tensor<32x32xi64> loc(#loc21)
    %cst_40 = arith.constant dense<-2147483648> : tensor<32x32xi64> loc(#loc21)
    %89 = arith.cmpi sge, %87, %cst_40 : tensor<32x32xi64> loc(#loc21)
    %90 = arith.andi %88, %89 : tensor<32x32xi1> loc(#loc21)
    %91 = arith.addi %83, %84 : tensor<32x32xi32> loc(#loc21)
    %92 = tt.splat %arg1 : !tt.ptr<f32> -> tensor<32x32x!tt.ptr<f32>> loc(#loc22)
    %93 = tt.addptr %92, %91 : tensor<32x32x!tt.ptr<f32>>, tensor<32x32xi32> loc(#loc22)
    %94 = tt.expand_dims %19 {axis = 1 : i32} : tensor<32xi32> -> tensor<32x1xi32> loc(#loc23)
    %95 = tt.splat %arg7 : i32 -> tensor<32x1xi32> loc(#loc24)
    %96 = arith.extsi %94 : tensor<32x1xi32> to tensor<32x1xi64> loc(#loc24)
    %97 = arith.extsi %95 : tensor<32x1xi32> to tensor<32x1xi64> loc(#loc24)
    %98 = arith.muli %96, %97 : tensor<32x1xi64> loc(#loc24)
    %c2147483647_i64_41 = arith.constant 2147483647 : i64 loc(#loc24)
    %c-2147483648_i64_42 = arith.constant -2147483648 : i64 loc(#loc24)
    %cst_43 = arith.constant dense<2147483647> : tensor<32x1xi64> loc(#loc24)
    %99 = arith.cmpi sle, %98, %cst_43 : tensor<32x1xi64> loc(#loc24)
    %cst_44 = arith.constant dense<-2147483648> : tensor<32x1xi64> loc(#loc24)
    %100 = arith.cmpi sge, %98, %cst_44 : tensor<32x1xi64> loc(#loc24)
    %101 = arith.andi %99, %100 : tensor<32x1xi1> loc(#loc24)
    %102 = arith.muli %94, %95 : tensor<32x1xi32> loc(#loc24)
    %103 = tt.expand_dims %37 {axis = 0 : i32} : tensor<32xi32> -> tensor<1x32xi32> loc(#loc25)
    %c1_i32_45 = arith.constant 1 : i32 loc(#loc26)
    %c1_i32_46 = arith.constant 1 : i32 loc(#loc26)
    %cst_47 = arith.constant dense<1> : tensor<1x32xi32> loc(#loc26)
    %104 = arith.extsi %103 : tensor<1x32xi32> to tensor<1x32xi64> loc(#loc26)
    %105 = arith.extsi %cst_47 : tensor<1x32xi32> to tensor<1x32xi64> loc(#loc26)
    %106 = arith.muli %104, %105 : tensor<1x32xi64> loc(#loc26)
    %c2147483647_i64_48 = arith.constant 2147483647 : i64 loc(#loc26)
    %c-2147483648_i64_49 = arith.constant -2147483648 : i64 loc(#loc26)
    %cst_50 = arith.constant dense<2147483647> : tensor<1x32xi64> loc(#loc26)
    %107 = arith.cmpi sle, %106, %cst_50 : tensor<1x32xi64> loc(#loc26)
    %cst_51 = arith.constant dense<-2147483648> : tensor<1x32xi64> loc(#loc26)
    %108 = arith.cmpi sge, %106, %cst_51 : tensor<1x32xi64> loc(#loc26)
    %109 = arith.andi %107, %108 : tensor<1x32xi1> loc(#loc26)
    %110 = arith.muli %103, %cst_47 : tensor<1x32xi32> loc(#loc26)
    %111 = tt.broadcast %102 : tensor<32x1xi32> -> tensor<32x32xi32> loc(#loc27)
    %112 = tt.broadcast %110 : tensor<1x32xi32> -> tensor<32x32xi32> loc(#loc27)
    %113 = arith.extsi %111 : tensor<32x32xi32> to tensor<32x32xi64> loc(#loc27)
    %114 = arith.extsi %112 : tensor<32x32xi32> to tensor<32x32xi64> loc(#loc27)
    %115 = arith.addi %113, %114 : tensor<32x32xi64> loc(#loc27)
    %c2147483647_i64_52 = arith.constant 2147483647 : i64 loc(#loc27)
    %c-2147483648_i64_53 = arith.constant -2147483648 : i64 loc(#loc27)
    %cst_54 = arith.constant dense<2147483647> : tensor<32x32xi64> loc(#loc27)
    %116 = arith.cmpi sle, %115, %cst_54 : tensor<32x32xi64> loc(#loc27)
    %cst_55 = arith.constant dense<-2147483648> : tensor<32x32xi64> loc(#loc27)
    %117 = arith.cmpi sge, %115, %cst_55 : tensor<32x32xi64> loc(#loc27)
    %118 = arith.andi %116, %117 : tensor<32x32xi1> loc(#loc27)
    %119 = arith.addi %111, %112 : tensor<32x32xi32> loc(#loc27)
    %120 = tt.splat %arg2 : !tt.ptr<f32> -> tensor<32x32x!tt.ptr<f32>> loc(#loc28)
    %121 = tt.addptr %120, %119 : tensor<32x32x!tt.ptr<f32>>, tensor<32x32xi32> loc(#loc28)
    %122 = tt.expand_dims %19 {axis = 1 : i32} : tensor<32xi32> -> tensor<32x1xi32> loc(#loc29)
    %123 = tt.splat %arg3 : i32 -> tensor<32x1xi32> loc(#loc30)
    %124 = arith.cmpi slt, %122, %123 : tensor<32x1xi32> loc(#loc30)
    %125 = tt.expand_dims %37 {axis = 0 : i32} : tensor<32xi32> -> tensor<1x32xi32> loc(#loc31)
    %126 = tt.splat %arg4 : i32 -> tensor<1x32xi32> loc(#loc32)
    %127 = arith.cmpi slt, %125, %126 : tensor<1x32xi32> loc(#loc32)
    %128 = tt.broadcast %124 : tensor<32x1xi1> -> tensor<32x32xi1> loc(#loc33)
    %129 = tt.broadcast %127 : tensor<1x32xi1> -> tensor<32x32xi1> loc(#loc33)
    %130 = arith.andi %128, %129 : tensor<32x32xi1> loc(#loc33)
    %cst_56 = arith.constant 0.000000e+00 : f32 loc(#loc34)
    %cst_57 = arith.constant dense<0.000000e+00> : tensor<32x32xf32> loc(#loc34)
    %131 = tt.load %65, %130, %cst_57 : tensor<32x32x!tt.ptr<f32>> loc(#loc34)
    %cst_58 = arith.constant 0.000000e+00 : f32 loc(#loc35)
    %cst_59 = arith.constant dense<0.000000e+00> : tensor<32x32xf32> loc(#loc35)
    %132 = tt.load %93, %130, %cst_59 : tensor<32x32x!tt.ptr<f32>> loc(#loc35)
    %133 = arith.addf %131, %132 : tensor<32x32xf32> loc(#loc36)
    tt.store %121, %133, %130 : tensor<32x32x!tt.ptr<f32>> loc(#loc37)
    tt.return loc(#loc38)
  } loc(#loc)
} loc(#loc)
#loc1 = loc("examples/kernels/binary_ops.py":106:26)
#loc2 = loc("examples/kernels/binary_ops.py":107:26)
#loc3 = loc("examples/kernels/binary_ops.py":108:22)
#loc4 = loc("examples/kernels/binary_ops.py":108:50)
#loc5 = loc("examples/kernels/binary_ops.py":108:37)
#loc6 = loc("examples/kernels/binary_ops.py":108:67)
#loc7 = loc("examples/kernels/binary_ops.py":109:22)
#loc8 = loc("examples/kernels/binary_ops.py":109:50)
#loc9 = loc("examples/kernels/binary_ops.py":109:37)
#loc10 = loc("examples/kernels/binary_ops.py":109:67)
#loc11 = loc("examples/kernels/binary_ops.py":110:29)
#loc12 = loc("examples/kernels/binary_ops.py":110:40)
#loc13 = loc("examples/kernels/binary_ops.py":110:59)
#loc14 = loc("examples/kernels/binary_ops.py":110:70)
#loc15 = loc("examples/kernels/binary_ops.py":110:52)
#loc16 = loc("examples/kernels/binary_ops.py":110:22)
#loc17 = loc("examples/kernels/binary_ops.py":111:29)
#loc18 = loc("examples/kernels/binary_ops.py":111:40)
#loc19 = loc("examples/kernels/binary_ops.py":111:59)
#loc20 = loc("examples/kernels/binary_ops.py":111:70)
#loc21 = loc("examples/kernels/binary_ops.py":111:52)
#loc22 = loc("examples/kernels/binary_ops.py":111:22)
#loc23 = loc("examples/kernels/binary_ops.py":112:29)
#loc24 = loc("examples/kernels/binary_ops.py":112:40)
#loc25 = loc("examples/kernels/binary_ops.py":112:59)
#loc26 = loc("examples/kernels/binary_ops.py":112:70)
#loc27 = loc("examples/kernels/binary_ops.py":112:52)
#loc28 = loc("examples/kernels/binary_ops.py":112:22)
#loc29 = loc("examples/kernels/binary_ops.py":114:20)
#loc30 = loc("examples/kernels/binary_ops.py":114:31)
#loc31 = loc("examples/kernels/binary_ops.py":114:44)
#loc32 = loc("examples/kernels/binary_ops.py":114:55)
#loc33 = loc("examples/kernels/binary_ops.py":114:37)
#loc34 = loc("examples/kernels/binary_ops.py":116:16)
#loc35 = loc("examples/kernels/binary_ops.py":117:16)
#loc36 = loc("examples/kernels/binary_ops.py":118:12)
#loc37 = loc("examples/kernels/binary_ops.py":119:21)
#loc38 = loc("examples/kernels/binary_ops.py":119:4)


// -----// IR Dump Before TritonRewriteTensorPointer (triton-rewrite-tensor-pointer) ('builtin.module' operation) //----- //
#loc = loc("examples/kernels/binary_ops.py":97:0)
module {
  tt.func public @add_2d_kernel(%arg0: !tt.ptr<f32> {tt.divisibility = 16 : i32} loc("examples/kernels/binary_ops.py":97:0), %arg1: !tt.ptr<f32> {tt.divisibility = 16 : i32} loc("examples/kernels/binary_ops.py":97:0), %arg2: !tt.ptr<f32> {tt.divisibility = 16 : i32} loc("examples/kernels/binary_ops.py":97:0), %arg3: i32 {tt.divisibility = 16 : i32} loc("examples/kernels/binary_ops.py":97:0), %arg4: i32 {tt.divisibility = 16 : i32} loc("examples/kernels/binary_ops.py":97:0), %arg5: i32 {tt.divisibility = 16 : i32} loc("examples/kernels/binary_ops.py":97:0), %arg6: i32 {tt.divisibility = 16 : i32} loc("examples/kernels/binary_ops.py":97:0), %arg7: i32 {tt.divisibility = 16 : i32} loc("examples/kernels/binary_ops.py":97:0)) attributes {noinline = false} {
    %cst = arith.constant dense<0.000000e+00> : tensor<32x32xf32> loc(#loc1)
    %c32_i32 = arith.constant 32 : i32 loc(#loc1)
    %0 = tt.get_program_id x : i32 loc(#loc2)
    %1 = tt.get_program_id y : i32 loc(#loc3)
    %2 = arith.muli %0, %c32_i32 : i32 loc(#loc4)
    %3 = tt.make_range {end = 32 : i32, start = 0 : i32} : tensor<32xi32> loc(#loc5)
    %4 = tt.splat %2 : i32 -> tensor<32xi32> loc(#loc6)
    %5 = arith.addi %4, %3 : tensor<32xi32> loc(#loc6)
    %6 = tt.splat %arg3 : i32 -> tensor<32xi32> loc(#loc7)
    %7 = arith.remsi %5, %6 : tensor<32xi32> loc(#loc7)
    %8 = arith.muli %1, %c32_i32 : i32 loc(#loc8)
    %9 = tt.make_range {end = 32 : i32, start = 0 : i32} : tensor<32xi32> loc(#loc9)
    %10 = tt.splat %8 : i32 -> tensor<32xi32> loc(#loc10)
    %11 = arith.addi %10, %9 : tensor<32xi32> loc(#loc10)
    %12 = tt.splat %arg4 : i32 -> tensor<32xi32> loc(#loc11)
    %13 = arith.remsi %11, %12 : tensor<32xi32> loc(#loc11)
    %14 = tt.expand_dims %7 {axis = 1 : i32} : tensor<32xi32> -> tensor<32x1xi32> loc(#loc12)
    %15 = tt.splat %arg5 : i32 -> tensor<32x1xi32> loc(#loc13)
    %16 = arith.muli %14, %15 : tensor<32x1xi32> loc(#loc13)
    %17 = tt.expand_dims %13 {axis = 0 : i32} : tensor<32xi32> -> tensor<1x32xi32> loc(#loc14)
    %18 = tt.broadcast %16 : tensor<32x1xi32> -> tensor<32x32xi32> loc(#loc15)
    %19 = tt.broadcast %17 : tensor<1x32xi32> -> tensor<32x32xi32> loc(#loc15)
    %20 = arith.addi %18, %19 : tensor<32x32xi32> loc(#loc15)
    %21 = tt.splat %arg0 : !tt.ptr<f32> -> tensor<32x32x!tt.ptr<f32>> loc(#loc16)
    %22 = tt.addptr %21, %20 : tensor<32x32x!tt.ptr<f32>>, tensor<32x32xi32> loc(#loc16)
    %23 = tt.expand_dims %7 {axis = 1 : i32} : tensor<32xi32> -> tensor<32x1xi32> loc(#loc17)
    %24 = tt.splat %arg6 : i32 -> tensor<32x1xi32> loc(#loc18)
    %25 = arith.muli %23, %24 : tensor<32x1xi32> loc(#loc18)
    %26 = tt.expand_dims %13 {axis = 0 : i32} : tensor<32xi32> -> tensor<1x32xi32> loc(#loc19)
    %27 = tt.broadcast %25 : tensor<32x1xi32> -> tensor<32x32xi32> loc(#loc20)
    %28 = tt.broadcast %26 : tensor<1x32xi32> -> tensor<32x32xi32> loc(#loc20)
    %29 = arith.addi %27, %28 : tensor<32x32xi32> loc(#loc20)
    %30 = tt.splat %arg1 : !tt.ptr<f32> -> tensor<32x32x!tt.ptr<f32>> loc(#loc21)
    %31 = tt.addptr %30, %29 : tensor<32x32x!tt.ptr<f32>>, tensor<32x32xi32> loc(#loc21)
    %32 = tt.expand_dims %7 {axis = 1 : i32} : tensor<32xi32> -> tensor<32x1xi32> loc(#loc22)
    %33 = tt.splat %arg7 : i32 -> tensor<32x1xi32> loc(#loc23)
    %34 = arith.muli %32, %33 : tensor<32x1xi32> loc(#loc23)
    %35 = tt.expand_dims %13 {axis = 0 : i32} : tensor<32xi32> -> tensor<1x32xi32> loc(#loc24)
    %36 = tt.broadcast %34 : tensor<32x1xi32> -> tensor<32x32xi32> loc(#loc25)
    %37 = tt.broadcast %35 : tensor<1x32xi32> -> tensor<32x32xi32> loc(#loc25)
    %38 = arith.addi %36, %37 : tensor<32x32xi32> loc(#loc25)
    %39 = tt.splat %arg2 : !tt.ptr<f32> -> tensor<32x32x!tt.ptr<f32>> loc(#loc26)
    %40 = tt.addptr %39, %38 : tensor<32x32x!tt.ptr<f32>>, tensor<32x32xi32> loc(#loc26)
    %41 = tt.expand_dims %7 {axis = 1 : i32} : tensor<32xi32> -> tensor<32x1xi32> loc(#loc27)
    %42 = tt.splat %arg3 : i32 -> tensor<32x1xi32> loc(#loc28)
    %43 = arith.cmpi slt, %41, %42 : tensor<32x1xi32> loc(#loc28)
    %44 = tt.expand_dims %13 {axis = 0 : i32} : tensor<32xi32> -> tensor<1x32xi32> loc(#loc29)
    %45 = tt.splat %arg4 : i32 -> tensor<1x32xi32> loc(#loc30)
    %46 = arith.cmpi slt, %44, %45 : tensor<1x32xi32> loc(#loc30)
    %47 = tt.broadcast %43 : tensor<32x1xi1> -> tensor<32x32xi1> loc(#loc31)
    %48 = tt.broadcast %46 : tensor<1x32xi1> -> tensor<32x32xi1> loc(#loc31)
    %49 = arith.andi %47, %48 : tensor<32x32xi1> loc(#loc31)
    %50 = tt.load %22, %49, %cst : tensor<32x32x!tt.ptr<f32>> loc(#loc32)
    %51 = tt.load %31, %49, %cst : tensor<32x32x!tt.ptr<f32>> loc(#loc33)
    %52 = arith.addf %50, %51 : tensor<32x32xf32> loc(#loc34)
    tt.store %40, %52, %49 : tensor<32x32x!tt.ptr<f32>> loc(#loc35)
    tt.return loc(#loc36)
  } loc(#loc)
} loc(#loc)
#loc1 = loc(unknown)
#loc2 = loc("examples/kernels/binary_ops.py":106:26)
#loc3 = loc("examples/kernels/binary_ops.py":107:26)
#loc4 = loc("examples/kernels/binary_ops.py":108:22)
#loc5 = loc("examples/kernels/binary_ops.py":108:50)
#loc6 = loc("examples/kernels/binary_ops.py":108:37)
#loc7 = loc("examples/kernels/binary_ops.py":108:67)
#loc8 = loc("examples/kernels/binary_ops.py":109:22)
#loc9 = loc("examples/kernels/binary_ops.py":109:50)
#loc10 = loc("examples/kernels/binary_ops.py":109:37)
#loc11 = loc("examples/kernels/binary_ops.py":109:67)
#loc12 = loc("examples/kernels/binary_ops.py":110:29)
#loc13 = loc("examples/kernels/binary_ops.py":110:40)
#loc14 = loc("examples/kernels/binary_ops.py":110:59)
#loc15 = loc("examples/kernels/binary_ops.py":110:52)
#loc16 = loc("examples/kernels/binary_ops.py":110:22)
#loc17 = loc("examples/kernels/binary_ops.py":111:29)
#loc18 = loc("examples/kernels/binary_ops.py":111:40)
#loc19 = loc("examples/kernels/binary_ops.py":111:59)
#loc20 = loc("examples/kernels/binary_ops.py":111:52)
#loc21 = loc("examples/kernels/binary_ops.py":111:22)
#loc22 = loc("examples/kernels/binary_ops.py":112:29)
#loc23 = loc("examples/kernels/binary_ops.py":112:40)
#loc24 = loc("examples/kernels/binary_ops.py":112:59)
#loc25 = loc("examples/kernels/binary_ops.py":112:52)
#loc26 = loc("examples/kernels/binary_ops.py":112:22)
#loc27 = loc("examples/kernels/binary_ops.py":114:20)
#loc28 = loc("examples/kernels/binary_ops.py":114:31)
#loc29 = loc("examples/kernels/binary_ops.py":114:44)
#loc30 = loc("examples/kernels/binary_ops.py":114:55)
#loc31 = loc("examples/kernels/binary_ops.py":114:37)
#loc32 = loc("examples/kernels/binary_ops.py":116:16)
#loc33 = loc("examples/kernels/binary_ops.py":117:16)
#loc34 = loc("examples/kernels/binary_ops.py":118:12)
#loc35 = loc("examples/kernels/binary_ops.py":119:21)
#loc36 = loc("examples/kernels/binary_ops.py":119:4)


// -----// IR Dump Before Canonicalizer (canonicalize) ('builtin.module' operation) //----- //
#loc = loc("examples/kernels/binary_ops.py":97:0)
module {
  tt.func public @add_2d_kernel(%arg0: !tt.ptr<f32> {tt.divisibility = 16 : i32} loc("examples/kernels/binary_ops.py":97:0), %arg1: !tt.ptr<f32> {tt.divisibility = 16 : i32} loc("examples/kernels/binary_ops.py":97:0), %arg2: !tt.ptr<f32> {tt.divisibility = 16 : i32} loc("examples/kernels/binary_ops.py":97:0), %arg3: i32 {tt.divisibility = 16 : i32} loc("examples/kernels/binary_ops.py":97:0), %arg4: i32 {tt.divisibility = 16 : i32} loc("examples/kernels/binary_ops.py":97:0), %arg5: i32 {tt.divisibility = 16 : i32} loc("examples/kernels/binary_ops.py":97:0), %arg6: i32 {tt.divisibility = 16 : i32} loc("examples/kernels/binary_ops.py":97:0), %arg7: i32 {tt.divisibility = 16 : i32} loc("examples/kernels/binary_ops.py":97:0)) attributes {noinline = false} {
    %cst = arith.constant dense<0.000000e+00> : tensor<32x32xf32> loc(#loc1)
    %c32_i32 = arith.constant 32 : i32 loc(#loc1)
    %0 = tt.get_program_id x : i32 loc(#loc2)
    %1 = tt.get_program_id y : i32 loc(#loc3)
    %2 = arith.muli %0, %c32_i32 : i32 loc(#loc4)
    %3 = tt.make_range {end = 32 : i32, start = 0 : i32} : tensor<32xi32> loc(#loc5)
    %4 = tt.splat %2 : i32 -> tensor<32xi32> loc(#loc6)
    %5 = arith.addi %4, %3 : tensor<32xi32> loc(#loc6)
    %6 = tt.splat %arg3 : i32 -> tensor<32xi32> loc(#loc7)
    %7 = arith.remsi %5, %6 : tensor<32xi32> loc(#loc7)
    %8 = arith.muli %1, %c32_i32 : i32 loc(#loc8)
    %9 = tt.make_range {end = 32 : i32, start = 0 : i32} : tensor<32xi32> loc(#loc9)
    %10 = tt.splat %8 : i32 -> tensor<32xi32> loc(#loc10)
    %11 = arith.addi %10, %9 : tensor<32xi32> loc(#loc10)
    %12 = tt.splat %arg4 : i32 -> tensor<32xi32> loc(#loc11)
    %13 = arith.remsi %11, %12 : tensor<32xi32> loc(#loc11)
    %14 = tt.expand_dims %7 {axis = 1 : i32} : tensor<32xi32> -> tensor<32x1xi32> loc(#loc12)
    %15 = tt.splat %arg5 : i32 -> tensor<32x1xi32> loc(#loc13)
    %16 = arith.muli %14, %15 : tensor<32x1xi32> loc(#loc13)
    %17 = tt.expand_dims %13 {axis = 0 : i32} : tensor<32xi32> -> tensor<1x32xi32> loc(#loc14)
    %18 = tt.broadcast %16 : tensor<32x1xi32> -> tensor<32x32xi32> loc(#loc15)
    %19 = tt.broadcast %17 : tensor<1x32xi32> -> tensor<32x32xi32> loc(#loc15)
    %20 = arith.addi %18, %19 : tensor<32x32xi32> loc(#loc15)
    %21 = tt.splat %arg0 : !tt.ptr<f32> -> tensor<32x32x!tt.ptr<f32>> loc(#loc16)
    %22 = tt.addptr %21, %20 : tensor<32x32x!tt.ptr<f32>>, tensor<32x32xi32> loc(#loc16)
    %23 = tt.expand_dims %7 {axis = 1 : i32} : tensor<32xi32> -> tensor<32x1xi32> loc(#loc17)
    %24 = tt.splat %arg6 : i32 -> tensor<32x1xi32> loc(#loc18)
    %25 = arith.muli %23, %24 : tensor<32x1xi32> loc(#loc18)
    %26 = tt.expand_dims %13 {axis = 0 : i32} : tensor<32xi32> -> tensor<1x32xi32> loc(#loc19)
    %27 = tt.broadcast %25 : tensor<32x1xi32> -> tensor<32x32xi32> loc(#loc20)
    %28 = tt.broadcast %26 : tensor<1x32xi32> -> tensor<32x32xi32> loc(#loc20)
    %29 = arith.addi %27, %28 : tensor<32x32xi32> loc(#loc20)
    %30 = tt.splat %arg1 : !tt.ptr<f32> -> tensor<32x32x!tt.ptr<f32>> loc(#loc21)
    %31 = tt.addptr %30, %29 : tensor<32x32x!tt.ptr<f32>>, tensor<32x32xi32> loc(#loc21)
    %32 = tt.expand_dims %7 {axis = 1 : i32} : tensor<32xi32> -> tensor<32x1xi32> loc(#loc22)
    %33 = tt.splat %arg7 : i32 -> tensor<32x1xi32> loc(#loc23)
    %34 = arith.muli %32, %33 : tensor<32x1xi32> loc(#loc23)
    %35 = tt.expand_dims %13 {axis = 0 : i32} : tensor<32xi32> -> tensor<1x32xi32> loc(#loc24)
    %36 = tt.broadcast %34 : tensor<32x1xi32> -> tensor<32x32xi32> loc(#loc25)
    %37 = tt.broadcast %35 : tensor<1x32xi32> -> tensor<32x32xi32> loc(#loc25)
    %38 = arith.addi %36, %37 : tensor<32x32xi32> loc(#loc25)
    %39 = tt.splat %arg2 : !tt.ptr<f32> -> tensor<32x32x!tt.ptr<f32>> loc(#loc26)
    %40 = tt.addptr %39, %38 : tensor<32x32x!tt.ptr<f32>>, tensor<32x32xi32> loc(#loc26)
    %41 = tt.expand_dims %7 {axis = 1 : i32} : tensor<32xi32> -> tensor<32x1xi32> loc(#loc27)
    %42 = tt.splat %arg3 : i32 -> tensor<32x1xi32> loc(#loc28)
    %43 = arith.cmpi slt, %41, %42 : tensor<32x1xi32> loc(#loc28)
    %44 = tt.expand_dims %13 {axis = 0 : i32} : tensor<32xi32> -> tensor<1x32xi32> loc(#loc29)
    %45 = tt.splat %arg4 : i32 -> tensor<1x32xi32> loc(#loc30)
    %46 = arith.cmpi slt, %44, %45 : tensor<1x32xi32> loc(#loc30)
    %47 = tt.broadcast %43 : tensor<32x1xi1> -> tensor<32x32xi1> loc(#loc31)
    %48 = tt.broadcast %46 : tensor<1x32xi1> -> tensor<32x32xi1> loc(#loc31)
    %49 = arith.andi %47, %48 : tensor<32x32xi1> loc(#loc31)
    %50 = tt.load %22, %49, %cst : tensor<32x32x!tt.ptr<f32>> loc(#loc32)
    %51 = tt.load %31, %49, %cst : tensor<32x32x!tt.ptr<f32>> loc(#loc33)
    %52 = arith.addf %50, %51 : tensor<32x32xf32> loc(#loc34)
    tt.store %40, %52, %49 : tensor<32x32x!tt.ptr<f32>> loc(#loc35)
    tt.return loc(#loc36)
  } loc(#loc)
} loc(#loc)
#loc1 = loc(unknown)
#loc2 = loc("examples/kernels/binary_ops.py":106:26)
#loc3 = loc("examples/kernels/binary_ops.py":107:26)
#loc4 = loc("examples/kernels/binary_ops.py":108:22)
#loc5 = loc("examples/kernels/binary_ops.py":108:50)
#loc6 = loc("examples/kernels/binary_ops.py":108:37)
#loc7 = loc("examples/kernels/binary_ops.py":108:67)
#loc8 = loc("examples/kernels/binary_ops.py":109:22)
#loc9 = loc("examples/kernels/binary_ops.py":109:50)
#loc10 = loc("examples/kernels/binary_ops.py":109:37)
#loc11 = loc("examples/kernels/binary_ops.py":109:67)
#loc12 = loc("examples/kernels/binary_ops.py":110:29)
#loc13 = loc("examples/kernels/binary_ops.py":110:40)
#loc14 = loc("examples/kernels/binary_ops.py":110:59)
#loc15 = loc("examples/kernels/binary_ops.py":110:52)
#loc16 = loc("examples/kernels/binary_ops.py":110:22)
#loc17 = loc("examples/kernels/binary_ops.py":111:29)
#loc18 = loc("examples/kernels/binary_ops.py":111:40)
#loc19 = loc("examples/kernels/binary_ops.py":111:59)
#loc20 = loc("examples/kernels/binary_ops.py":111:52)
#loc21 = loc("examples/kernels/binary_ops.py":111:22)
#loc22 = loc("examples/kernels/binary_ops.py":112:29)
#loc23 = loc("examples/kernels/binary_ops.py":112:40)
#loc24 = loc("examples/kernels/binary_ops.py":112:59)
#loc25 = loc("examples/kernels/binary_ops.py":112:52)
#loc26 = loc("examples/kernels/binary_ops.py":112:22)
#loc27 = loc("examples/kernels/binary_ops.py":114:20)
#loc28 = loc("examples/kernels/binary_ops.py":114:31)
#loc29 = loc("examples/kernels/binary_ops.py":114:44)
#loc30 = loc("examples/kernels/binary_ops.py":114:55)
#loc31 = loc("examples/kernels/binary_ops.py":114:37)
#loc32 = loc("examples/kernels/binary_ops.py":116:16)
#loc33 = loc("examples/kernels/binary_ops.py":117:16)
#loc34 = loc("examples/kernels/binary_ops.py":118:12)
#loc35 = loc("examples/kernels/binary_ops.py":119:21)
#loc36 = loc("examples/kernels/binary_ops.py":119:4)


// -----// IR Dump Before TritonCombineOps (triton-combine) ('builtin.module' operation) //----- //
#loc = loc("examples/kernels/binary_ops.py":97:0)
module {
  tt.func public @add_2d_kernel(%arg0: !tt.ptr<f32> {tt.divisibility = 16 : i32} loc("examples/kernels/binary_ops.py":97:0), %arg1: !tt.ptr<f32> {tt.divisibility = 16 : i32} loc("examples/kernels/binary_ops.py":97:0), %arg2: !tt.ptr<f32> {tt.divisibility = 16 : i32} loc("examples/kernels/binary_ops.py":97:0), %arg3: i32 {tt.divisibility = 16 : i32} loc("examples/kernels/binary_ops.py":97:0), %arg4: i32 {tt.divisibility = 16 : i32} loc("examples/kernels/binary_ops.py":97:0), %arg5: i32 {tt.divisibility = 16 : i32} loc("examples/kernels/binary_ops.py":97:0), %arg6: i32 {tt.divisibility = 16 : i32} loc("examples/kernels/binary_ops.py":97:0), %arg7: i32 {tt.divisibility = 16 : i32} loc("examples/kernels/binary_ops.py":97:0)) attributes {noinline = false} {
    %cst = arith.constant dense<0.000000e+00> : tensor<32x32xf32> loc(#loc1)
    %c32_i32 = arith.constant 32 : i32 loc(#loc1)
    %0 = tt.get_program_id x : i32 loc(#loc2)
    %1 = tt.get_program_id y : i32 loc(#loc3)
    %2 = arith.muli %0, %c32_i32 : i32 loc(#loc4)
    %3 = tt.make_range {end = 32 : i32, start = 0 : i32} : tensor<32xi32> loc(#loc5)
    %4 = tt.splat %2 : i32 -> tensor<32xi32> loc(#loc6)
    %5 = arith.addi %4, %3 : tensor<32xi32> loc(#loc6)
    %6 = tt.splat %arg3 : i32 -> tensor<32xi32> loc(#loc7)
    %7 = arith.remsi %5, %6 : tensor<32xi32> loc(#loc7)
    %8 = arith.muli %1, %c32_i32 : i32 loc(#loc8)
    %9 = tt.make_range {end = 32 : i32, start = 0 : i32} : tensor<32xi32> loc(#loc9)
    %10 = tt.splat %8 : i32 -> tensor<32xi32> loc(#loc10)
    %11 = arith.addi %10, %9 : tensor<32xi32> loc(#loc10)
    %12 = tt.splat %arg4 : i32 -> tensor<32xi32> loc(#loc11)
    %13 = arith.remsi %11, %12 : tensor<32xi32> loc(#loc11)
    %14 = tt.expand_dims %7 {axis = 1 : i32} : tensor<32xi32> -> tensor<32x1xi32> loc(#loc12)
    %15 = tt.splat %arg5 : i32 -> tensor<32x1xi32> loc(#loc13)
    %16 = arith.muli %14, %15 : tensor<32x1xi32> loc(#loc13)
    %17 = tt.expand_dims %13 {axis = 0 : i32} : tensor<32xi32> -> tensor<1x32xi32> loc(#loc14)
    %18 = tt.broadcast %16 : tensor<32x1xi32> -> tensor<32x32xi32> loc(#loc15)
    %19 = tt.broadcast %17 : tensor<1x32xi32> -> tensor<32x32xi32> loc(#loc15)
    %20 = arith.addi %18, %19 : tensor<32x32xi32> loc(#loc15)
    %21 = tt.splat %arg0 : !tt.ptr<f32> -> tensor<32x32x!tt.ptr<f32>> loc(#loc16)
    %22 = tt.addptr %21, %20 : tensor<32x32x!tt.ptr<f32>>, tensor<32x32xi32> loc(#loc16)
    %23 = tt.expand_dims %7 {axis = 1 : i32} : tensor<32xi32> -> tensor<32x1xi32> loc(#loc17)
    %24 = tt.splat %arg6 : i32 -> tensor<32x1xi32> loc(#loc18)
    %25 = arith.muli %23, %24 : tensor<32x1xi32> loc(#loc18)
    %26 = tt.expand_dims %13 {axis = 0 : i32} : tensor<32xi32> -> tensor<1x32xi32> loc(#loc19)
    %27 = tt.broadcast %25 : tensor<32x1xi32> -> tensor<32x32xi32> loc(#loc20)
    %28 = tt.broadcast %26 : tensor<1x32xi32> -> tensor<32x32xi32> loc(#loc20)
    %29 = arith.addi %27, %28 : tensor<32x32xi32> loc(#loc20)
    %30 = tt.splat %arg1 : !tt.ptr<f32> -> tensor<32x32x!tt.ptr<f32>> loc(#loc21)
    %31 = tt.addptr %30, %29 : tensor<32x32x!tt.ptr<f32>>, tensor<32x32xi32> loc(#loc21)
    %32 = tt.expand_dims %7 {axis = 1 : i32} : tensor<32xi32> -> tensor<32x1xi32> loc(#loc22)
    %33 = tt.splat %arg7 : i32 -> tensor<32x1xi32> loc(#loc23)
    %34 = arith.muli %32, %33 : tensor<32x1xi32> loc(#loc23)
    %35 = tt.expand_dims %13 {axis = 0 : i32} : tensor<32xi32> -> tensor<1x32xi32> loc(#loc24)
    %36 = tt.broadcast %34 : tensor<32x1xi32> -> tensor<32x32xi32> loc(#loc25)
    %37 = tt.broadcast %35 : tensor<1x32xi32> -> tensor<32x32xi32> loc(#loc25)
    %38 = arith.addi %36, %37 : tensor<32x32xi32> loc(#loc25)
    %39 = tt.splat %arg2 : !tt.ptr<f32> -> tensor<32x32x!tt.ptr<f32>> loc(#loc26)
    %40 = tt.addptr %39, %38 : tensor<32x32x!tt.ptr<f32>>, tensor<32x32xi32> loc(#loc26)
    %41 = tt.expand_dims %7 {axis = 1 : i32} : tensor<32xi32> -> tensor<32x1xi32> loc(#loc27)
    %42 = tt.splat %arg3 : i32 -> tensor<32x1xi32> loc(#loc28)
    %43 = arith.cmpi slt, %41, %42 : tensor<32x1xi32> loc(#loc28)
    %44 = tt.expand_dims %13 {axis = 0 : i32} : tensor<32xi32> -> tensor<1x32xi32> loc(#loc29)
    %45 = tt.splat %arg4 : i32 -> tensor<1x32xi32> loc(#loc30)
    %46 = arith.cmpi slt, %44, %45 : tensor<1x32xi32> loc(#loc30)
    %47 = tt.broadcast %43 : tensor<32x1xi1> -> tensor<32x32xi1> loc(#loc31)
    %48 = tt.broadcast %46 : tensor<1x32xi1> -> tensor<32x32xi1> loc(#loc31)
    %49 = arith.andi %47, %48 : tensor<32x32xi1> loc(#loc31)
    %50 = tt.load %22, %49, %cst : tensor<32x32x!tt.ptr<f32>> loc(#loc32)
    %51 = tt.load %31, %49, %cst : tensor<32x32x!tt.ptr<f32>> loc(#loc33)
    %52 = arith.addf %50, %51 : tensor<32x32xf32> loc(#loc34)
    tt.store %40, %52, %49 : tensor<32x32x!tt.ptr<f32>> loc(#loc35)
    tt.return loc(#loc36)
  } loc(#loc)
} loc(#loc)
#loc1 = loc(unknown)
#loc2 = loc("examples/kernels/binary_ops.py":106:26)
#loc3 = loc("examples/kernels/binary_ops.py":107:26)
#loc4 = loc("examples/kernels/binary_ops.py":108:22)
#loc5 = loc("examples/kernels/binary_ops.py":108:50)
#loc6 = loc("examples/kernels/binary_ops.py":108:37)
#loc7 = loc("examples/kernels/binary_ops.py":108:67)
#loc8 = loc("examples/kernels/binary_ops.py":109:22)
#loc9 = loc("examples/kernels/binary_ops.py":109:50)
#loc10 = loc("examples/kernels/binary_ops.py":109:37)
#loc11 = loc("examples/kernels/binary_ops.py":109:67)
#loc12 = loc("examples/kernels/binary_ops.py":110:29)
#loc13 = loc("examples/kernels/binary_ops.py":110:40)
#loc14 = loc("examples/kernels/binary_ops.py":110:59)
#loc15 = loc("examples/kernels/binary_ops.py":110:52)
#loc16 = loc("examples/kernels/binary_ops.py":110:22)
#loc17 = loc("examples/kernels/binary_ops.py":111:29)
#loc18 = loc("examples/kernels/binary_ops.py":111:40)
#loc19 = loc("examples/kernels/binary_ops.py":111:59)
#loc20 = loc("examples/kernels/binary_ops.py":111:52)
#loc21 = loc("examples/kernels/binary_ops.py":111:22)
#loc22 = loc("examples/kernels/binary_ops.py":112:29)
#loc23 = loc("examples/kernels/binary_ops.py":112:40)
#loc24 = loc("examples/kernels/binary_ops.py":112:59)
#loc25 = loc("examples/kernels/binary_ops.py":112:52)
#loc26 = loc("examples/kernels/binary_ops.py":112:22)
#loc27 = loc("examples/kernels/binary_ops.py":114:20)
#loc28 = loc("examples/kernels/binary_ops.py":114:31)
#loc29 = loc("examples/kernels/binary_ops.py":114:44)
#loc30 = loc("examples/kernels/binary_ops.py":114:55)
#loc31 = loc("examples/kernels/binary_ops.py":114:37)
#loc32 = loc("examples/kernels/binary_ops.py":116:16)
#loc33 = loc("examples/kernels/binary_ops.py":117:16)
#loc34 = loc("examples/kernels/binary_ops.py":118:12)
#loc35 = loc("examples/kernels/binary_ops.py":119:21)
#loc36 = loc("examples/kernels/binary_ops.py":119:4)


// -----// IR Dump Before TritonReorderBroadcast (triton-reorder-broadcast) ('builtin.module' operation) //----- //
#loc = loc("examples/kernels/binary_ops.py":97:0)
module {
  tt.func public @add_2d_kernel(%arg0: !tt.ptr<f32> {tt.divisibility = 16 : i32} loc("examples/kernels/binary_ops.py":97:0), %arg1: !tt.ptr<f32> {tt.divisibility = 16 : i32} loc("examples/kernels/binary_ops.py":97:0), %arg2: !tt.ptr<f32> {tt.divisibility = 16 : i32} loc("examples/kernels/binary_ops.py":97:0), %arg3: i32 {tt.divisibility = 16 : i32} loc("examples/kernels/binary_ops.py":97:0), %arg4: i32 {tt.divisibility = 16 : i32} loc("examples/kernels/binary_ops.py":97:0), %arg5: i32 {tt.divisibility = 16 : i32} loc("examples/kernels/binary_ops.py":97:0), %arg6: i32 {tt.divisibility = 16 : i32} loc("examples/kernels/binary_ops.py":97:0), %arg7: i32 {tt.divisibility = 16 : i32} loc("examples/kernels/binary_ops.py":97:0)) attributes {noinline = false} {
    %cst = arith.constant dense<0.000000e+00> : tensor<32x32xf32> loc(#loc1)
    %c32_i32 = arith.constant 32 : i32 loc(#loc1)
    %0 = tt.get_program_id x : i32 loc(#loc2)
    %1 = tt.get_program_id y : i32 loc(#loc3)
    %2 = arith.muli %0, %c32_i32 : i32 loc(#loc4)
    %3 = tt.make_range {end = 32 : i32, start = 0 : i32} : tensor<32xi32> loc(#loc5)
    %4 = tt.splat %2 : i32 -> tensor<32xi32> loc(#loc6)
    %5 = arith.addi %4, %3 : tensor<32xi32> loc(#loc6)
    %6 = tt.splat %arg3 : i32 -> tensor<32xi32> loc(#loc7)
    %7 = arith.remsi %5, %6 : tensor<32xi32> loc(#loc7)
    %8 = arith.muli %1, %c32_i32 : i32 loc(#loc8)
    %9 = tt.make_range {end = 32 : i32, start = 0 : i32} : tensor<32xi32> loc(#loc9)
    %10 = tt.splat %8 : i32 -> tensor<32xi32> loc(#loc10)
    %11 = arith.addi %10, %9 : tensor<32xi32> loc(#loc10)
    %12 = tt.splat %arg4 : i32 -> tensor<32xi32> loc(#loc11)
    %13 = arith.remsi %11, %12 : tensor<32xi32> loc(#loc11)
    %14 = tt.expand_dims %7 {axis = 1 : i32} : tensor<32xi32> -> tensor<32x1xi32> loc(#loc12)
    %15 = tt.splat %arg5 : i32 -> tensor<32x1xi32> loc(#loc13)
    %16 = arith.muli %14, %15 : tensor<32x1xi32> loc(#loc13)
    %17 = tt.expand_dims %13 {axis = 0 : i32} : tensor<32xi32> -> tensor<1x32xi32> loc(#loc14)
    %18 = tt.broadcast %16 : tensor<32x1xi32> -> tensor<32x32xi32> loc(#loc15)
    %19 = tt.broadcast %17 : tensor<1x32xi32> -> tensor<32x32xi32> loc(#loc15)
    %20 = arith.addi %18, %19 : tensor<32x32xi32> loc(#loc15)
    %21 = tt.splat %arg0 : !tt.ptr<f32> -> tensor<32x32x!tt.ptr<f32>> loc(#loc16)
    %22 = tt.addptr %21, %20 : tensor<32x32x!tt.ptr<f32>>, tensor<32x32xi32> loc(#loc16)
    %23 = tt.expand_dims %7 {axis = 1 : i32} : tensor<32xi32> -> tensor<32x1xi32> loc(#loc17)
    %24 = tt.splat %arg6 : i32 -> tensor<32x1xi32> loc(#loc18)
    %25 = arith.muli %23, %24 : tensor<32x1xi32> loc(#loc18)
    %26 = tt.expand_dims %13 {axis = 0 : i32} : tensor<32xi32> -> tensor<1x32xi32> loc(#loc19)
    %27 = tt.broadcast %25 : tensor<32x1xi32> -> tensor<32x32xi32> loc(#loc20)
    %28 = tt.broadcast %26 : tensor<1x32xi32> -> tensor<32x32xi32> loc(#loc20)
    %29 = arith.addi %27, %28 : tensor<32x32xi32> loc(#loc20)
    %30 = tt.splat %arg1 : !tt.ptr<f32> -> tensor<32x32x!tt.ptr<f32>> loc(#loc21)
    %31 = tt.addptr %30, %29 : tensor<32x32x!tt.ptr<f32>>, tensor<32x32xi32> loc(#loc21)
    %32 = tt.expand_dims %7 {axis = 1 : i32} : tensor<32xi32> -> tensor<32x1xi32> loc(#loc22)
    %33 = tt.splat %arg7 : i32 -> tensor<32x1xi32> loc(#loc23)
    %34 = arith.muli %32, %33 : tensor<32x1xi32> loc(#loc23)
    %35 = tt.expand_dims %13 {axis = 0 : i32} : tensor<32xi32> -> tensor<1x32xi32> loc(#loc24)
    %36 = tt.broadcast %34 : tensor<32x1xi32> -> tensor<32x32xi32> loc(#loc25)
    %37 = tt.broadcast %35 : tensor<1x32xi32> -> tensor<32x32xi32> loc(#loc25)
    %38 = arith.addi %36, %37 : tensor<32x32xi32> loc(#loc25)
    %39 = tt.splat %arg2 : !tt.ptr<f32> -> tensor<32x32x!tt.ptr<f32>> loc(#loc26)
    %40 = tt.addptr %39, %38 : tensor<32x32x!tt.ptr<f32>>, tensor<32x32xi32> loc(#loc26)
    %41 = tt.expand_dims %7 {axis = 1 : i32} : tensor<32xi32> -> tensor<32x1xi32> loc(#loc27)
    %42 = tt.splat %arg3 : i32 -> tensor<32x1xi32> loc(#loc28)
    %43 = arith.cmpi slt, %41, %42 : tensor<32x1xi32> loc(#loc28)
    %44 = tt.expand_dims %13 {axis = 0 : i32} : tensor<32xi32> -> tensor<1x32xi32> loc(#loc29)
    %45 = tt.splat %arg4 : i32 -> tensor<1x32xi32> loc(#loc30)
    %46 = arith.cmpi slt, %44, %45 : tensor<1x32xi32> loc(#loc30)
    %47 = tt.broadcast %43 : tensor<32x1xi1> -> tensor<32x32xi1> loc(#loc31)
    %48 = tt.broadcast %46 : tensor<1x32xi1> -> tensor<32x32xi1> loc(#loc31)
    %49 = arith.andi %47, %48 : tensor<32x32xi1> loc(#loc31)
    %50 = tt.load %22, %49, %cst : tensor<32x32x!tt.ptr<f32>> loc(#loc32)
    %51 = tt.load %31, %49, %cst : tensor<32x32x!tt.ptr<f32>> loc(#loc33)
    %52 = arith.addf %50, %51 : tensor<32x32xf32> loc(#loc34)
    tt.store %40, %52, %49 : tensor<32x32x!tt.ptr<f32>> loc(#loc35)
    tt.return loc(#loc36)
  } loc(#loc)
} loc(#loc)
#loc1 = loc(unknown)
#loc2 = loc("examples/kernels/binary_ops.py":106:26)
#loc3 = loc("examples/kernels/binary_ops.py":107:26)
#loc4 = loc("examples/kernels/binary_ops.py":108:22)
#loc5 = loc("examples/kernels/binary_ops.py":108:50)
#loc6 = loc("examples/kernels/binary_ops.py":108:37)
#loc7 = loc("examples/kernels/binary_ops.py":108:67)
#loc8 = loc("examples/kernels/binary_ops.py":109:22)
#loc9 = loc("examples/kernels/binary_ops.py":109:50)
#loc10 = loc("examples/kernels/binary_ops.py":109:37)
#loc11 = loc("examples/kernels/binary_ops.py":109:67)
#loc12 = loc("examples/kernels/binary_ops.py":110:29)
#loc13 = loc("examples/kernels/binary_ops.py":110:40)
#loc14 = loc("examples/kernels/binary_ops.py":110:59)
#loc15 = loc("examples/kernels/binary_ops.py":110:52)
#loc16 = loc("examples/kernels/binary_ops.py":110:22)
#loc17 = loc("examples/kernels/binary_ops.py":111:29)
#loc18 = loc("examples/kernels/binary_ops.py":111:40)
#loc19 = loc("examples/kernels/binary_ops.py":111:59)
#loc20 = loc("examples/kernels/binary_ops.py":111:52)
#loc21 = loc("examples/kernels/binary_ops.py":111:22)
#loc22 = loc("examples/kernels/binary_ops.py":112:29)
#loc23 = loc("examples/kernels/binary_ops.py":112:40)
#loc24 = loc("examples/kernels/binary_ops.py":112:59)
#loc25 = loc("examples/kernels/binary_ops.py":112:52)
#loc26 = loc("examples/kernels/binary_ops.py":112:22)
#loc27 = loc("examples/kernels/binary_ops.py":114:20)
#loc28 = loc("examples/kernels/binary_ops.py":114:31)
#loc29 = loc("examples/kernels/binary_ops.py":114:44)
#loc30 = loc("examples/kernels/binary_ops.py":114:55)
#loc31 = loc("examples/kernels/binary_ops.py":114:37)
#loc32 = loc("examples/kernels/binary_ops.py":116:16)
#loc33 = loc("examples/kernels/binary_ops.py":117:16)
#loc34 = loc("examples/kernels/binary_ops.py":118:12)
#loc35 = loc("examples/kernels/binary_ops.py":119:21)
#loc36 = loc("examples/kernels/binary_ops.py":119:4)


// -----// IR Dump Before CSE (cse) ('builtin.module' operation) //----- //
#loc = loc("examples/kernels/binary_ops.py":97:0)
module {
  tt.func public @add_2d_kernel(%arg0: !tt.ptr<f32> {tt.divisibility = 16 : i32} loc("examples/kernels/binary_ops.py":97:0), %arg1: !tt.ptr<f32> {tt.divisibility = 16 : i32} loc("examples/kernels/binary_ops.py":97:0), %arg2: !tt.ptr<f32> {tt.divisibility = 16 : i32} loc("examples/kernels/binary_ops.py":97:0), %arg3: i32 {tt.divisibility = 16 : i32} loc("examples/kernels/binary_ops.py":97:0), %arg4: i32 {tt.divisibility = 16 : i32} loc("examples/kernels/binary_ops.py":97:0), %arg5: i32 {tt.divisibility = 16 : i32} loc("examples/kernels/binary_ops.py":97:0), %arg6: i32 {tt.divisibility = 16 : i32} loc("examples/kernels/binary_ops.py":97:0), %arg7: i32 {tt.divisibility = 16 : i32} loc("examples/kernels/binary_ops.py":97:0)) attributes {noinline = false} {
    %cst = arith.constant dense<0.000000e+00> : tensor<32x32xf32> loc(#loc1)
    %c32_i32 = arith.constant 32 : i32 loc(#loc1)
    %0 = tt.get_program_id x : i32 loc(#loc2)
    %1 = tt.get_program_id y : i32 loc(#loc3)
    %2 = arith.muli %0, %c32_i32 : i32 loc(#loc4)
    %3 = tt.make_range {end = 32 : i32, start = 0 : i32} : tensor<32xi32> loc(#loc5)
    %4 = tt.splat %2 : i32 -> tensor<32xi32> loc(#loc6)
    %5 = arith.addi %4, %3 : tensor<32xi32> loc(#loc6)
    %6 = tt.splat %arg3 : i32 -> tensor<32xi32> loc(#loc7)
    %7 = arith.remsi %5, %6 : tensor<32xi32> loc(#loc7)
    %8 = arith.muli %1, %c32_i32 : i32 loc(#loc8)
    %9 = tt.make_range {end = 32 : i32, start = 0 : i32} : tensor<32xi32> loc(#loc9)
    %10 = tt.splat %8 : i32 -> tensor<32xi32> loc(#loc10)
    %11 = arith.addi %10, %9 : tensor<32xi32> loc(#loc10)
    %12 = tt.splat %arg4 : i32 -> tensor<32xi32> loc(#loc11)
    %13 = arith.remsi %11, %12 : tensor<32xi32> loc(#loc11)
    %14 = tt.expand_dims %7 {axis = 1 : i32} : tensor<32xi32> -> tensor<32x1xi32> loc(#loc12)
    %15 = tt.splat %arg5 : i32 -> tensor<32x1xi32> loc(#loc13)
    %16 = arith.muli %14, %15 : tensor<32x1xi32> loc(#loc13)
    %17 = tt.expand_dims %13 {axis = 0 : i32} : tensor<32xi32> -> tensor<1x32xi32> loc(#loc14)
    %18 = tt.broadcast %16 : tensor<32x1xi32> -> tensor<32x32xi32> loc(#loc15)
    %19 = tt.broadcast %17 : tensor<1x32xi32> -> tensor<32x32xi32> loc(#loc15)
    %20 = arith.addi %18, %19 : tensor<32x32xi32> loc(#loc15)
    %21 = tt.splat %arg0 : !tt.ptr<f32> -> tensor<32x32x!tt.ptr<f32>> loc(#loc16)
    %22 = tt.addptr %21, %20 : tensor<32x32x!tt.ptr<f32>>, tensor<32x32xi32> loc(#loc16)
    %23 = tt.expand_dims %7 {axis = 1 : i32} : tensor<32xi32> -> tensor<32x1xi32> loc(#loc17)
    %24 = tt.splat %arg6 : i32 -> tensor<32x1xi32> loc(#loc18)
    %25 = arith.muli %23, %24 : tensor<32x1xi32> loc(#loc18)
    %26 = tt.expand_dims %13 {axis = 0 : i32} : tensor<32xi32> -> tensor<1x32xi32> loc(#loc19)
    %27 = tt.broadcast %25 : tensor<32x1xi32> -> tensor<32x32xi32> loc(#loc20)
    %28 = tt.broadcast %26 : tensor<1x32xi32> -> tensor<32x32xi32> loc(#loc20)
    %29 = arith.addi %27, %28 : tensor<32x32xi32> loc(#loc20)
    %30 = tt.splat %arg1 : !tt.ptr<f32> -> tensor<32x32x!tt.ptr<f32>> loc(#loc21)
    %31 = tt.addptr %30, %29 : tensor<32x32x!tt.ptr<f32>>, tensor<32x32xi32> loc(#loc21)
    %32 = tt.expand_dims %7 {axis = 1 : i32} : tensor<32xi32> -> tensor<32x1xi32> loc(#loc22)
    %33 = tt.splat %arg7 : i32 -> tensor<32x1xi32> loc(#loc23)
    %34 = arith.muli %32, %33 : tensor<32x1xi32> loc(#loc23)
    %35 = tt.expand_dims %13 {axis = 0 : i32} : tensor<32xi32> -> tensor<1x32xi32> loc(#loc24)
    %36 = tt.broadcast %34 : tensor<32x1xi32> -> tensor<32x32xi32> loc(#loc25)
    %37 = tt.broadcast %35 : tensor<1x32xi32> -> tensor<32x32xi32> loc(#loc25)
    %38 = arith.addi %36, %37 : tensor<32x32xi32> loc(#loc25)
    %39 = tt.splat %arg2 : !tt.ptr<f32> -> tensor<32x32x!tt.ptr<f32>> loc(#loc26)
    %40 = tt.addptr %39, %38 : tensor<32x32x!tt.ptr<f32>>, tensor<32x32xi32> loc(#loc26)
    %41 = tt.expand_dims %7 {axis = 1 : i32} : tensor<32xi32> -> tensor<32x1xi32> loc(#loc27)
    %42 = tt.splat %arg3 : i32 -> tensor<32x1xi32> loc(#loc28)
    %43 = arith.cmpi slt, %41, %42 : tensor<32x1xi32> loc(#loc28)
    %44 = tt.expand_dims %13 {axis = 0 : i32} : tensor<32xi32> -> tensor<1x32xi32> loc(#loc29)
    %45 = tt.splat %arg4 : i32 -> tensor<1x32xi32> loc(#loc30)
    %46 = arith.cmpi slt, %44, %45 : tensor<1x32xi32> loc(#loc30)
    %47 = tt.broadcast %43 : tensor<32x1xi1> -> tensor<32x32xi1> loc(#loc31)
    %48 = tt.broadcast %46 : tensor<1x32xi1> -> tensor<32x32xi1> loc(#loc31)
    %49 = arith.andi %47, %48 : tensor<32x32xi1> loc(#loc31)
    %50 = tt.load %22, %49, %cst : tensor<32x32x!tt.ptr<f32>> loc(#loc32)
    %51 = tt.load %31, %49, %cst : tensor<32x32x!tt.ptr<f32>> loc(#loc33)
    %52 = arith.addf %50, %51 : tensor<32x32xf32> loc(#loc34)
    tt.store %40, %52, %49 : tensor<32x32x!tt.ptr<f32>> loc(#loc35)
    tt.return loc(#loc36)
  } loc(#loc)
} loc(#loc)
#loc1 = loc(unknown)
#loc2 = loc("examples/kernels/binary_ops.py":106:26)
#loc3 = loc("examples/kernels/binary_ops.py":107:26)
#loc4 = loc("examples/kernels/binary_ops.py":108:22)
#loc5 = loc("examples/kernels/binary_ops.py":108:50)
#loc6 = loc("examples/kernels/binary_ops.py":108:37)
#loc7 = loc("examples/kernels/binary_ops.py":108:67)
#loc8 = loc("examples/kernels/binary_ops.py":109:22)
#loc9 = loc("examples/kernels/binary_ops.py":109:50)
#loc10 = loc("examples/kernels/binary_ops.py":109:37)
#loc11 = loc("examples/kernels/binary_ops.py":109:67)
#loc12 = loc("examples/kernels/binary_ops.py":110:29)
#loc13 = loc("examples/kernels/binary_ops.py":110:40)
#loc14 = loc("examples/kernels/binary_ops.py":110:59)
#loc15 = loc("examples/kernels/binary_ops.py":110:52)
#loc16 = loc("examples/kernels/binary_ops.py":110:22)
#loc17 = loc("examples/kernels/binary_ops.py":111:29)
#loc18 = loc("examples/kernels/binary_ops.py":111:40)
#loc19 = loc("examples/kernels/binary_ops.py":111:59)
#loc20 = loc("examples/kernels/binary_ops.py":111:52)
#loc21 = loc("examples/kernels/binary_ops.py":111:22)
#loc22 = loc("examples/kernels/binary_ops.py":112:29)
#loc23 = loc("examples/kernels/binary_ops.py":112:40)
#loc24 = loc("examples/kernels/binary_ops.py":112:59)
#loc25 = loc("examples/kernels/binary_ops.py":112:52)
#loc26 = loc("examples/kernels/binary_ops.py":112:22)
#loc27 = loc("examples/kernels/binary_ops.py":114:20)
#loc28 = loc("examples/kernels/binary_ops.py":114:31)
#loc29 = loc("examples/kernels/binary_ops.py":114:44)
#loc30 = loc("examples/kernels/binary_ops.py":114:55)
#loc31 = loc("examples/kernels/binary_ops.py":114:37)
#loc32 = loc("examples/kernels/binary_ops.py":116:16)
#loc33 = loc("examples/kernels/binary_ops.py":117:16)
#loc34 = loc("examples/kernels/binary_ops.py":118:12)
#loc35 = loc("examples/kernels/binary_ops.py":119:21)
#loc36 = loc("examples/kernels/binary_ops.py":119:4)


// -----// IR Dump Before SymbolDCE (symbol-dce) ('builtin.module' operation) //----- //
#loc = loc("examples/kernels/binary_ops.py":97:0)
module {
  tt.func public @add_2d_kernel(%arg0: !tt.ptr<f32> {tt.divisibility = 16 : i32} loc("examples/kernels/binary_ops.py":97:0), %arg1: !tt.ptr<f32> {tt.divisibility = 16 : i32} loc("examples/kernels/binary_ops.py":97:0), %arg2: !tt.ptr<f32> {tt.divisibility = 16 : i32} loc("examples/kernels/binary_ops.py":97:0), %arg3: i32 {tt.divisibility = 16 : i32} loc("examples/kernels/binary_ops.py":97:0), %arg4: i32 {tt.divisibility = 16 : i32} loc("examples/kernels/binary_ops.py":97:0), %arg5: i32 {tt.divisibility = 16 : i32} loc("examples/kernels/binary_ops.py":97:0), %arg6: i32 {tt.divisibility = 16 : i32} loc("examples/kernels/binary_ops.py":97:0), %arg7: i32 {tt.divisibility = 16 : i32} loc("examples/kernels/binary_ops.py":97:0)) attributes {noinline = false} {
    %cst = arith.constant dense<0.000000e+00> : tensor<32x32xf32> loc(#loc1)
    %c32_i32 = arith.constant 32 : i32 loc(#loc1)
    %0 = tt.get_program_id x : i32 loc(#loc2)
    %1 = tt.get_program_id y : i32 loc(#loc3)
    %2 = arith.muli %0, %c32_i32 : i32 loc(#loc4)
    %3 = tt.make_range {end = 32 : i32, start = 0 : i32} : tensor<32xi32> loc(#loc5)
    %4 = tt.splat %2 : i32 -> tensor<32xi32> loc(#loc6)
    %5 = arith.addi %4, %3 : tensor<32xi32> loc(#loc6)
    %6 = tt.splat %arg3 : i32 -> tensor<32xi32> loc(#loc7)
    %7 = arith.remsi %5, %6 : tensor<32xi32> loc(#loc7)
    %8 = arith.muli %1, %c32_i32 : i32 loc(#loc8)
    %9 = tt.splat %8 : i32 -> tensor<32xi32> loc(#loc9)
    %10 = arith.addi %9, %3 : tensor<32xi32> loc(#loc9)
    %11 = tt.splat %arg4 : i32 -> tensor<32xi32> loc(#loc10)
    %12 = arith.remsi %10, %11 : tensor<32xi32> loc(#loc10)
    %13 = tt.expand_dims %7 {axis = 1 : i32} : tensor<32xi32> -> tensor<32x1xi32> loc(#loc11)
    %14 = tt.splat %arg5 : i32 -> tensor<32x1xi32> loc(#loc12)
    %15 = arith.muli %13, %14 : tensor<32x1xi32> loc(#loc12)
    %16 = tt.expand_dims %12 {axis = 0 : i32} : tensor<32xi32> -> tensor<1x32xi32> loc(#loc13)
    %17 = tt.broadcast %15 : tensor<32x1xi32> -> tensor<32x32xi32> loc(#loc14)
    %18 = tt.broadcast %16 : tensor<1x32xi32> -> tensor<32x32xi32> loc(#loc14)
    %19 = arith.addi %17, %18 : tensor<32x32xi32> loc(#loc14)
    %20 = tt.splat %arg0 : !tt.ptr<f32> -> tensor<32x32x!tt.ptr<f32>> loc(#loc15)
    %21 = tt.addptr %20, %19 : tensor<32x32x!tt.ptr<f32>>, tensor<32x32xi32> loc(#loc15)
    %22 = tt.splat %arg6 : i32 -> tensor<32x1xi32> loc(#loc16)
    %23 = arith.muli %13, %22 : tensor<32x1xi32> loc(#loc16)
    %24 = tt.broadcast %23 : tensor<32x1xi32> -> tensor<32x32xi32> loc(#loc17)
    %25 = arith.addi %24, %18 : tensor<32x32xi32> loc(#loc17)
    %26 = tt.splat %arg1 : !tt.ptr<f32> -> tensor<32x32x!tt.ptr<f32>> loc(#loc18)
    %27 = tt.addptr %26, %25 : tensor<32x32x!tt.ptr<f32>>, tensor<32x32xi32> loc(#loc18)
    %28 = tt.splat %arg7 : i32 -> tensor<32x1xi32> loc(#loc19)
    %29 = arith.muli %13, %28 : tensor<32x1xi32> loc(#loc19)
    %30 = tt.broadcast %29 : tensor<32x1xi32> -> tensor<32x32xi32> loc(#loc20)
    %31 = arith.addi %30, %18 : tensor<32x32xi32> loc(#loc20)
    %32 = tt.splat %arg2 : !tt.ptr<f32> -> tensor<32x32x!tt.ptr<f32>> loc(#loc21)
    %33 = tt.addptr %32, %31 : tensor<32x32x!tt.ptr<f32>>, tensor<32x32xi32> loc(#loc21)
    %34 = tt.splat %arg3 : i32 -> tensor<32x1xi32> loc(#loc22)
    %35 = arith.cmpi slt, %13, %34 : tensor<32x1xi32> loc(#loc22)
    %36 = tt.splat %arg4 : i32 -> tensor<1x32xi32> loc(#loc23)
    %37 = arith.cmpi slt, %16, %36 : tensor<1x32xi32> loc(#loc23)
    %38 = tt.broadcast %35 : tensor<32x1xi1> -> tensor<32x32xi1> loc(#loc24)
    %39 = tt.broadcast %37 : tensor<1x32xi1> -> tensor<32x32xi1> loc(#loc24)
    %40 = arith.andi %38, %39 : tensor<32x32xi1> loc(#loc24)
    %41 = tt.load %21, %40, %cst : tensor<32x32x!tt.ptr<f32>> loc(#loc25)
    %42 = tt.load %27, %40, %cst : tensor<32x32x!tt.ptr<f32>> loc(#loc26)
    %43 = arith.addf %41, %42 : tensor<32x32xf32> loc(#loc27)
    tt.store %33, %43, %40 : tensor<32x32x!tt.ptr<f32>> loc(#loc28)
    tt.return loc(#loc29)
  } loc(#loc)
} loc(#loc)
#loc1 = loc(unknown)
#loc2 = loc("examples/kernels/binary_ops.py":106:26)
#loc3 = loc("examples/kernels/binary_ops.py":107:26)
#loc4 = loc("examples/kernels/binary_ops.py":108:22)
#loc5 = loc("examples/kernels/binary_ops.py":108:50)
#loc6 = loc("examples/kernels/binary_ops.py":108:37)
#loc7 = loc("examples/kernels/binary_ops.py":108:67)
#loc8 = loc("examples/kernels/binary_ops.py":109:22)
#loc9 = loc("examples/kernels/binary_ops.py":109:37)
#loc10 = loc("examples/kernels/binary_ops.py":109:67)
#loc11 = loc("examples/kernels/binary_ops.py":110:29)
#loc12 = loc("examples/kernels/binary_ops.py":110:40)
#loc13 = loc("examples/kernels/binary_ops.py":110:59)
#loc14 = loc("examples/kernels/binary_ops.py":110:52)
#loc15 = loc("examples/kernels/binary_ops.py":110:22)
#loc16 = loc("examples/kernels/binary_ops.py":111:40)
#loc17 = loc("examples/kernels/binary_ops.py":111:52)
#loc18 = loc("examples/kernels/binary_ops.py":111:22)
#loc19 = loc("examples/kernels/binary_ops.py":112:40)
#loc20 = loc("examples/kernels/binary_ops.py":112:52)
#loc21 = loc("examples/kernels/binary_ops.py":112:22)
#loc22 = loc("examples/kernels/binary_ops.py":114:31)
#loc23 = loc("examples/kernels/binary_ops.py":114:55)
#loc24 = loc("examples/kernels/binary_ops.py":114:37)
#loc25 = loc("examples/kernels/binary_ops.py":116:16)
#loc26 = loc("examples/kernels/binary_ops.py":117:16)
#loc27 = loc("examples/kernels/binary_ops.py":118:12)
#loc28 = loc("examples/kernels/binary_ops.py":119:21)
#loc29 = loc("examples/kernels/binary_ops.py":119:4)


// -----// IR Dump Before TritonLoopUnroll (triton-loop-unroll) ('builtin.module' operation) //----- //
#loc = loc("examples/kernels/binary_ops.py":97:0)
module {
  tt.func public @add_2d_kernel(%arg0: !tt.ptr<f32> {tt.divisibility = 16 : i32} loc("examples/kernels/binary_ops.py":97:0), %arg1: !tt.ptr<f32> {tt.divisibility = 16 : i32} loc("examples/kernels/binary_ops.py":97:0), %arg2: !tt.ptr<f32> {tt.divisibility = 16 : i32} loc("examples/kernels/binary_ops.py":97:0), %arg3: i32 {tt.divisibility = 16 : i32} loc("examples/kernels/binary_ops.py":97:0), %arg4: i32 {tt.divisibility = 16 : i32} loc("examples/kernels/binary_ops.py":97:0), %arg5: i32 {tt.divisibility = 16 : i32} loc("examples/kernels/binary_ops.py":97:0), %arg6: i32 {tt.divisibility = 16 : i32} loc("examples/kernels/binary_ops.py":97:0), %arg7: i32 {tt.divisibility = 16 : i32} loc("examples/kernels/binary_ops.py":97:0)) attributes {noinline = false} {
    %cst = arith.constant dense<0.000000e+00> : tensor<32x32xf32> loc(#loc1)
    %c32_i32 = arith.constant 32 : i32 loc(#loc1)
    %0 = tt.get_program_id x : i32 loc(#loc2)
    %1 = tt.get_program_id y : i32 loc(#loc3)
    %2 = arith.muli %0, %c32_i32 : i32 loc(#loc4)
    %3 = tt.make_range {end = 32 : i32, start = 0 : i32} : tensor<32xi32> loc(#loc5)
    %4 = tt.splat %2 : i32 -> tensor<32xi32> loc(#loc6)
    %5 = arith.addi %4, %3 : tensor<32xi32> loc(#loc6)
    %6 = tt.splat %arg3 : i32 -> tensor<32xi32> loc(#loc7)
    %7 = arith.remsi %5, %6 : tensor<32xi32> loc(#loc7)
    %8 = arith.muli %1, %c32_i32 : i32 loc(#loc8)
    %9 = tt.splat %8 : i32 -> tensor<32xi32> loc(#loc9)
    %10 = arith.addi %9, %3 : tensor<32xi32> loc(#loc9)
    %11 = tt.splat %arg4 : i32 -> tensor<32xi32> loc(#loc10)
    %12 = arith.remsi %10, %11 : tensor<32xi32> loc(#loc10)
    %13 = tt.expand_dims %7 {axis = 1 : i32} : tensor<32xi32> -> tensor<32x1xi32> loc(#loc11)
    %14 = tt.splat %arg5 : i32 -> tensor<32x1xi32> loc(#loc12)
    %15 = arith.muli %13, %14 : tensor<32x1xi32> loc(#loc12)
    %16 = tt.expand_dims %12 {axis = 0 : i32} : tensor<32xi32> -> tensor<1x32xi32> loc(#loc13)
    %17 = tt.broadcast %15 : tensor<32x1xi32> -> tensor<32x32xi32> loc(#loc14)
    %18 = tt.broadcast %16 : tensor<1x32xi32> -> tensor<32x32xi32> loc(#loc14)
    %19 = arith.addi %17, %18 : tensor<32x32xi32> loc(#loc14)
    %20 = tt.splat %arg0 : !tt.ptr<f32> -> tensor<32x32x!tt.ptr<f32>> loc(#loc15)
    %21 = tt.addptr %20, %19 : tensor<32x32x!tt.ptr<f32>>, tensor<32x32xi32> loc(#loc15)
    %22 = tt.splat %arg6 : i32 -> tensor<32x1xi32> loc(#loc16)
    %23 = arith.muli %13, %22 : tensor<32x1xi32> loc(#loc16)
    %24 = tt.broadcast %23 : tensor<32x1xi32> -> tensor<32x32xi32> loc(#loc17)
    %25 = arith.addi %24, %18 : tensor<32x32xi32> loc(#loc17)
    %26 = tt.splat %arg1 : !tt.ptr<f32> -> tensor<32x32x!tt.ptr<f32>> loc(#loc18)
    %27 = tt.addptr %26, %25 : tensor<32x32x!tt.ptr<f32>>, tensor<32x32xi32> loc(#loc18)
    %28 = tt.splat %arg7 : i32 -> tensor<32x1xi32> loc(#loc19)
    %29 = arith.muli %13, %28 : tensor<32x1xi32> loc(#loc19)
    %30 = tt.broadcast %29 : tensor<32x1xi32> -> tensor<32x32xi32> loc(#loc20)
    %31 = arith.addi %30, %18 : tensor<32x32xi32> loc(#loc20)
    %32 = tt.splat %arg2 : !tt.ptr<f32> -> tensor<32x32x!tt.ptr<f32>> loc(#loc21)
    %33 = tt.addptr %32, %31 : tensor<32x32x!tt.ptr<f32>>, tensor<32x32xi32> loc(#loc21)
    %34 = tt.splat %arg3 : i32 -> tensor<32x1xi32> loc(#loc22)
    %35 = arith.cmpi slt, %13, %34 : tensor<32x1xi32> loc(#loc22)
    %36 = tt.splat %arg4 : i32 -> tensor<1x32xi32> loc(#loc23)
    %37 = arith.cmpi slt, %16, %36 : tensor<1x32xi32> loc(#loc23)
    %38 = tt.broadcast %35 : tensor<32x1xi1> -> tensor<32x32xi1> loc(#loc24)
    %39 = tt.broadcast %37 : tensor<1x32xi1> -> tensor<32x32xi1> loc(#loc24)
    %40 = arith.andi %38, %39 : tensor<32x32xi1> loc(#loc24)
    %41 = tt.load %21, %40, %cst : tensor<32x32x!tt.ptr<f32>> loc(#loc25)
    %42 = tt.load %27, %40, %cst : tensor<32x32x!tt.ptr<f32>> loc(#loc26)
    %43 = arith.addf %41, %42 : tensor<32x32xf32> loc(#loc27)
    tt.store %33, %43, %40 : tensor<32x32x!tt.ptr<f32>> loc(#loc28)
    tt.return loc(#loc29)
  } loc(#loc)
} loc(#loc)
#loc1 = loc(unknown)
#loc2 = loc("examples/kernels/binary_ops.py":106:26)
#loc3 = loc("examples/kernels/binary_ops.py":107:26)
#loc4 = loc("examples/kernels/binary_ops.py":108:22)
#loc5 = loc("examples/kernels/binary_ops.py":108:50)
#loc6 = loc("examples/kernels/binary_ops.py":108:37)
#loc7 = loc("examples/kernels/binary_ops.py":108:67)
#loc8 = loc("examples/kernels/binary_ops.py":109:22)
#loc9 = loc("examples/kernels/binary_ops.py":109:37)
#loc10 = loc("examples/kernels/binary_ops.py":109:67)
#loc11 = loc("examples/kernels/binary_ops.py":110:29)
#loc12 = loc("examples/kernels/binary_ops.py":110:40)
#loc13 = loc("examples/kernels/binary_ops.py":110:59)
#loc14 = loc("examples/kernels/binary_ops.py":110:52)
#loc15 = loc("examples/kernels/binary_ops.py":110:22)
#loc16 = loc("examples/kernels/binary_ops.py":111:40)
#loc17 = loc("examples/kernels/binary_ops.py":111:52)
#loc18 = loc("examples/kernels/binary_ops.py":111:22)
#loc19 = loc("examples/kernels/binary_ops.py":112:40)
#loc20 = loc("examples/kernels/binary_ops.py":112:52)
#loc21 = loc("examples/kernels/binary_ops.py":112:22)
#loc22 = loc("examples/kernels/binary_ops.py":114:31)
#loc23 = loc("examples/kernels/binary_ops.py":114:55)
#loc24 = loc("examples/kernels/binary_ops.py":114:37)
#loc25 = loc("examples/kernels/binary_ops.py":116:16)
#loc26 = loc("examples/kernels/binary_ops.py":117:16)
#loc27 = loc("examples/kernels/binary_ops.py":118:12)
#loc28 = loc("examples/kernels/binary_ops.py":119:21)
#loc29 = loc("examples/kernels/binary_ops.py":119:4)


// -----// IR Dump Before ConvertTritonToTritonGPU (convert-triton-to-tritongpu) ('builtin.module' operation) //----- //
#loc = loc("examples/kernels/binary_ops.py":97:0)
module {
  tt.func public @add_2d_kernel(%arg0: !tt.ptr<f32> {tt.divisibility = 16 : i32} loc("examples/kernels/binary_ops.py":97:0), %arg1: !tt.ptr<f32> {tt.divisibility = 16 : i32} loc("examples/kernels/binary_ops.py":97:0), %arg2: !tt.ptr<f32> {tt.divisibility = 16 : i32} loc("examples/kernels/binary_ops.py":97:0), %arg3: i32 {tt.divisibility = 16 : i32} loc("examples/kernels/binary_ops.py":97:0), %arg4: i32 {tt.divisibility = 16 : i32} loc("examples/kernels/binary_ops.py":97:0), %arg5: i32 {tt.divisibility = 16 : i32} loc("examples/kernels/binary_ops.py":97:0), %arg6: i32 {tt.divisibility = 16 : i32} loc("examples/kernels/binary_ops.py":97:0), %arg7: i32 {tt.divisibility = 16 : i32} loc("examples/kernels/binary_ops.py":97:0)) attributes {noinline = false} {
    %cst = arith.constant dense<0.000000e+00> : tensor<32x32xf32> loc(#loc1)
    %c32_i32 = arith.constant 32 : i32 loc(#loc1)
    %0 = tt.get_program_id x : i32 loc(#loc2)
    %1 = tt.get_program_id y : i32 loc(#loc3)
    %2 = arith.muli %0, %c32_i32 : i32 loc(#loc4)
    %3 = tt.make_range {end = 32 : i32, start = 0 : i32} : tensor<32xi32> loc(#loc5)
    %4 = tt.splat %2 : i32 -> tensor<32xi32> loc(#loc6)
    %5 = arith.addi %4, %3 : tensor<32xi32> loc(#loc6)
    %6 = tt.splat %arg3 : i32 -> tensor<32xi32> loc(#loc7)
    %7 = arith.remsi %5, %6 : tensor<32xi32> loc(#loc7)
    %8 = arith.muli %1, %c32_i32 : i32 loc(#loc8)
    %9 = tt.splat %8 : i32 -> tensor<32xi32> loc(#loc9)
    %10 = arith.addi %9, %3 : tensor<32xi32> loc(#loc9)
    %11 = tt.splat %arg4 : i32 -> tensor<32xi32> loc(#loc10)
    %12 = arith.remsi %10, %11 : tensor<32xi32> loc(#loc10)
    %13 = tt.expand_dims %7 {axis = 1 : i32} : tensor<32xi32> -> tensor<32x1xi32> loc(#loc11)
    %14 = tt.splat %arg5 : i32 -> tensor<32x1xi32> loc(#loc12)
    %15 = arith.muli %13, %14 : tensor<32x1xi32> loc(#loc12)
    %16 = tt.expand_dims %12 {axis = 0 : i32} : tensor<32xi32> -> tensor<1x32xi32> loc(#loc13)
    %17 = tt.broadcast %15 : tensor<32x1xi32> -> tensor<32x32xi32> loc(#loc14)
    %18 = tt.broadcast %16 : tensor<1x32xi32> -> tensor<32x32xi32> loc(#loc14)
    %19 = arith.addi %17, %18 : tensor<32x32xi32> loc(#loc14)
    %20 = tt.splat %arg0 : !tt.ptr<f32> -> tensor<32x32x!tt.ptr<f32>> loc(#loc15)
    %21 = tt.addptr %20, %19 : tensor<32x32x!tt.ptr<f32>>, tensor<32x32xi32> loc(#loc15)
    %22 = tt.splat %arg6 : i32 -> tensor<32x1xi32> loc(#loc16)
    %23 = arith.muli %13, %22 : tensor<32x1xi32> loc(#loc16)
    %24 = tt.broadcast %23 : tensor<32x1xi32> -> tensor<32x32xi32> loc(#loc17)
    %25 = arith.addi %24, %18 : tensor<32x32xi32> loc(#loc17)
    %26 = tt.splat %arg1 : !tt.ptr<f32> -> tensor<32x32x!tt.ptr<f32>> loc(#loc18)
    %27 = tt.addptr %26, %25 : tensor<32x32x!tt.ptr<f32>>, tensor<32x32xi32> loc(#loc18)
    %28 = tt.splat %arg7 : i32 -> tensor<32x1xi32> loc(#loc19)
    %29 = arith.muli %13, %28 : tensor<32x1xi32> loc(#loc19)
    %30 = tt.broadcast %29 : tensor<32x1xi32> -> tensor<32x32xi32> loc(#loc20)
    %31 = arith.addi %30, %18 : tensor<32x32xi32> loc(#loc20)
    %32 = tt.splat %arg2 : !tt.ptr<f32> -> tensor<32x32x!tt.ptr<f32>> loc(#loc21)
    %33 = tt.addptr %32, %31 : tensor<32x32x!tt.ptr<f32>>, tensor<32x32xi32> loc(#loc21)
    %34 = tt.splat %arg3 : i32 -> tensor<32x1xi32> loc(#loc22)
    %35 = arith.cmpi slt, %13, %34 : tensor<32x1xi32> loc(#loc22)
    %36 = tt.splat %arg4 : i32 -> tensor<1x32xi32> loc(#loc23)
    %37 = arith.cmpi slt, %16, %36 : tensor<1x32xi32> loc(#loc23)
    %38 = tt.broadcast %35 : tensor<32x1xi1> -> tensor<32x32xi1> loc(#loc24)
    %39 = tt.broadcast %37 : tensor<1x32xi1> -> tensor<32x32xi1> loc(#loc24)
    %40 = arith.andi %38, %39 : tensor<32x32xi1> loc(#loc24)
    %41 = tt.load %21, %40, %cst : tensor<32x32x!tt.ptr<f32>> loc(#loc25)
    %42 = tt.load %27, %40, %cst : tensor<32x32x!tt.ptr<f32>> loc(#loc26)
    %43 = arith.addf %41, %42 : tensor<32x32xf32> loc(#loc27)
    tt.store %33, %43, %40 : tensor<32x32x!tt.ptr<f32>> loc(#loc28)
    tt.return loc(#loc29)
  } loc(#loc)
} loc(#loc)
#loc1 = loc(unknown)
#loc2 = loc("examples/kernels/binary_ops.py":106:26)
#loc3 = loc("examples/kernels/binary_ops.py":107:26)
#loc4 = loc("examples/kernels/binary_ops.py":108:22)
#loc5 = loc("examples/kernels/binary_ops.py":108:50)
#loc6 = loc("examples/kernels/binary_ops.py":108:37)
#loc7 = loc("examples/kernels/binary_ops.py":108:67)
#loc8 = loc("examples/kernels/binary_ops.py":109:22)
#loc9 = loc("examples/kernels/binary_ops.py":109:37)
#loc10 = loc("examples/kernels/binary_ops.py":109:67)
#loc11 = loc("examples/kernels/binary_ops.py":110:29)
#loc12 = loc("examples/kernels/binary_ops.py":110:40)
#loc13 = loc("examples/kernels/binary_ops.py":110:59)
#loc14 = loc("examples/kernels/binary_ops.py":110:52)
#loc15 = loc("examples/kernels/binary_ops.py":110:22)
#loc16 = loc("examples/kernels/binary_ops.py":111:40)
#loc17 = loc("examples/kernels/binary_ops.py":111:52)
#loc18 = loc("examples/kernels/binary_ops.py":111:22)
#loc19 = loc("examples/kernels/binary_ops.py":112:40)
#loc20 = loc("examples/kernels/binary_ops.py":112:52)
#loc21 = loc("examples/kernels/binary_ops.py":112:22)
#loc22 = loc("examples/kernels/binary_ops.py":114:31)
#loc23 = loc("examples/kernels/binary_ops.py":114:55)
#loc24 = loc("examples/kernels/binary_ops.py":114:37)
#loc25 = loc("examples/kernels/binary_ops.py":116:16)
#loc26 = loc("examples/kernels/binary_ops.py":117:16)
#loc27 = loc("examples/kernels/binary_ops.py":118:12)
#loc28 = loc("examples/kernels/binary_ops.py":119:21)
#loc29 = loc("examples/kernels/binary_ops.py":119:4)


// -----// IR Dump Before TritonGPUCoalesce (tritongpu-coalesce) ('builtin.module' operation) //----- //
#blocked = #ttg.blocked<{sizePerThread = [1, 1], threadsPerWarp = [1, 32], warpsPerCTA = [4, 1], order = [1, 0]}>
#blocked1 = #ttg.blocked<{sizePerThread = [1], threadsPerWarp = [32], warpsPerCTA = [4], order = [0]}>
#blocked2 = #ttg.blocked<{sizePerThread = [1, 1], threadsPerWarp = [32, 1], warpsPerCTA = [4, 1], order = [0, 1]}>
#blocked3 = #ttg.blocked<{sizePerThread = [1, 1], threadsPerWarp = [32, 1], warpsPerCTA = [4, 1], order = [1, 0]}>
#blocked4 = #ttg.blocked<{sizePerThread = [1, 1], threadsPerWarp = [1, 32], warpsPerCTA = [1, 4], order = [0, 1]}>
#loc = loc("examples/kernels/binary_ops.py":97:0)
module attributes {"ttg.num-ctas" = 1 : i32, "ttg.num-warps" = 4 : i32, ttg.target = "cuda:89", "ttg.threads-per-warp" = 32 : i32} {
  tt.func public @add_2d_kernel(%arg0: !tt.ptr<f32> {tt.divisibility = 16 : i32} loc("examples/kernels/binary_ops.py":97:0), %arg1: !tt.ptr<f32> {tt.divisibility = 16 : i32} loc("examples/kernels/binary_ops.py":97:0), %arg2: !tt.ptr<f32> {tt.divisibility = 16 : i32} loc("examples/kernels/binary_ops.py":97:0), %arg3: i32 {tt.divisibility = 16 : i32} loc("examples/kernels/binary_ops.py":97:0), %arg4: i32 {tt.divisibility = 16 : i32} loc("examples/kernels/binary_ops.py":97:0), %arg5: i32 {tt.divisibility = 16 : i32} loc("examples/kernels/binary_ops.py":97:0), %arg6: i32 {tt.divisibility = 16 : i32} loc("examples/kernels/binary_ops.py":97:0), %arg7: i32 {tt.divisibility = 16 : i32} loc("examples/kernels/binary_ops.py":97:0)) attributes {noinline = false} {
    %cst = arith.constant dense<0.000000e+00> : tensor<32x32xf32, #blocked> loc(#loc1)
    %c32_i32 = arith.constant 32 : i32 loc(#loc1)
    %0 = tt.get_program_id x : i32 loc(#loc2)
    %1 = tt.get_program_id y : i32 loc(#loc3)
    %2 = arith.muli %0, %c32_i32 : i32 loc(#loc4)
    %3 = tt.make_range {end = 32 : i32, start = 0 : i32} : tensor<32xi32, #blocked1> loc(#loc5)
    %4 = tt.splat %2 : i32 -> tensor<32xi32, #blocked1> loc(#loc6)
    %5 = arith.addi %4, %3 : tensor<32xi32, #blocked1> loc(#loc6)
    %6 = tt.splat %arg3 : i32 -> tensor<32xi32, #blocked1> loc(#loc7)
    %7 = arith.remsi %5, %6 : tensor<32xi32, #blocked1> loc(#loc7)
    %8 = arith.muli %1, %c32_i32 : i32 loc(#loc8)
    %9 = tt.splat %8 : i32 -> tensor<32xi32, #blocked1> loc(#loc9)
    %10 = arith.addi %9, %3 : tensor<32xi32, #blocked1> loc(#loc9)
    %11 = tt.splat %arg4 : i32 -> tensor<32xi32, #blocked1> loc(#loc10)
    %12 = arith.remsi %10, %11 : tensor<32xi32, #blocked1> loc(#loc10)
    %13 = ttg.convert_layout %7 : tensor<32xi32, #blocked1> -> tensor<32xi32, #ttg.slice<{dim = 1, parent = #blocked2}>> loc(#loc11)
    %14 = tt.expand_dims %13 {axis = 1 : i32} : tensor<32xi32, #ttg.slice<{dim = 1, parent = #blocked2}>> -> tensor<32x1xi32, #blocked2> loc(#loc11)
    %15 = ttg.convert_layout %14 : tensor<32x1xi32, #blocked2> -> tensor<32x1xi32, #blocked3> loc(#loc12)
    %16 = tt.splat %arg5 : i32 -> tensor<32x1xi32, #blocked3> loc(#loc12)
    %17 = arith.muli %15, %16 : tensor<32x1xi32, #blocked3> loc(#loc12)
    %18 = ttg.convert_layout %12 : tensor<32xi32, #blocked1> -> tensor<32xi32, #ttg.slice<{dim = 0, parent = #blocked4}>> loc(#loc13)
    %19 = tt.expand_dims %18 {axis = 0 : i32} : tensor<32xi32, #ttg.slice<{dim = 0, parent = #blocked4}>> -> tensor<1x32xi32, #blocked4> loc(#loc13)
    %20 = ttg.convert_layout %19 : tensor<1x32xi32, #blocked4> -> tensor<1x32xi32, #blocked> loc(#loc14)
    %21 = tt.broadcast %17 : tensor<32x1xi32, #blocked3> -> tensor<32x32xi32, #blocked3> loc(#loc14)
    %22 = ttg.convert_layout %21 : tensor<32x32xi32, #blocked3> -> tensor<32x32xi32, #blocked> loc(#loc14)
    %23 = tt.broadcast %20 : tensor<1x32xi32, #blocked> -> tensor<32x32xi32, #blocked> loc(#loc14)
    %24 = arith.addi %22, %23 : tensor<32x32xi32, #blocked> loc(#loc14)
    %25 = tt.splat %arg0 : !tt.ptr<f32> -> tensor<32x32x!tt.ptr<f32>, #blocked> loc(#loc15)
    %26 = tt.addptr %25, %24 : tensor<32x32x!tt.ptr<f32>, #blocked>, tensor<32x32xi32, #blocked> loc(#loc15)
    %27 = tt.splat %arg6 : i32 -> tensor<32x1xi32, #blocked3> loc(#loc16)
    %28 = arith.muli %15, %27 : tensor<32x1xi32, #blocked3> loc(#loc16)
    %29 = tt.broadcast %28 : tensor<32x1xi32, #blocked3> -> tensor<32x32xi32, #blocked3> loc(#loc17)
    %30 = ttg.convert_layout %29 : tensor<32x32xi32, #blocked3> -> tensor<32x32xi32, #blocked> loc(#loc17)
    %31 = arith.addi %30, %23 : tensor<32x32xi32, #blocked> loc(#loc17)
    %32 = tt.splat %arg1 : !tt.ptr<f32> -> tensor<32x32x!tt.ptr<f32>, #blocked> loc(#loc18)
    %33 = tt.addptr %32, %31 : tensor<32x32x!tt.ptr<f32>, #blocked>, tensor<32x32xi32, #blocked> loc(#loc18)
    %34 = tt.splat %arg7 : i32 -> tensor<32x1xi32, #blocked3> loc(#loc19)
    %35 = arith.muli %15, %34 : tensor<32x1xi32, #blocked3> loc(#loc19)
    %36 = tt.broadcast %35 : tensor<32x1xi32, #blocked3> -> tensor<32x32xi32, #blocked3> loc(#loc20)
    %37 = ttg.convert_layout %36 : tensor<32x32xi32, #blocked3> -> tensor<32x32xi32, #blocked> loc(#loc20)
    %38 = arith.addi %37, %23 : tensor<32x32xi32, #blocked> loc(#loc20)
    %39 = tt.splat %arg2 : !tt.ptr<f32> -> tensor<32x32x!tt.ptr<f32>, #blocked> loc(#loc21)
    %40 = tt.addptr %39, %38 : tensor<32x32x!tt.ptr<f32>, #blocked>, tensor<32x32xi32, #blocked> loc(#loc21)
    %41 = tt.splat %arg3 : i32 -> tensor<32x1xi32, #blocked3> loc(#loc22)
    %42 = arith.cmpi slt, %15, %41 : tensor<32x1xi32, #blocked3> loc(#loc22)
    %43 = tt.splat %arg4 : i32 -> tensor<1x32xi32, #blocked> loc(#loc23)
    %44 = arith.cmpi slt, %20, %43 : tensor<1x32xi32, #blocked> loc(#loc23)
    %45 = tt.broadcast %42 : tensor<32x1xi1, #blocked3> -> tensor<32x32xi1, #blocked3> loc(#loc24)
    %46 = ttg.convert_layout %45 : tensor<32x32xi1, #blocked3> -> tensor<32x32xi1, #blocked> loc(#loc24)
    %47 = tt.broadcast %44 : tensor<1x32xi1, #blocked> -> tensor<32x32xi1, #blocked> loc(#loc24)
    %48 = arith.andi %46, %47 : tensor<32x32xi1, #blocked> loc(#loc24)
    %49 = tt.load %26, %48, %cst : tensor<32x32x!tt.ptr<f32>, #blocked> loc(#loc25)
    %50 = tt.load %33, %48, %cst : tensor<32x32x!tt.ptr<f32>, #blocked> loc(#loc26)
    %51 = arith.addf %49, %50 : tensor<32x32xf32, #blocked> loc(#loc27)
    tt.store %40, %51, %48 : tensor<32x32x!tt.ptr<f32>, #blocked> loc(#loc28)
    tt.return loc(#loc29)
  } loc(#loc)
} loc(#loc)
#loc1 = loc(unknown)
#loc2 = loc("examples/kernels/binary_ops.py":106:26)
#loc3 = loc("examples/kernels/binary_ops.py":107:26)
#loc4 = loc("examples/kernels/binary_ops.py":108:22)
#loc5 = loc("examples/kernels/binary_ops.py":108:50)
#loc6 = loc("examples/kernels/binary_ops.py":108:37)
#loc7 = loc("examples/kernels/binary_ops.py":108:67)
#loc8 = loc("examples/kernels/binary_ops.py":109:22)
#loc9 = loc("examples/kernels/binary_ops.py":109:37)
#loc10 = loc("examples/kernels/binary_ops.py":109:67)
#loc11 = loc("examples/kernels/binary_ops.py":110:29)
#loc12 = loc("examples/kernels/binary_ops.py":110:40)
#loc13 = loc("examples/kernels/binary_ops.py":110:59)
#loc14 = loc("examples/kernels/binary_ops.py":110:52)
#loc15 = loc("examples/kernels/binary_ops.py":110:22)
#loc16 = loc("examples/kernels/binary_ops.py":111:40)
#loc17 = loc("examples/kernels/binary_ops.py":111:52)
#loc18 = loc("examples/kernels/binary_ops.py":111:22)
#loc19 = loc("examples/kernels/binary_ops.py":112:40)
#loc20 = loc("examples/kernels/binary_ops.py":112:52)
#loc21 = loc("examples/kernels/binary_ops.py":112:22)
#loc22 = loc("examples/kernels/binary_ops.py":114:31)
#loc23 = loc("examples/kernels/binary_ops.py":114:55)
#loc24 = loc("examples/kernels/binary_ops.py":114:37)
#loc25 = loc("examples/kernels/binary_ops.py":116:16)
#loc26 = loc("examples/kernels/binary_ops.py":117:16)
#loc27 = loc("examples/kernels/binary_ops.py":118:12)
#loc28 = loc("examples/kernels/binary_ops.py":119:21)
#loc29 = loc("examples/kernels/binary_ops.py":119:4)


// -----// IR Dump Before TritonGPUF32DotTC (tritongpu-F32DotTC) ('builtin.module' operation) //----- //
#blocked = #ttg.blocked<{sizePerThread = [1, 1], threadsPerWarp = [1, 32], warpsPerCTA = [4, 1], order = [1, 0]}>
#blocked1 = #ttg.blocked<{sizePerThread = [1], threadsPerWarp = [32], warpsPerCTA = [4], order = [0]}>
#blocked2 = #ttg.blocked<{sizePerThread = [1, 1], threadsPerWarp = [32, 1], warpsPerCTA = [4, 1], order = [0, 1]}>
#blocked3 = #ttg.blocked<{sizePerThread = [1, 1], threadsPerWarp = [32, 1], warpsPerCTA = [4, 1], order = [1, 0]}>
#blocked4 = #ttg.blocked<{sizePerThread = [1, 1], threadsPerWarp = [1, 32], warpsPerCTA = [1, 4], order = [0, 1]}>
#blocked5 = #ttg.blocked<{sizePerThread = [1, 4], threadsPerWarp = [4, 8], warpsPerCTA = [4, 1], order = [1, 0]}>
#loc = loc("examples/kernels/binary_ops.py":97:0)
module attributes {"ttg.num-ctas" = 1 : i32, "ttg.num-warps" = 4 : i32, ttg.target = "cuda:89", "ttg.threads-per-warp" = 32 : i32} {
  tt.func public @add_2d_kernel(%arg0: !tt.ptr<f32> {tt.divisibility = 16 : i32} loc("examples/kernels/binary_ops.py":97:0), %arg1: !tt.ptr<f32> {tt.divisibility = 16 : i32} loc("examples/kernels/binary_ops.py":97:0), %arg2: !tt.ptr<f32> {tt.divisibility = 16 : i32} loc("examples/kernels/binary_ops.py":97:0), %arg3: i32 {tt.divisibility = 16 : i32} loc("examples/kernels/binary_ops.py":97:0), %arg4: i32 {tt.divisibility = 16 : i32} loc("examples/kernels/binary_ops.py":97:0), %arg5: i32 {tt.divisibility = 16 : i32} loc("examples/kernels/binary_ops.py":97:0), %arg6: i32 {tt.divisibility = 16 : i32} loc("examples/kernels/binary_ops.py":97:0), %arg7: i32 {tt.divisibility = 16 : i32} loc("examples/kernels/binary_ops.py":97:0)) attributes {noinline = false} {
    %cst = arith.constant dense<0.000000e+00> : tensor<32x32xf32, #blocked> loc(#loc1)
    %c32_i32 = arith.constant 32 : i32 loc(#loc1)
    %0 = tt.get_program_id x : i32 loc(#loc2)
    %1 = tt.get_program_id y : i32 loc(#loc3)
    %2 = arith.muli %0, %c32_i32 : i32 loc(#loc4)
    %3 = tt.make_range {end = 32 : i32, start = 0 : i32} : tensor<32xi32, #blocked1> loc(#loc5)
    %4 = tt.splat %2 : i32 -> tensor<32xi32, #blocked1> loc(#loc6)
    %5 = arith.addi %4, %3 : tensor<32xi32, #blocked1> loc(#loc6)
    %6 = tt.splat %arg3 : i32 -> tensor<32xi32, #blocked1> loc(#loc7)
    %7 = arith.remsi %5, %6 : tensor<32xi32, #blocked1> loc(#loc7)
    %8 = arith.muli %1, %c32_i32 : i32 loc(#loc8)
    %9 = tt.splat %8 : i32 -> tensor<32xi32, #blocked1> loc(#loc9)
    %10 = arith.addi %9, %3 : tensor<32xi32, #blocked1> loc(#loc9)
    %11 = tt.splat %arg4 : i32 -> tensor<32xi32, #blocked1> loc(#loc10)
    %12 = arith.remsi %10, %11 : tensor<32xi32, #blocked1> loc(#loc10)
    %13 = ttg.convert_layout %7 : tensor<32xi32, #blocked1> -> tensor<32xi32, #ttg.slice<{dim = 1, parent = #blocked2}>> loc(#loc11)
    %14 = tt.expand_dims %13 {axis = 1 : i32} : tensor<32xi32, #ttg.slice<{dim = 1, parent = #blocked2}>> -> tensor<32x1xi32, #blocked2> loc(#loc11)
    %15 = ttg.convert_layout %14 : tensor<32x1xi32, #blocked2> -> tensor<32x1xi32, #blocked3> loc(#loc12)
    %16 = tt.splat %arg5 : i32 -> tensor<32x1xi32, #blocked3> loc(#loc12)
    %17 = arith.muli %15, %16 : tensor<32x1xi32, #blocked3> loc(#loc12)
    %18 = ttg.convert_layout %12 : tensor<32xi32, #blocked1> -> tensor<32xi32, #ttg.slice<{dim = 0, parent = #blocked4}>> loc(#loc13)
    %19 = tt.expand_dims %18 {axis = 0 : i32} : tensor<32xi32, #ttg.slice<{dim = 0, parent = #blocked4}>> -> tensor<1x32xi32, #blocked4> loc(#loc13)
    %20 = ttg.convert_layout %19 : tensor<1x32xi32, #blocked4> -> tensor<1x32xi32, #blocked> loc(#loc14)
    %21 = tt.broadcast %17 : tensor<32x1xi32, #blocked3> -> tensor<32x32xi32, #blocked3> loc(#loc14)
    %22 = ttg.convert_layout %21 : tensor<32x32xi32, #blocked3> -> tensor<32x32xi32, #blocked> loc(#loc14)
    %23 = tt.broadcast %20 : tensor<1x32xi32, #blocked> -> tensor<32x32xi32, #blocked> loc(#loc14)
    %24 = arith.addi %22, %23 : tensor<32x32xi32, #blocked> loc(#loc14)
    %25 = tt.splat %arg0 : !tt.ptr<f32> -> tensor<32x32x!tt.ptr<f32>, #blocked> loc(#loc15)
    %26 = tt.addptr %25, %24 : tensor<32x32x!tt.ptr<f32>, #blocked>, tensor<32x32xi32, #blocked> loc(#loc15)
    %27 = tt.splat %arg6 : i32 -> tensor<32x1xi32, #blocked3> loc(#loc16)
    %28 = arith.muli %15, %27 : tensor<32x1xi32, #blocked3> loc(#loc16)
    %29 = tt.broadcast %28 : tensor<32x1xi32, #blocked3> -> tensor<32x32xi32, #blocked3> loc(#loc17)
    %30 = ttg.convert_layout %29 : tensor<32x32xi32, #blocked3> -> tensor<32x32xi32, #blocked> loc(#loc17)
    %31 = arith.addi %30, %23 : tensor<32x32xi32, #blocked> loc(#loc17)
    %32 = tt.splat %arg1 : !tt.ptr<f32> -> tensor<32x32x!tt.ptr<f32>, #blocked> loc(#loc18)
    %33 = tt.addptr %32, %31 : tensor<32x32x!tt.ptr<f32>, #blocked>, tensor<32x32xi32, #blocked> loc(#loc18)
    %34 = tt.splat %arg7 : i32 -> tensor<32x1xi32, #blocked3> loc(#loc19)
    %35 = arith.muli %15, %34 : tensor<32x1xi32, #blocked3> loc(#loc19)
    %36 = tt.broadcast %35 : tensor<32x1xi32, #blocked3> -> tensor<32x32xi32, #blocked3> loc(#loc20)
    %37 = ttg.convert_layout %36 : tensor<32x32xi32, #blocked3> -> tensor<32x32xi32, #blocked> loc(#loc20)
    %38 = arith.addi %37, %23 : tensor<32x32xi32, #blocked> loc(#loc20)
    %39 = tt.splat %arg2 : !tt.ptr<f32> -> tensor<32x32x!tt.ptr<f32>, #blocked> loc(#loc21)
    %40 = tt.addptr %39, %38 : tensor<32x32x!tt.ptr<f32>, #blocked>, tensor<32x32xi32, #blocked> loc(#loc21)
    %41 = tt.splat %arg3 : i32 -> tensor<32x1xi32, #blocked3> loc(#loc22)
    %42 = arith.cmpi slt, %15, %41 : tensor<32x1xi32, #blocked3> loc(#loc22)
    %43 = tt.splat %arg4 : i32 -> tensor<1x32xi32, #blocked> loc(#loc23)
    %44 = arith.cmpi slt, %20, %43 : tensor<1x32xi32, #blocked> loc(#loc23)
    %45 = tt.broadcast %42 : tensor<32x1xi1, #blocked3> -> tensor<32x32xi1, #blocked3> loc(#loc24)
    %46 = ttg.convert_layout %45 : tensor<32x32xi1, #blocked3> -> tensor<32x32xi1, #blocked> loc(#loc24)
    %47 = tt.broadcast %44 : tensor<1x32xi1, #blocked> -> tensor<32x32xi1, #blocked> loc(#loc24)
    %48 = arith.andi %46, %47 : tensor<32x32xi1, #blocked> loc(#loc24)
    %49 = ttg.convert_layout %26 : tensor<32x32x!tt.ptr<f32>, #blocked> -> tensor<32x32x!tt.ptr<f32>, #blocked5> loc(#loc25)
    %50 = ttg.convert_layout %48 : tensor<32x32xi1, #blocked> -> tensor<32x32xi1, #blocked5> loc(#loc25)
    %51 = ttg.convert_layout %cst : tensor<32x32xf32, #blocked> -> tensor<32x32xf32, #blocked5> loc(#loc25)
    %52 = tt.load %49, %50, %51 : tensor<32x32x!tt.ptr<f32>, #blocked5> loc(#loc25)
    %53 = ttg.convert_layout %52 : tensor<32x32xf32, #blocked5> -> tensor<32x32xf32, #blocked> loc(#loc25)
    %54 = ttg.convert_layout %33 : tensor<32x32x!tt.ptr<f32>, #blocked> -> tensor<32x32x!tt.ptr<f32>, #blocked5> loc(#loc26)
    %55 = ttg.convert_layout %48 : tensor<32x32xi1, #blocked> -> tensor<32x32xi1, #blocked5> loc(#loc26)
    %56 = ttg.convert_layout %cst : tensor<32x32xf32, #blocked> -> tensor<32x32xf32, #blocked5> loc(#loc26)
    %57 = tt.load %54, %55, %56 : tensor<32x32x!tt.ptr<f32>, #blocked5> loc(#loc26)
    %58 = ttg.convert_layout %57 : tensor<32x32xf32, #blocked5> -> tensor<32x32xf32, #blocked> loc(#loc26)
    %59 = arith.addf %53, %58 : tensor<32x32xf32, #blocked> loc(#loc27)
    %60 = ttg.convert_layout %40 : tensor<32x32x!tt.ptr<f32>, #blocked> -> tensor<32x32x!tt.ptr<f32>, #blocked5> loc(#loc28)
    %61 = ttg.convert_layout %59 : tensor<32x32xf32, #blocked> -> tensor<32x32xf32, #blocked5> loc(#loc28)
    %62 = ttg.convert_layout %48 : tensor<32x32xi1, #blocked> -> tensor<32x32xi1, #blocked5> loc(#loc28)
    tt.store %60, %61, %62 : tensor<32x32x!tt.ptr<f32>, #blocked5> loc(#loc28)
    tt.return loc(#loc29)
  } loc(#loc)
} loc(#loc)
#loc1 = loc(unknown)
#loc2 = loc("examples/kernels/binary_ops.py":106:26)
#loc3 = loc("examples/kernels/binary_ops.py":107:26)
#loc4 = loc("examples/kernels/binary_ops.py":108:22)
#loc5 = loc("examples/kernels/binary_ops.py":108:50)
#loc6 = loc("examples/kernels/binary_ops.py":108:37)
#loc7 = loc("examples/kernels/binary_ops.py":108:67)
#loc8 = loc("examples/kernels/binary_ops.py":109:22)
#loc9 = loc("examples/kernels/binary_ops.py":109:37)
#loc10 = loc("examples/kernels/binary_ops.py":109:67)
#loc11 = loc("examples/kernels/binary_ops.py":110:29)
#loc12 = loc("examples/kernels/binary_ops.py":110:40)
#loc13 = loc("examples/kernels/binary_ops.py":110:59)
#loc14 = loc("examples/kernels/binary_ops.py":110:52)
#loc15 = loc("examples/kernels/binary_ops.py":110:22)
#loc16 = loc("examples/kernels/binary_ops.py":111:40)
#loc17 = loc("examples/kernels/binary_ops.py":111:52)
#loc18 = loc("examples/kernels/binary_ops.py":111:22)
#loc19 = loc("examples/kernels/binary_ops.py":112:40)
#loc20 = loc("examples/kernels/binary_ops.py":112:52)
#loc21 = loc("examples/kernels/binary_ops.py":112:22)
#loc22 = loc("examples/kernels/binary_ops.py":114:31)
#loc23 = loc("examples/kernels/binary_ops.py":114:55)
#loc24 = loc("examples/kernels/binary_ops.py":114:37)
#loc25 = loc("examples/kernels/binary_ops.py":116:16)
#loc26 = loc("examples/kernels/binary_ops.py":117:16)
#loc27 = loc("examples/kernels/binary_ops.py":118:12)
#loc28 = loc("examples/kernels/binary_ops.py":119:21)
#loc29 = loc("examples/kernels/binary_ops.py":119:4)


// -----// IR Dump Before TritonGPUPlanCTAPass (triton-nvidia-gpu-plan-cta) ('builtin.module' operation) //----- //
#blocked = #ttg.blocked<{sizePerThread = [1, 1], threadsPerWarp = [1, 32], warpsPerCTA = [4, 1], order = [1, 0]}>
#blocked1 = #ttg.blocked<{sizePerThread = [1], threadsPerWarp = [32], warpsPerCTA = [4], order = [0]}>
#blocked2 = #ttg.blocked<{sizePerThread = [1, 1], threadsPerWarp = [32, 1], warpsPerCTA = [4, 1], order = [0, 1]}>
#blocked3 = #ttg.blocked<{sizePerThread = [1, 1], threadsPerWarp = [32, 1], warpsPerCTA = [4, 1], order = [1, 0]}>
#blocked4 = #ttg.blocked<{sizePerThread = [1, 1], threadsPerWarp = [1, 32], warpsPerCTA = [1, 4], order = [0, 1]}>
#blocked5 = #ttg.blocked<{sizePerThread = [1, 4], threadsPerWarp = [4, 8], warpsPerCTA = [4, 1], order = [1, 0]}>
#loc = loc("examples/kernels/binary_ops.py":97:0)
module attributes {"ttg.num-ctas" = 1 : i32, "ttg.num-warps" = 4 : i32, ttg.target = "cuda:89", "ttg.threads-per-warp" = 32 : i32} {
  tt.func public @add_2d_kernel(%arg0: !tt.ptr<f32> {tt.divisibility = 16 : i32} loc("examples/kernels/binary_ops.py":97:0), %arg1: !tt.ptr<f32> {tt.divisibility = 16 : i32} loc("examples/kernels/binary_ops.py":97:0), %arg2: !tt.ptr<f32> {tt.divisibility = 16 : i32} loc("examples/kernels/binary_ops.py":97:0), %arg3: i32 {tt.divisibility = 16 : i32} loc("examples/kernels/binary_ops.py":97:0), %arg4: i32 {tt.divisibility = 16 : i32} loc("examples/kernels/binary_ops.py":97:0), %arg5: i32 {tt.divisibility = 16 : i32} loc("examples/kernels/binary_ops.py":97:0), %arg6: i32 {tt.divisibility = 16 : i32} loc("examples/kernels/binary_ops.py":97:0), %arg7: i32 {tt.divisibility = 16 : i32} loc("examples/kernels/binary_ops.py":97:0)) attributes {noinline = false} {
    %cst = arith.constant dense<0.000000e+00> : tensor<32x32xf32, #blocked> loc(#loc1)
    %c32_i32 = arith.constant 32 : i32 loc(#loc1)
    %0 = tt.get_program_id x : i32 loc(#loc2)
    %1 = tt.get_program_id y : i32 loc(#loc3)
    %2 = arith.muli %0, %c32_i32 : i32 loc(#loc4)
    %3 = tt.make_range {end = 32 : i32, start = 0 : i32} : tensor<32xi32, #blocked1> loc(#loc5)
    %4 = tt.splat %2 : i32 -> tensor<32xi32, #blocked1> loc(#loc6)
    %5 = arith.addi %4, %3 : tensor<32xi32, #blocked1> loc(#loc6)
    %6 = tt.splat %arg3 : i32 -> tensor<32xi32, #blocked1> loc(#loc7)
    %7 = arith.remsi %5, %6 : tensor<32xi32, #blocked1> loc(#loc7)
    %8 = arith.muli %1, %c32_i32 : i32 loc(#loc8)
    %9 = tt.splat %8 : i32 -> tensor<32xi32, #blocked1> loc(#loc9)
    %10 = arith.addi %9, %3 : tensor<32xi32, #blocked1> loc(#loc9)
    %11 = tt.splat %arg4 : i32 -> tensor<32xi32, #blocked1> loc(#loc10)
    %12 = arith.remsi %10, %11 : tensor<32xi32, #blocked1> loc(#loc10)
    %13 = ttg.convert_layout %7 : tensor<32xi32, #blocked1> -> tensor<32xi32, #ttg.slice<{dim = 1, parent = #blocked2}>> loc(#loc11)
    %14 = tt.expand_dims %13 {axis = 1 : i32} : tensor<32xi32, #ttg.slice<{dim = 1, parent = #blocked2}>> -> tensor<32x1xi32, #blocked2> loc(#loc11)
    %15 = ttg.convert_layout %14 : tensor<32x1xi32, #blocked2> -> tensor<32x1xi32, #blocked3> loc(#loc12)
    %16 = tt.splat %arg5 : i32 -> tensor<32x1xi32, #blocked3> loc(#loc12)
    %17 = arith.muli %15, %16 : tensor<32x1xi32, #blocked3> loc(#loc12)
    %18 = ttg.convert_layout %12 : tensor<32xi32, #blocked1> -> tensor<32xi32, #ttg.slice<{dim = 0, parent = #blocked4}>> loc(#loc13)
    %19 = tt.expand_dims %18 {axis = 0 : i32} : tensor<32xi32, #ttg.slice<{dim = 0, parent = #blocked4}>> -> tensor<1x32xi32, #blocked4> loc(#loc13)
    %20 = ttg.convert_layout %19 : tensor<1x32xi32, #blocked4> -> tensor<1x32xi32, #blocked> loc(#loc14)
    %21 = tt.broadcast %17 : tensor<32x1xi32, #blocked3> -> tensor<32x32xi32, #blocked3> loc(#loc14)
    %22 = ttg.convert_layout %21 : tensor<32x32xi32, #blocked3> -> tensor<32x32xi32, #blocked> loc(#loc14)
    %23 = tt.broadcast %20 : tensor<1x32xi32, #blocked> -> tensor<32x32xi32, #blocked> loc(#loc14)
    %24 = arith.addi %22, %23 : tensor<32x32xi32, #blocked> loc(#loc14)
    %25 = tt.splat %arg0 : !tt.ptr<f32> -> tensor<32x32x!tt.ptr<f32>, #blocked> loc(#loc15)
    %26 = tt.addptr %25, %24 : tensor<32x32x!tt.ptr<f32>, #blocked>, tensor<32x32xi32, #blocked> loc(#loc15)
    %27 = tt.splat %arg6 : i32 -> tensor<32x1xi32, #blocked3> loc(#loc16)
    %28 = arith.muli %15, %27 : tensor<32x1xi32, #blocked3> loc(#loc16)
    %29 = tt.broadcast %28 : tensor<32x1xi32, #blocked3> -> tensor<32x32xi32, #blocked3> loc(#loc17)
    %30 = ttg.convert_layout %29 : tensor<32x32xi32, #blocked3> -> tensor<32x32xi32, #blocked> loc(#loc17)
    %31 = arith.addi %30, %23 : tensor<32x32xi32, #blocked> loc(#loc17)
    %32 = tt.splat %arg1 : !tt.ptr<f32> -> tensor<32x32x!tt.ptr<f32>, #blocked> loc(#loc18)
    %33 = tt.addptr %32, %31 : tensor<32x32x!tt.ptr<f32>, #blocked>, tensor<32x32xi32, #blocked> loc(#loc18)
    %34 = tt.splat %arg7 : i32 -> tensor<32x1xi32, #blocked3> loc(#loc19)
    %35 = arith.muli %15, %34 : tensor<32x1xi32, #blocked3> loc(#loc19)
    %36 = tt.broadcast %35 : tensor<32x1xi32, #blocked3> -> tensor<32x32xi32, #blocked3> loc(#loc20)
    %37 = ttg.convert_layout %36 : tensor<32x32xi32, #blocked3> -> tensor<32x32xi32, #blocked> loc(#loc20)
    %38 = arith.addi %37, %23 : tensor<32x32xi32, #blocked> loc(#loc20)
    %39 = tt.splat %arg2 : !tt.ptr<f32> -> tensor<32x32x!tt.ptr<f32>, #blocked> loc(#loc21)
    %40 = tt.addptr %39, %38 : tensor<32x32x!tt.ptr<f32>, #blocked>, tensor<32x32xi32, #blocked> loc(#loc21)
    %41 = tt.splat %arg3 : i32 -> tensor<32x1xi32, #blocked3> loc(#loc22)
    %42 = arith.cmpi slt, %15, %41 : tensor<32x1xi32, #blocked3> loc(#loc22)
    %43 = tt.splat %arg4 : i32 -> tensor<1x32xi32, #blocked> loc(#loc23)
    %44 = arith.cmpi slt, %20, %43 : tensor<1x32xi32, #blocked> loc(#loc23)
    %45 = tt.broadcast %42 : tensor<32x1xi1, #blocked3> -> tensor<32x32xi1, #blocked3> loc(#loc24)
    %46 = ttg.convert_layout %45 : tensor<32x32xi1, #blocked3> -> tensor<32x32xi1, #blocked> loc(#loc24)
    %47 = tt.broadcast %44 : tensor<1x32xi1, #blocked> -> tensor<32x32xi1, #blocked> loc(#loc24)
    %48 = arith.andi %46, %47 : tensor<32x32xi1, #blocked> loc(#loc24)
    %49 = ttg.convert_layout %26 : tensor<32x32x!tt.ptr<f32>, #blocked> -> tensor<32x32x!tt.ptr<f32>, #blocked5> loc(#loc25)
    %50 = ttg.convert_layout %48 : tensor<32x32xi1, #blocked> -> tensor<32x32xi1, #blocked5> loc(#loc25)
    %51 = ttg.convert_layout %cst : tensor<32x32xf32, #blocked> -> tensor<32x32xf32, #blocked5> loc(#loc25)
    %52 = tt.load %49, %50, %51 : tensor<32x32x!tt.ptr<f32>, #blocked5> loc(#loc25)
    %53 = ttg.convert_layout %52 : tensor<32x32xf32, #blocked5> -> tensor<32x32xf32, #blocked> loc(#loc25)
    %54 = ttg.convert_layout %33 : tensor<32x32x!tt.ptr<f32>, #blocked> -> tensor<32x32x!tt.ptr<f32>, #blocked5> loc(#loc26)
    %55 = ttg.convert_layout %48 : tensor<32x32xi1, #blocked> -> tensor<32x32xi1, #blocked5> loc(#loc26)
    %56 = ttg.convert_layout %cst : tensor<32x32xf32, #blocked> -> tensor<32x32xf32, #blocked5> loc(#loc26)
    %57 = tt.load %54, %55, %56 : tensor<32x32x!tt.ptr<f32>, #blocked5> loc(#loc26)
    %58 = ttg.convert_layout %57 : tensor<32x32xf32, #blocked5> -> tensor<32x32xf32, #blocked> loc(#loc26)
    %59 = arith.addf %53, %58 : tensor<32x32xf32, #blocked> loc(#loc27)
    %60 = ttg.convert_layout %40 : tensor<32x32x!tt.ptr<f32>, #blocked> -> tensor<32x32x!tt.ptr<f32>, #blocked5> loc(#loc28)
    %61 = ttg.convert_layout %59 : tensor<32x32xf32, #blocked> -> tensor<32x32xf32, #blocked5> loc(#loc28)
    %62 = ttg.convert_layout %48 : tensor<32x32xi1, #blocked> -> tensor<32x32xi1, #blocked5> loc(#loc28)
    tt.store %60, %61, %62 : tensor<32x32x!tt.ptr<f32>, #blocked5> loc(#loc28)
    tt.return loc(#loc29)
  } loc(#loc)
} loc(#loc)
#loc1 = loc(unknown)
#loc2 = loc("examples/kernels/binary_ops.py":106:26)
#loc3 = loc("examples/kernels/binary_ops.py":107:26)
#loc4 = loc("examples/kernels/binary_ops.py":108:22)
#loc5 = loc("examples/kernels/binary_ops.py":108:50)
#loc6 = loc("examples/kernels/binary_ops.py":108:37)
#loc7 = loc("examples/kernels/binary_ops.py":108:67)
#loc8 = loc("examples/kernels/binary_ops.py":109:22)
#loc9 = loc("examples/kernels/binary_ops.py":109:37)
#loc10 = loc("examples/kernels/binary_ops.py":109:67)
#loc11 = loc("examples/kernels/binary_ops.py":110:29)
#loc12 = loc("examples/kernels/binary_ops.py":110:40)
#loc13 = loc("examples/kernels/binary_ops.py":110:59)
#loc14 = loc("examples/kernels/binary_ops.py":110:52)
#loc15 = loc("examples/kernels/binary_ops.py":110:22)
#loc16 = loc("examples/kernels/binary_ops.py":111:40)
#loc17 = loc("examples/kernels/binary_ops.py":111:52)
#loc18 = loc("examples/kernels/binary_ops.py":111:22)
#loc19 = loc("examples/kernels/binary_ops.py":112:40)
#loc20 = loc("examples/kernels/binary_ops.py":112:52)
#loc21 = loc("examples/kernels/binary_ops.py":112:22)
#loc22 = loc("examples/kernels/binary_ops.py":114:31)
#loc23 = loc("examples/kernels/binary_ops.py":114:55)
#loc24 = loc("examples/kernels/binary_ops.py":114:37)
#loc25 = loc("examples/kernels/binary_ops.py":116:16)
#loc26 = loc("examples/kernels/binary_ops.py":117:16)
#loc27 = loc("examples/kernels/binary_ops.py":118:12)
#loc28 = loc("examples/kernels/binary_ops.py":119:21)
#loc29 = loc("examples/kernels/binary_ops.py":119:4)


// -----// IR Dump Before TritonGPURemoveLayoutConversions (tritongpu-remove-layout-conversions) ('builtin.module' operation) //----- //
#blocked = #ttg.blocked<{sizePerThread = [1, 1], threadsPerWarp = [1, 32], warpsPerCTA = [4, 1], order = [1, 0]}>
#blocked1 = #ttg.blocked<{sizePerThread = [1], threadsPerWarp = [32], warpsPerCTA = [4], order = [0]}>
#blocked2 = #ttg.blocked<{sizePerThread = [1, 1], threadsPerWarp = [32, 1], warpsPerCTA = [4, 1], order = [0, 1]}>
#blocked3 = #ttg.blocked<{sizePerThread = [1, 1], threadsPerWarp = [32, 1], warpsPerCTA = [4, 1], order = [1, 0]}>
#blocked4 = #ttg.blocked<{sizePerThread = [1, 1], threadsPerWarp = [1, 32], warpsPerCTA = [1, 4], order = [0, 1]}>
#blocked5 = #ttg.blocked<{sizePerThread = [1, 4], threadsPerWarp = [4, 8], warpsPerCTA = [4, 1], order = [1, 0]}>
#loc = loc("examples/kernels/binary_ops.py":97:0)
module attributes {"ttg.num-ctas" = 1 : i32, "ttg.num-warps" = 4 : i32, ttg.target = "cuda:89", "ttg.threads-per-warp" = 32 : i32} {
  tt.func public @add_2d_kernel(%arg0: !tt.ptr<f32> {tt.divisibility = 16 : i32} loc("examples/kernels/binary_ops.py":97:0), %arg1: !tt.ptr<f32> {tt.divisibility = 16 : i32} loc("examples/kernels/binary_ops.py":97:0), %arg2: !tt.ptr<f32> {tt.divisibility = 16 : i32} loc("examples/kernels/binary_ops.py":97:0), %arg3: i32 {tt.divisibility = 16 : i32} loc("examples/kernels/binary_ops.py":97:0), %arg4: i32 {tt.divisibility = 16 : i32} loc("examples/kernels/binary_ops.py":97:0), %arg5: i32 {tt.divisibility = 16 : i32} loc("examples/kernels/binary_ops.py":97:0), %arg6: i32 {tt.divisibility = 16 : i32} loc("examples/kernels/binary_ops.py":97:0), %arg7: i32 {tt.divisibility = 16 : i32} loc("examples/kernels/binary_ops.py":97:0)) attributes {noinline = false} {
    %cst = arith.constant dense<0.000000e+00> : tensor<32x32xf32, #blocked> loc(#loc1)
    %c32_i32 = arith.constant 32 : i32 loc(#loc1)
    %0 = tt.get_program_id x : i32 loc(#loc2)
    %1 = tt.get_program_id y : i32 loc(#loc3)
    %2 = arith.muli %0, %c32_i32 : i32 loc(#loc4)
    %3 = tt.make_range {end = 32 : i32, start = 0 : i32} : tensor<32xi32, #blocked1> loc(#loc5)
    %4 = tt.splat %2 : i32 -> tensor<32xi32, #blocked1> loc(#loc6)
    %5 = arith.addi %4, %3 : tensor<32xi32, #blocked1> loc(#loc6)
    %6 = tt.splat %arg3 : i32 -> tensor<32xi32, #blocked1> loc(#loc7)
    %7 = arith.remsi %5, %6 : tensor<32xi32, #blocked1> loc(#loc7)
    %8 = arith.muli %1, %c32_i32 : i32 loc(#loc8)
    %9 = tt.splat %8 : i32 -> tensor<32xi32, #blocked1> loc(#loc9)
    %10 = arith.addi %9, %3 : tensor<32xi32, #blocked1> loc(#loc9)
    %11 = tt.splat %arg4 : i32 -> tensor<32xi32, #blocked1> loc(#loc10)
    %12 = arith.remsi %10, %11 : tensor<32xi32, #blocked1> loc(#loc10)
    %13 = ttg.convert_layout %7 : tensor<32xi32, #blocked1> -> tensor<32xi32, #ttg.slice<{dim = 1, parent = #blocked2}>> loc(#loc11)
    %14 = tt.expand_dims %13 {axis = 1 : i32} : tensor<32xi32, #ttg.slice<{dim = 1, parent = #blocked2}>> -> tensor<32x1xi32, #blocked2> loc(#loc11)
    %15 = ttg.convert_layout %14 : tensor<32x1xi32, #blocked2> -> tensor<32x1xi32, #blocked3> loc(#loc12)
    %16 = tt.splat %arg5 : i32 -> tensor<32x1xi32, #blocked3> loc(#loc12)
    %17 = arith.muli %15, %16 : tensor<32x1xi32, #blocked3> loc(#loc12)
    %18 = ttg.convert_layout %12 : tensor<32xi32, #blocked1> -> tensor<32xi32, #ttg.slice<{dim = 0, parent = #blocked4}>> loc(#loc13)
    %19 = tt.expand_dims %18 {axis = 0 : i32} : tensor<32xi32, #ttg.slice<{dim = 0, parent = #blocked4}>> -> tensor<1x32xi32, #blocked4> loc(#loc13)
    %20 = ttg.convert_layout %19 : tensor<1x32xi32, #blocked4> -> tensor<1x32xi32, #blocked> loc(#loc14)
    %21 = tt.broadcast %17 : tensor<32x1xi32, #blocked3> -> tensor<32x32xi32, #blocked3> loc(#loc14)
    %22 = ttg.convert_layout %21 : tensor<32x32xi32, #blocked3> -> tensor<32x32xi32, #blocked> loc(#loc14)
    %23 = tt.broadcast %20 : tensor<1x32xi32, #blocked> -> tensor<32x32xi32, #blocked> loc(#loc14)
    %24 = arith.addi %22, %23 : tensor<32x32xi32, #blocked> loc(#loc14)
    %25 = tt.splat %arg0 : !tt.ptr<f32> -> tensor<32x32x!tt.ptr<f32>, #blocked> loc(#loc15)
    %26 = tt.addptr %25, %24 : tensor<32x32x!tt.ptr<f32>, #blocked>, tensor<32x32xi32, #blocked> loc(#loc15)
    %27 = tt.splat %arg6 : i32 -> tensor<32x1xi32, #blocked3> loc(#loc16)
    %28 = arith.muli %15, %27 : tensor<32x1xi32, #blocked3> loc(#loc16)
    %29 = tt.broadcast %28 : tensor<32x1xi32, #blocked3> -> tensor<32x32xi32, #blocked3> loc(#loc17)
    %30 = ttg.convert_layout %29 : tensor<32x32xi32, #blocked3> -> tensor<32x32xi32, #blocked> loc(#loc17)
    %31 = arith.addi %30, %23 : tensor<32x32xi32, #blocked> loc(#loc17)
    %32 = tt.splat %arg1 : !tt.ptr<f32> -> tensor<32x32x!tt.ptr<f32>, #blocked> loc(#loc18)
    %33 = tt.addptr %32, %31 : tensor<32x32x!tt.ptr<f32>, #blocked>, tensor<32x32xi32, #blocked> loc(#loc18)
    %34 = tt.splat %arg7 : i32 -> tensor<32x1xi32, #blocked3> loc(#loc19)
    %35 = arith.muli %15, %34 : tensor<32x1xi32, #blocked3> loc(#loc19)
    %36 = tt.broadcast %35 : tensor<32x1xi32, #blocked3> -> tensor<32x32xi32, #blocked3> loc(#loc20)
    %37 = ttg.convert_layout %36 : tensor<32x32xi32, #blocked3> -> tensor<32x32xi32, #blocked> loc(#loc20)
    %38 = arith.addi %37, %23 : tensor<32x32xi32, #blocked> loc(#loc20)
    %39 = tt.splat %arg2 : !tt.ptr<f32> -> tensor<32x32x!tt.ptr<f32>, #blocked> loc(#loc21)
    %40 = tt.addptr %39, %38 : tensor<32x32x!tt.ptr<f32>, #blocked>, tensor<32x32xi32, #blocked> loc(#loc21)
    %41 = tt.splat %arg3 : i32 -> tensor<32x1xi32, #blocked3> loc(#loc22)
    %42 = arith.cmpi slt, %15, %41 : tensor<32x1xi32, #blocked3> loc(#loc22)
    %43 = tt.splat %arg4 : i32 -> tensor<1x32xi32, #blocked> loc(#loc23)
    %44 = arith.cmpi slt, %20, %43 : tensor<1x32xi32, #blocked> loc(#loc23)
    %45 = tt.broadcast %42 : tensor<32x1xi1, #blocked3> -> tensor<32x32xi1, #blocked3> loc(#loc24)
    %46 = ttg.convert_layout %45 : tensor<32x32xi1, #blocked3> -> tensor<32x32xi1, #blocked> loc(#loc24)
    %47 = tt.broadcast %44 : tensor<1x32xi1, #blocked> -> tensor<32x32xi1, #blocked> loc(#loc24)
    %48 = arith.andi %46, %47 : tensor<32x32xi1, #blocked> loc(#loc24)
    %49 = ttg.convert_layout %26 : tensor<32x32x!tt.ptr<f32>, #blocked> -> tensor<32x32x!tt.ptr<f32>, #blocked5> loc(#loc25)
    %50 = ttg.convert_layout %48 : tensor<32x32xi1, #blocked> -> tensor<32x32xi1, #blocked5> loc(#loc25)
    %51 = ttg.convert_layout %cst : tensor<32x32xf32, #blocked> -> tensor<32x32xf32, #blocked5> loc(#loc25)
    %52 = tt.load %49, %50, %51 : tensor<32x32x!tt.ptr<f32>, #blocked5> loc(#loc25)
    %53 = ttg.convert_layout %52 : tensor<32x32xf32, #blocked5> -> tensor<32x32xf32, #blocked> loc(#loc25)
    %54 = ttg.convert_layout %33 : tensor<32x32x!tt.ptr<f32>, #blocked> -> tensor<32x32x!tt.ptr<f32>, #blocked5> loc(#loc26)
    %55 = ttg.convert_layout %48 : tensor<32x32xi1, #blocked> -> tensor<32x32xi1, #blocked5> loc(#loc26)
    %56 = ttg.convert_layout %cst : tensor<32x32xf32, #blocked> -> tensor<32x32xf32, #blocked5> loc(#loc26)
    %57 = tt.load %54, %55, %56 : tensor<32x32x!tt.ptr<f32>, #blocked5> loc(#loc26)
    %58 = ttg.convert_layout %57 : tensor<32x32xf32, #blocked5> -> tensor<32x32xf32, #blocked> loc(#loc26)
    %59 = arith.addf %53, %58 : tensor<32x32xf32, #blocked> loc(#loc27)
    %60 = ttg.convert_layout %40 : tensor<32x32x!tt.ptr<f32>, #blocked> -> tensor<32x32x!tt.ptr<f32>, #blocked5> loc(#loc28)
    %61 = ttg.convert_layout %59 : tensor<32x32xf32, #blocked> -> tensor<32x32xf32, #blocked5> loc(#loc28)
    %62 = ttg.convert_layout %48 : tensor<32x32xi1, #blocked> -> tensor<32x32xi1, #blocked5> loc(#loc28)
    tt.store %60, %61, %62 : tensor<32x32x!tt.ptr<f32>, #blocked5> loc(#loc28)
    tt.return loc(#loc29)
  } loc(#loc)
} loc(#loc)
#loc1 = loc(unknown)
#loc2 = loc("examples/kernels/binary_ops.py":106:26)
#loc3 = loc("examples/kernels/binary_ops.py":107:26)
#loc4 = loc("examples/kernels/binary_ops.py":108:22)
#loc5 = loc("examples/kernels/binary_ops.py":108:50)
#loc6 = loc("examples/kernels/binary_ops.py":108:37)
#loc7 = loc("examples/kernels/binary_ops.py":108:67)
#loc8 = loc("examples/kernels/binary_ops.py":109:22)
#loc9 = loc("examples/kernels/binary_ops.py":109:37)
#loc10 = loc("examples/kernels/binary_ops.py":109:67)
#loc11 = loc("examples/kernels/binary_ops.py":110:29)
#loc12 = loc("examples/kernels/binary_ops.py":110:40)
#loc13 = loc("examples/kernels/binary_ops.py":110:59)
#loc14 = loc("examples/kernels/binary_ops.py":110:52)
#loc15 = loc("examples/kernels/binary_ops.py":110:22)
#loc16 = loc("examples/kernels/binary_ops.py":111:40)
#loc17 = loc("examples/kernels/binary_ops.py":111:52)
#loc18 = loc("examples/kernels/binary_ops.py":111:22)
#loc19 = loc("examples/kernels/binary_ops.py":112:40)
#loc20 = loc("examples/kernels/binary_ops.py":112:52)
#loc21 = loc("examples/kernels/binary_ops.py":112:22)
#loc22 = loc("examples/kernels/binary_ops.py":114:31)
#loc23 = loc("examples/kernels/binary_ops.py":114:55)
#loc24 = loc("examples/kernels/binary_ops.py":114:37)
#loc25 = loc("examples/kernels/binary_ops.py":116:16)
#loc26 = loc("examples/kernels/binary_ops.py":117:16)
#loc27 = loc("examples/kernels/binary_ops.py":118:12)
#loc28 = loc("examples/kernels/binary_ops.py":119:21)
#loc29 = loc("examples/kernels/binary_ops.py":119:4)


// -----// IR Dump Before TritonGPUOptimizeThreadLocality (tritongpu-optimize-thread-locality) ('builtin.module' operation) //----- //
#blocked = #ttg.blocked<{sizePerThread = [1, 4], threadsPerWarp = [4, 8], warpsPerCTA = [4, 1], order = [1, 0]}>
#loc = loc("examples/kernels/binary_ops.py":97:0)
module attributes {"ttg.num-ctas" = 1 : i32, "ttg.num-warps" = 4 : i32, ttg.target = "cuda:89", "ttg.threads-per-warp" = 32 : i32} {
  tt.func public @add_2d_kernel(%arg0: !tt.ptr<f32> {tt.divisibility = 16 : i32} loc("examples/kernels/binary_ops.py":97:0), %arg1: !tt.ptr<f32> {tt.divisibility = 16 : i32} loc("examples/kernels/binary_ops.py":97:0), %arg2: !tt.ptr<f32> {tt.divisibility = 16 : i32} loc("examples/kernels/binary_ops.py":97:0), %arg3: i32 {tt.divisibility = 16 : i32} loc("examples/kernels/binary_ops.py":97:0), %arg4: i32 {tt.divisibility = 16 : i32} loc("examples/kernels/binary_ops.py":97:0), %arg5: i32 {tt.divisibility = 16 : i32} loc("examples/kernels/binary_ops.py":97:0), %arg6: i32 {tt.divisibility = 16 : i32} loc("examples/kernels/binary_ops.py":97:0), %arg7: i32 {tt.divisibility = 16 : i32} loc("examples/kernels/binary_ops.py":97:0)) attributes {noinline = false} {
    %cst = arith.constant dense<0.000000e+00> : tensor<32x32xf32, #blocked> loc(#loc1)
    %c32_i32 = arith.constant 32 : i32 loc(#loc1)
    %0 = tt.get_program_id x : i32 loc(#loc2)
    %1 = tt.get_program_id y : i32 loc(#loc3)
    %2 = arith.muli %0, %c32_i32 : i32 loc(#loc4)
    %3 = tt.make_range {end = 32 : i32, start = 0 : i32} : tensor<32xi32, #ttg.slice<{dim = 1, parent = #blocked}>> loc(#loc5)
    %4 = tt.make_range {end = 32 : i32, start = 0 : i32} : tensor<32xi32, #ttg.slice<{dim = 0, parent = #blocked}>> loc(#loc5)
    %5 = tt.splat %2 : i32 -> tensor<32xi32, #ttg.slice<{dim = 1, parent = #blocked}>> loc(#loc6)
    %6 = arith.addi %5, %3 : tensor<32xi32, #ttg.slice<{dim = 1, parent = #blocked}>> loc(#loc6)
    %7 = tt.splat %arg3 : i32 -> tensor<32xi32, #ttg.slice<{dim = 1, parent = #blocked}>> loc(#loc7)
    %8 = arith.remsi %6, %7 : tensor<32xi32, #ttg.slice<{dim = 1, parent = #blocked}>> loc(#loc7)
    %9 = arith.muli %1, %c32_i32 : i32 loc(#loc8)
    %10 = tt.splat %9 : i32 -> tensor<32xi32, #ttg.slice<{dim = 0, parent = #blocked}>> loc(#loc9)
    %11 = arith.addi %10, %4 : tensor<32xi32, #ttg.slice<{dim = 0, parent = #blocked}>> loc(#loc9)
    %12 = tt.splat %arg4 : i32 -> tensor<32xi32, #ttg.slice<{dim = 0, parent = #blocked}>> loc(#loc10)
    %13 = arith.remsi %11, %12 : tensor<32xi32, #ttg.slice<{dim = 0, parent = #blocked}>> loc(#loc10)
    %14 = tt.expand_dims %8 {axis = 1 : i32} : tensor<32xi32, #ttg.slice<{dim = 1, parent = #blocked}>> -> tensor<32x1xi32, #blocked> loc(#loc11)
    %15 = tt.splat %arg5 : i32 -> tensor<32x1xi32, #blocked> loc(#loc12)
    %16 = arith.muli %14, %15 : tensor<32x1xi32, #blocked> loc(#loc12)
    %17 = tt.expand_dims %13 {axis = 0 : i32} : tensor<32xi32, #ttg.slice<{dim = 0, parent = #blocked}>> -> tensor<1x32xi32, #blocked> loc(#loc13)
    %18 = tt.broadcast %16 : tensor<32x1xi32, #blocked> -> tensor<32x32xi32, #blocked> loc(#loc14)
    %19 = tt.broadcast %17 : tensor<1x32xi32, #blocked> -> tensor<32x32xi32, #blocked> loc(#loc14)
    %20 = arith.addi %18, %19 : tensor<32x32xi32, #blocked> loc(#loc14)
    %21 = tt.splat %arg0 : !tt.ptr<f32> -> tensor<32x32x!tt.ptr<f32>, #blocked> loc(#loc15)
    %22 = tt.addptr %21, %20 : tensor<32x32x!tt.ptr<f32>, #blocked>, tensor<32x32xi32, #blocked> loc(#loc15)
    %23 = tt.splat %arg6 : i32 -> tensor<32x1xi32, #blocked> loc(#loc16)
    %24 = arith.muli %14, %23 : tensor<32x1xi32, #blocked> loc(#loc16)
    %25 = tt.broadcast %24 : tensor<32x1xi32, #blocked> -> tensor<32x32xi32, #blocked> loc(#loc17)
    %26 = arith.addi %25, %19 : tensor<32x32xi32, #blocked> loc(#loc17)
    %27 = tt.splat %arg1 : !tt.ptr<f32> -> tensor<32x32x!tt.ptr<f32>, #blocked> loc(#loc18)
    %28 = tt.addptr %27, %26 : tensor<32x32x!tt.ptr<f32>, #blocked>, tensor<32x32xi32, #blocked> loc(#loc18)
    %29 = tt.splat %arg7 : i32 -> tensor<32x1xi32, #blocked> loc(#loc19)
    %30 = arith.muli %14, %29 : tensor<32x1xi32, #blocked> loc(#loc19)
    %31 = tt.broadcast %30 : tensor<32x1xi32, #blocked> -> tensor<32x32xi32, #blocked> loc(#loc20)
    %32 = arith.addi %31, %19 : tensor<32x32xi32, #blocked> loc(#loc20)
    %33 = tt.splat %arg2 : !tt.ptr<f32> -> tensor<32x32x!tt.ptr<f32>, #blocked> loc(#loc21)
    %34 = tt.addptr %33, %32 : tensor<32x32x!tt.ptr<f32>, #blocked>, tensor<32x32xi32, #blocked> loc(#loc21)
    %35 = tt.splat %arg3 : i32 -> tensor<32x1xi32, #blocked> loc(#loc22)
    %36 = arith.cmpi slt, %14, %35 : tensor<32x1xi32, #blocked> loc(#loc22)
    %37 = tt.splat %arg4 : i32 -> tensor<1x32xi32, #blocked> loc(#loc23)
    %38 = arith.cmpi slt, %17, %37 : tensor<1x32xi32, #blocked> loc(#loc23)
    %39 = tt.broadcast %36 : tensor<32x1xi1, #blocked> -> tensor<32x32xi1, #blocked> loc(#loc24)
    %40 = tt.broadcast %38 : tensor<1x32xi1, #blocked> -> tensor<32x32xi1, #blocked> loc(#loc24)
    %41 = arith.andi %39, %40 : tensor<32x32xi1, #blocked> loc(#loc24)
    %42 = tt.load %22, %41, %cst : tensor<32x32x!tt.ptr<f32>, #blocked> loc(#loc25)
    %43 = tt.load %28, %41, %cst : tensor<32x32x!tt.ptr<f32>, #blocked> loc(#loc26)
    %44 = arith.addf %42, %43 : tensor<32x32xf32, #blocked> loc(#loc27)
    tt.store %34, %44, %41 : tensor<32x32x!tt.ptr<f32>, #blocked> loc(#loc28)
    tt.return loc(#loc29)
  } loc(#loc)
} loc(#loc)
#loc1 = loc(unknown)
#loc2 = loc("examples/kernels/binary_ops.py":106:26)
#loc3 = loc("examples/kernels/binary_ops.py":107:26)
#loc4 = loc("examples/kernels/binary_ops.py":108:22)
#loc5 = loc("examples/kernels/binary_ops.py":108:50)
#loc6 = loc("examples/kernels/binary_ops.py":108:37)
#loc7 = loc("examples/kernels/binary_ops.py":108:67)
#loc8 = loc("examples/kernels/binary_ops.py":109:22)
#loc9 = loc("examples/kernels/binary_ops.py":109:37)
#loc10 = loc("examples/kernels/binary_ops.py":109:67)
#loc11 = loc("examples/kernels/binary_ops.py":110:29)
#loc12 = loc("examples/kernels/binary_ops.py":110:40)
#loc13 = loc("examples/kernels/binary_ops.py":110:59)
#loc14 = loc("examples/kernels/binary_ops.py":110:52)
#loc15 = loc("examples/kernels/binary_ops.py":110:22)
#loc16 = loc("examples/kernels/binary_ops.py":111:40)
#loc17 = loc("examples/kernels/binary_ops.py":111:52)
#loc18 = loc("examples/kernels/binary_ops.py":111:22)
#loc19 = loc("examples/kernels/binary_ops.py":112:40)
#loc20 = loc("examples/kernels/binary_ops.py":112:52)
#loc21 = loc("examples/kernels/binary_ops.py":112:22)
#loc22 = loc("examples/kernels/binary_ops.py":114:31)
#loc23 = loc("examples/kernels/binary_ops.py":114:55)
#loc24 = loc("examples/kernels/binary_ops.py":114:37)
#loc25 = loc("examples/kernels/binary_ops.py":116:16)
#loc26 = loc("examples/kernels/binary_ops.py":117:16)
#loc27 = loc("examples/kernels/binary_ops.py":118:12)
#loc28 = loc("examples/kernels/binary_ops.py":119:21)
#loc29 = loc("examples/kernels/binary_ops.py":119:4)


// -----// IR Dump Before TritonGPUAccelerateMatmul (tritongpu-accelerate-matmul) ('builtin.module' operation) //----- //
#blocked = #ttg.blocked<{sizePerThread = [1, 4], threadsPerWarp = [4, 8], warpsPerCTA = [4, 1], order = [1, 0]}>
#loc = loc("examples/kernels/binary_ops.py":97:0)
module attributes {"ttg.num-ctas" = 1 : i32, "ttg.num-warps" = 4 : i32, ttg.target = "cuda:89", "ttg.threads-per-warp" = 32 : i32} {
  tt.func public @add_2d_kernel(%arg0: !tt.ptr<f32> {tt.divisibility = 16 : i32} loc("examples/kernels/binary_ops.py":97:0), %arg1: !tt.ptr<f32> {tt.divisibility = 16 : i32} loc("examples/kernels/binary_ops.py":97:0), %arg2: !tt.ptr<f32> {tt.divisibility = 16 : i32} loc("examples/kernels/binary_ops.py":97:0), %arg3: i32 {tt.divisibility = 16 : i32} loc("examples/kernels/binary_ops.py":97:0), %arg4: i32 {tt.divisibility = 16 : i32} loc("examples/kernels/binary_ops.py":97:0), %arg5: i32 {tt.divisibility = 16 : i32} loc("examples/kernels/binary_ops.py":97:0), %arg6: i32 {tt.divisibility = 16 : i32} loc("examples/kernels/binary_ops.py":97:0), %arg7: i32 {tt.divisibility = 16 : i32} loc("examples/kernels/binary_ops.py":97:0)) attributes {noinline = false} {
    %cst = arith.constant dense<0.000000e+00> : tensor<32x32xf32, #blocked> loc(#loc1)
    %c32_i32 = arith.constant 32 : i32 loc(#loc1)
    %0 = tt.get_program_id x : i32 loc(#loc2)
    %1 = tt.get_program_id y : i32 loc(#loc3)
    %2 = arith.muli %0, %c32_i32 : i32 loc(#loc4)
    %3 = tt.make_range {end = 32 : i32, start = 0 : i32} : tensor<32xi32, #ttg.slice<{dim = 1, parent = #blocked}>> loc(#loc5)
    %4 = tt.make_range {end = 32 : i32, start = 0 : i32} : tensor<32xi32, #ttg.slice<{dim = 0, parent = #blocked}>> loc(#loc5)
    %5 = tt.splat %2 : i32 -> tensor<32xi32, #ttg.slice<{dim = 1, parent = #blocked}>> loc(#loc6)
    %6 = arith.addi %5, %3 : tensor<32xi32, #ttg.slice<{dim = 1, parent = #blocked}>> loc(#loc6)
    %7 = tt.splat %arg3 : i32 -> tensor<32xi32, #ttg.slice<{dim = 1, parent = #blocked}>> loc(#loc7)
    %8 = arith.remsi %6, %7 : tensor<32xi32, #ttg.slice<{dim = 1, parent = #blocked}>> loc(#loc7)
    %9 = arith.muli %1, %c32_i32 : i32 loc(#loc8)
    %10 = tt.splat %9 : i32 -> tensor<32xi32, #ttg.slice<{dim = 0, parent = #blocked}>> loc(#loc9)
    %11 = arith.addi %10, %4 : tensor<32xi32, #ttg.slice<{dim = 0, parent = #blocked}>> loc(#loc9)
    %12 = tt.splat %arg4 : i32 -> tensor<32xi32, #ttg.slice<{dim = 0, parent = #blocked}>> loc(#loc10)
    %13 = arith.remsi %11, %12 : tensor<32xi32, #ttg.slice<{dim = 0, parent = #blocked}>> loc(#loc10)
    %14 = tt.expand_dims %8 {axis = 1 : i32} : tensor<32xi32, #ttg.slice<{dim = 1, parent = #blocked}>> -> tensor<32x1xi32, #blocked> loc(#loc11)
    %15 = tt.splat %arg5 : i32 -> tensor<32x1xi32, #blocked> loc(#loc12)
    %16 = arith.muli %14, %15 : tensor<32x1xi32, #blocked> loc(#loc12)
    %17 = tt.expand_dims %13 {axis = 0 : i32} : tensor<32xi32, #ttg.slice<{dim = 0, parent = #blocked}>> -> tensor<1x32xi32, #blocked> loc(#loc13)
    %18 = tt.broadcast %16 : tensor<32x1xi32, #blocked> -> tensor<32x32xi32, #blocked> loc(#loc14)
    %19 = tt.broadcast %17 : tensor<1x32xi32, #blocked> -> tensor<32x32xi32, #blocked> loc(#loc14)
    %20 = arith.addi %18, %19 : tensor<32x32xi32, #blocked> loc(#loc14)
    %21 = tt.splat %arg0 : !tt.ptr<f32> -> tensor<32x32x!tt.ptr<f32>, #blocked> loc(#loc15)
    %22 = tt.addptr %21, %20 : tensor<32x32x!tt.ptr<f32>, #blocked>, tensor<32x32xi32, #blocked> loc(#loc15)
    %23 = tt.splat %arg6 : i32 -> tensor<32x1xi32, #blocked> loc(#loc16)
    %24 = arith.muli %14, %23 : tensor<32x1xi32, #blocked> loc(#loc16)
    %25 = tt.broadcast %24 : tensor<32x1xi32, #blocked> -> tensor<32x32xi32, #blocked> loc(#loc17)
    %26 = arith.addi %25, %19 : tensor<32x32xi32, #blocked> loc(#loc17)
    %27 = tt.splat %arg1 : !tt.ptr<f32> -> tensor<32x32x!tt.ptr<f32>, #blocked> loc(#loc18)
    %28 = tt.addptr %27, %26 : tensor<32x32x!tt.ptr<f32>, #blocked>, tensor<32x32xi32, #blocked> loc(#loc18)
    %29 = tt.splat %arg7 : i32 -> tensor<32x1xi32, #blocked> loc(#loc19)
    %30 = arith.muli %14, %29 : tensor<32x1xi32, #blocked> loc(#loc19)
    %31 = tt.broadcast %30 : tensor<32x1xi32, #blocked> -> tensor<32x32xi32, #blocked> loc(#loc20)
    %32 = arith.addi %31, %19 : tensor<32x32xi32, #blocked> loc(#loc20)
    %33 = tt.splat %arg2 : !tt.ptr<f32> -> tensor<32x32x!tt.ptr<f32>, #blocked> loc(#loc21)
    %34 = tt.addptr %33, %32 : tensor<32x32x!tt.ptr<f32>, #blocked>, tensor<32x32xi32, #blocked> loc(#loc21)
    %35 = tt.splat %arg3 : i32 -> tensor<32x1xi32, #blocked> loc(#loc22)
    %36 = arith.cmpi slt, %14, %35 : tensor<32x1xi32, #blocked> loc(#loc22)
    %37 = tt.splat %arg4 : i32 -> tensor<1x32xi32, #blocked> loc(#loc23)
    %38 = arith.cmpi slt, %17, %37 : tensor<1x32xi32, #blocked> loc(#loc23)
    %39 = tt.broadcast %36 : tensor<32x1xi1, #blocked> -> tensor<32x32xi1, #blocked> loc(#loc24)
    %40 = tt.broadcast %38 : tensor<1x32xi1, #blocked> -> tensor<32x32xi1, #blocked> loc(#loc24)
    %41 = arith.andi %39, %40 : tensor<32x32xi1, #blocked> loc(#loc24)
    %42 = tt.load %22, %41, %cst : tensor<32x32x!tt.ptr<f32>, #blocked> loc(#loc25)
    %43 = tt.load %28, %41, %cst : tensor<32x32x!tt.ptr<f32>, #blocked> loc(#loc26)
    %44 = arith.addf %42, %43 : tensor<32x32xf32, #blocked> loc(#loc27)
    tt.store %34, %44, %41 : tensor<32x32x!tt.ptr<f32>, #blocked> loc(#loc28)
    tt.return loc(#loc29)
  } loc(#loc)
} loc(#loc)
#loc1 = loc(unknown)
#loc2 = loc("examples/kernels/binary_ops.py":106:26)
#loc3 = loc("examples/kernels/binary_ops.py":107:26)
#loc4 = loc("examples/kernels/binary_ops.py":108:22)
#loc5 = loc("examples/kernels/binary_ops.py":108:50)
#loc6 = loc("examples/kernels/binary_ops.py":108:37)
#loc7 = loc("examples/kernels/binary_ops.py":108:67)
#loc8 = loc("examples/kernels/binary_ops.py":109:22)
#loc9 = loc("examples/kernels/binary_ops.py":109:37)
#loc10 = loc("examples/kernels/binary_ops.py":109:67)
#loc11 = loc("examples/kernels/binary_ops.py":110:29)
#loc12 = loc("examples/kernels/binary_ops.py":110:40)
#loc13 = loc("examples/kernels/binary_ops.py":110:59)
#loc14 = loc("examples/kernels/binary_ops.py":110:52)
#loc15 = loc("examples/kernels/binary_ops.py":110:22)
#loc16 = loc("examples/kernels/binary_ops.py":111:40)
#loc17 = loc("examples/kernels/binary_ops.py":111:52)
#loc18 = loc("examples/kernels/binary_ops.py":111:22)
#loc19 = loc("examples/kernels/binary_ops.py":112:40)
#loc20 = loc("examples/kernels/binary_ops.py":112:52)
#loc21 = loc("examples/kernels/binary_ops.py":112:22)
#loc22 = loc("examples/kernels/binary_ops.py":114:31)
#loc23 = loc("examples/kernels/binary_ops.py":114:55)
#loc24 = loc("examples/kernels/binary_ops.py":114:37)
#loc25 = loc("examples/kernels/binary_ops.py":116:16)
#loc26 = loc("examples/kernels/binary_ops.py":117:16)
#loc27 = loc("examples/kernels/binary_ops.py":118:12)
#loc28 = loc("examples/kernels/binary_ops.py":119:21)
#loc29 = loc("examples/kernels/binary_ops.py":119:4)


// -----// IR Dump Before TritonGPURemoveLayoutConversions (tritongpu-remove-layout-conversions) ('builtin.module' operation) //----- //
#blocked = #ttg.blocked<{sizePerThread = [1, 4], threadsPerWarp = [4, 8], warpsPerCTA = [4, 1], order = [1, 0]}>
#loc = loc("examples/kernels/binary_ops.py":97:0)
module attributes {"ttg.num-ctas" = 1 : i32, "ttg.num-warps" = 4 : i32, ttg.target = "cuda:89", "ttg.threads-per-warp" = 32 : i32} {
  tt.func public @add_2d_kernel(%arg0: !tt.ptr<f32> {tt.divisibility = 16 : i32} loc("examples/kernels/binary_ops.py":97:0), %arg1: !tt.ptr<f32> {tt.divisibility = 16 : i32} loc("examples/kernels/binary_ops.py":97:0), %arg2: !tt.ptr<f32> {tt.divisibility = 16 : i32} loc("examples/kernels/binary_ops.py":97:0), %arg3: i32 {tt.divisibility = 16 : i32} loc("examples/kernels/binary_ops.py":97:0), %arg4: i32 {tt.divisibility = 16 : i32} loc("examples/kernels/binary_ops.py":97:0), %arg5: i32 {tt.divisibility = 16 : i32} loc("examples/kernels/binary_ops.py":97:0), %arg6: i32 {tt.divisibility = 16 : i32} loc("examples/kernels/binary_ops.py":97:0), %arg7: i32 {tt.divisibility = 16 : i32} loc("examples/kernels/binary_ops.py":97:0)) attributes {noinline = false} {
    %cst = arith.constant dense<0.000000e+00> : tensor<32x32xf32, #blocked> loc(#loc1)
    %c32_i32 = arith.constant 32 : i32 loc(#loc1)
    %0 = tt.get_program_id x : i32 loc(#loc2)
    %1 = tt.get_program_id y : i32 loc(#loc3)
    %2 = arith.muli %0, %c32_i32 : i32 loc(#loc4)
    %3 = tt.make_range {end = 32 : i32, start = 0 : i32} : tensor<32xi32, #ttg.slice<{dim = 1, parent = #blocked}>> loc(#loc5)
    %4 = tt.make_range {end = 32 : i32, start = 0 : i32} : tensor<32xi32, #ttg.slice<{dim = 0, parent = #blocked}>> loc(#loc5)
    %5 = tt.splat %2 : i32 -> tensor<32xi32, #ttg.slice<{dim = 1, parent = #blocked}>> loc(#loc6)
    %6 = arith.addi %5, %3 : tensor<32xi32, #ttg.slice<{dim = 1, parent = #blocked}>> loc(#loc6)
    %7 = tt.splat %arg3 : i32 -> tensor<32xi32, #ttg.slice<{dim = 1, parent = #blocked}>> loc(#loc7)
    %8 = arith.remsi %6, %7 : tensor<32xi32, #ttg.slice<{dim = 1, parent = #blocked}>> loc(#loc7)
    %9 = arith.muli %1, %c32_i32 : i32 loc(#loc8)
    %10 = tt.splat %9 : i32 -> tensor<32xi32, #ttg.slice<{dim = 0, parent = #blocked}>> loc(#loc9)
    %11 = arith.addi %10, %4 : tensor<32xi32, #ttg.slice<{dim = 0, parent = #blocked}>> loc(#loc9)
    %12 = tt.splat %arg4 : i32 -> tensor<32xi32, #ttg.slice<{dim = 0, parent = #blocked}>> loc(#loc10)
    %13 = arith.remsi %11, %12 : tensor<32xi32, #ttg.slice<{dim = 0, parent = #blocked}>> loc(#loc10)
    %14 = tt.expand_dims %8 {axis = 1 : i32} : tensor<32xi32, #ttg.slice<{dim = 1, parent = #blocked}>> -> tensor<32x1xi32, #blocked> loc(#loc11)
    %15 = tt.splat %arg5 : i32 -> tensor<32x1xi32, #blocked> loc(#loc12)
    %16 = arith.muli %14, %15 : tensor<32x1xi32, #blocked> loc(#loc12)
    %17 = tt.expand_dims %13 {axis = 0 : i32} : tensor<32xi32, #ttg.slice<{dim = 0, parent = #blocked}>> -> tensor<1x32xi32, #blocked> loc(#loc13)
    %18 = tt.broadcast %16 : tensor<32x1xi32, #blocked> -> tensor<32x32xi32, #blocked> loc(#loc14)
    %19 = tt.broadcast %17 : tensor<1x32xi32, #blocked> -> tensor<32x32xi32, #blocked> loc(#loc14)
    %20 = arith.addi %18, %19 : tensor<32x32xi32, #blocked> loc(#loc14)
    %21 = tt.splat %arg0 : !tt.ptr<f32> -> tensor<32x32x!tt.ptr<f32>, #blocked> loc(#loc15)
    %22 = tt.addptr %21, %20 : tensor<32x32x!tt.ptr<f32>, #blocked>, tensor<32x32xi32, #blocked> loc(#loc15)
    %23 = tt.splat %arg6 : i32 -> tensor<32x1xi32, #blocked> loc(#loc16)
    %24 = arith.muli %14, %23 : tensor<32x1xi32, #blocked> loc(#loc16)
    %25 = tt.broadcast %24 : tensor<32x1xi32, #blocked> -> tensor<32x32xi32, #blocked> loc(#loc17)
    %26 = arith.addi %25, %19 : tensor<32x32xi32, #blocked> loc(#loc17)
    %27 = tt.splat %arg1 : !tt.ptr<f32> -> tensor<32x32x!tt.ptr<f32>, #blocked> loc(#loc18)
    %28 = tt.addptr %27, %26 : tensor<32x32x!tt.ptr<f32>, #blocked>, tensor<32x32xi32, #blocked> loc(#loc18)
    %29 = tt.splat %arg7 : i32 -> tensor<32x1xi32, #blocked> loc(#loc19)
    %30 = arith.muli %14, %29 : tensor<32x1xi32, #blocked> loc(#loc19)
    %31 = tt.broadcast %30 : tensor<32x1xi32, #blocked> -> tensor<32x32xi32, #blocked> loc(#loc20)
    %32 = arith.addi %31, %19 : tensor<32x32xi32, #blocked> loc(#loc20)
    %33 = tt.splat %arg2 : !tt.ptr<f32> -> tensor<32x32x!tt.ptr<f32>, #blocked> loc(#loc21)
    %34 = tt.addptr %33, %32 : tensor<32x32x!tt.ptr<f32>, #blocked>, tensor<32x32xi32, #blocked> loc(#loc21)
    %35 = tt.splat %arg3 : i32 -> tensor<32x1xi32, #blocked> loc(#loc22)
    %36 = arith.cmpi slt, %14, %35 : tensor<32x1xi32, #blocked> loc(#loc22)
    %37 = tt.splat %arg4 : i32 -> tensor<1x32xi32, #blocked> loc(#loc23)
    %38 = arith.cmpi slt, %17, %37 : tensor<1x32xi32, #blocked> loc(#loc23)
    %39 = tt.broadcast %36 : tensor<32x1xi1, #blocked> -> tensor<32x32xi1, #blocked> loc(#loc24)
    %40 = tt.broadcast %38 : tensor<1x32xi1, #blocked> -> tensor<32x32xi1, #blocked> loc(#loc24)
    %41 = arith.andi %39, %40 : tensor<32x32xi1, #blocked> loc(#loc24)
    %42 = tt.load %22, %41, %cst : tensor<32x32x!tt.ptr<f32>, #blocked> loc(#loc25)
    %43 = tt.load %28, %41, %cst : tensor<32x32x!tt.ptr<f32>, #blocked> loc(#loc26)
    %44 = arith.addf %42, %43 : tensor<32x32xf32, #blocked> loc(#loc27)
    tt.store %34, %44, %41 : tensor<32x32x!tt.ptr<f32>, #blocked> loc(#loc28)
    tt.return loc(#loc29)
  } loc(#loc)
} loc(#loc)
#loc1 = loc(unknown)
#loc2 = loc("examples/kernels/binary_ops.py":106:26)
#loc3 = loc("examples/kernels/binary_ops.py":107:26)
#loc4 = loc("examples/kernels/binary_ops.py":108:22)
#loc5 = loc("examples/kernels/binary_ops.py":108:50)
#loc6 = loc("examples/kernels/binary_ops.py":108:37)
#loc7 = loc("examples/kernels/binary_ops.py":108:67)
#loc8 = loc("examples/kernels/binary_ops.py":109:22)
#loc9 = loc("examples/kernels/binary_ops.py":109:37)
#loc10 = loc("examples/kernels/binary_ops.py":109:67)
#loc11 = loc("examples/kernels/binary_ops.py":110:29)
#loc12 = loc("examples/kernels/binary_ops.py":110:40)
#loc13 = loc("examples/kernels/binary_ops.py":110:59)
#loc14 = loc("examples/kernels/binary_ops.py":110:52)
#loc15 = loc("examples/kernels/binary_ops.py":110:22)
#loc16 = loc("examples/kernels/binary_ops.py":111:40)
#loc17 = loc("examples/kernels/binary_ops.py":111:52)
#loc18 = loc("examples/kernels/binary_ops.py":111:22)
#loc19 = loc("examples/kernels/binary_ops.py":112:40)
#loc20 = loc("examples/kernels/binary_ops.py":112:52)
#loc21 = loc("examples/kernels/binary_ops.py":112:22)
#loc22 = loc("examples/kernels/binary_ops.py":114:31)
#loc23 = loc("examples/kernels/binary_ops.py":114:55)
#loc24 = loc("examples/kernels/binary_ops.py":114:37)
#loc25 = loc("examples/kernels/binary_ops.py":116:16)
#loc26 = loc("examples/kernels/binary_ops.py":117:16)
#loc27 = loc("examples/kernels/binary_ops.py":118:12)
#loc28 = loc("examples/kernels/binary_ops.py":119:21)
#loc29 = loc("examples/kernels/binary_ops.py":119:4)


// -----// IR Dump Before TritonGPUOptimizeDotOperands (tritongpu-optimize-dot-operands) ('builtin.module' operation) //----- //
#blocked = #ttg.blocked<{sizePerThread = [1, 4], threadsPerWarp = [4, 8], warpsPerCTA = [4, 1], order = [1, 0]}>
#loc = loc("examples/kernels/binary_ops.py":97:0)
module attributes {"ttg.num-ctas" = 1 : i32, "ttg.num-warps" = 4 : i32, ttg.target = "cuda:89", "ttg.threads-per-warp" = 32 : i32} {
  tt.func public @add_2d_kernel(%arg0: !tt.ptr<f32> {tt.divisibility = 16 : i32} loc("examples/kernels/binary_ops.py":97:0), %arg1: !tt.ptr<f32> {tt.divisibility = 16 : i32} loc("examples/kernels/binary_ops.py":97:0), %arg2: !tt.ptr<f32> {tt.divisibility = 16 : i32} loc("examples/kernels/binary_ops.py":97:0), %arg3: i32 {tt.divisibility = 16 : i32} loc("examples/kernels/binary_ops.py":97:0), %arg4: i32 {tt.divisibility = 16 : i32} loc("examples/kernels/binary_ops.py":97:0), %arg5: i32 {tt.divisibility = 16 : i32} loc("examples/kernels/binary_ops.py":97:0), %arg6: i32 {tt.divisibility = 16 : i32} loc("examples/kernels/binary_ops.py":97:0), %arg7: i32 {tt.divisibility = 16 : i32} loc("examples/kernels/binary_ops.py":97:0)) attributes {noinline = false} {
    %cst = arith.constant dense<0.000000e+00> : tensor<32x32xf32, #blocked> loc(#loc1)
    %c32_i32 = arith.constant 32 : i32 loc(#loc1)
    %0 = tt.get_program_id x : i32 loc(#loc2)
    %1 = tt.get_program_id y : i32 loc(#loc3)
    %2 = arith.muli %0, %c32_i32 : i32 loc(#loc4)
    %3 = tt.make_range {end = 32 : i32, start = 0 : i32} : tensor<32xi32, #ttg.slice<{dim = 1, parent = #blocked}>> loc(#loc5)
    %4 = tt.make_range {end = 32 : i32, start = 0 : i32} : tensor<32xi32, #ttg.slice<{dim = 0, parent = #blocked}>> loc(#loc5)
    %5 = tt.splat %2 : i32 -> tensor<32xi32, #ttg.slice<{dim = 1, parent = #blocked}>> loc(#loc6)
    %6 = arith.addi %5, %3 : tensor<32xi32, #ttg.slice<{dim = 1, parent = #blocked}>> loc(#loc6)
    %7 = tt.splat %arg3 : i32 -> tensor<32xi32, #ttg.slice<{dim = 1, parent = #blocked}>> loc(#loc7)
    %8 = arith.remsi %6, %7 : tensor<32xi32, #ttg.slice<{dim = 1, parent = #blocked}>> loc(#loc7)
    %9 = arith.muli %1, %c32_i32 : i32 loc(#loc8)
    %10 = tt.splat %9 : i32 -> tensor<32xi32, #ttg.slice<{dim = 0, parent = #blocked}>> loc(#loc9)
    %11 = arith.addi %10, %4 : tensor<32xi32, #ttg.slice<{dim = 0, parent = #blocked}>> loc(#loc9)
    %12 = tt.splat %arg4 : i32 -> tensor<32xi32, #ttg.slice<{dim = 0, parent = #blocked}>> loc(#loc10)
    %13 = arith.remsi %11, %12 : tensor<32xi32, #ttg.slice<{dim = 0, parent = #blocked}>> loc(#loc10)
    %14 = tt.expand_dims %8 {axis = 1 : i32} : tensor<32xi32, #ttg.slice<{dim = 1, parent = #blocked}>> -> tensor<32x1xi32, #blocked> loc(#loc11)
    %15 = tt.splat %arg5 : i32 -> tensor<32x1xi32, #blocked> loc(#loc12)
    %16 = arith.muli %14, %15 : tensor<32x1xi32, #blocked> loc(#loc12)
    %17 = tt.expand_dims %13 {axis = 0 : i32} : tensor<32xi32, #ttg.slice<{dim = 0, parent = #blocked}>> -> tensor<1x32xi32, #blocked> loc(#loc13)
    %18 = tt.broadcast %16 : tensor<32x1xi32, #blocked> -> tensor<32x32xi32, #blocked> loc(#loc14)
    %19 = tt.broadcast %17 : tensor<1x32xi32, #blocked> -> tensor<32x32xi32, #blocked> loc(#loc14)
    %20 = arith.addi %18, %19 : tensor<32x32xi32, #blocked> loc(#loc14)
    %21 = tt.splat %arg0 : !tt.ptr<f32> -> tensor<32x32x!tt.ptr<f32>, #blocked> loc(#loc15)
    %22 = tt.addptr %21, %20 : tensor<32x32x!tt.ptr<f32>, #blocked>, tensor<32x32xi32, #blocked> loc(#loc15)
    %23 = tt.splat %arg6 : i32 -> tensor<32x1xi32, #blocked> loc(#loc16)
    %24 = arith.muli %14, %23 : tensor<32x1xi32, #blocked> loc(#loc16)
    %25 = tt.broadcast %24 : tensor<32x1xi32, #blocked> -> tensor<32x32xi32, #blocked> loc(#loc17)
    %26 = arith.addi %25, %19 : tensor<32x32xi32, #blocked> loc(#loc17)
    %27 = tt.splat %arg1 : !tt.ptr<f32> -> tensor<32x32x!tt.ptr<f32>, #blocked> loc(#loc18)
    %28 = tt.addptr %27, %26 : tensor<32x32x!tt.ptr<f32>, #blocked>, tensor<32x32xi32, #blocked> loc(#loc18)
    %29 = tt.splat %arg7 : i32 -> tensor<32x1xi32, #blocked> loc(#loc19)
    %30 = arith.muli %14, %29 : tensor<32x1xi32, #blocked> loc(#loc19)
    %31 = tt.broadcast %30 : tensor<32x1xi32, #blocked> -> tensor<32x32xi32, #blocked> loc(#loc20)
    %32 = arith.addi %31, %19 : tensor<32x32xi32, #blocked> loc(#loc20)
    %33 = tt.splat %arg2 : !tt.ptr<f32> -> tensor<32x32x!tt.ptr<f32>, #blocked> loc(#loc21)
    %34 = tt.addptr %33, %32 : tensor<32x32x!tt.ptr<f32>, #blocked>, tensor<32x32xi32, #blocked> loc(#loc21)
    %35 = tt.splat %arg3 : i32 -> tensor<32x1xi32, #blocked> loc(#loc22)
    %36 = arith.cmpi slt, %14, %35 : tensor<32x1xi32, #blocked> loc(#loc22)
    %37 = tt.splat %arg4 : i32 -> tensor<1x32xi32, #blocked> loc(#loc23)
    %38 = arith.cmpi slt, %17, %37 : tensor<1x32xi32, #blocked> loc(#loc23)
    %39 = tt.broadcast %36 : tensor<32x1xi1, #blocked> -> tensor<32x32xi1, #blocked> loc(#loc24)
    %40 = tt.broadcast %38 : tensor<1x32xi1, #blocked> -> tensor<32x32xi1, #blocked> loc(#loc24)
    %41 = arith.andi %39, %40 : tensor<32x32xi1, #blocked> loc(#loc24)
    %42 = tt.load %22, %41, %cst : tensor<32x32x!tt.ptr<f32>, #blocked> loc(#loc25)
    %43 = tt.load %28, %41, %cst : tensor<32x32x!tt.ptr<f32>, #blocked> loc(#loc26)
    %44 = arith.addf %42, %43 : tensor<32x32xf32, #blocked> loc(#loc27)
    tt.store %34, %44, %41 : tensor<32x32x!tt.ptr<f32>, #blocked> loc(#loc28)
    tt.return loc(#loc29)
  } loc(#loc)
} loc(#loc)
#loc1 = loc(unknown)
#loc2 = loc("examples/kernels/binary_ops.py":106:26)
#loc3 = loc("examples/kernels/binary_ops.py":107:26)
#loc4 = loc("examples/kernels/binary_ops.py":108:22)
#loc5 = loc("examples/kernels/binary_ops.py":108:50)
#loc6 = loc("examples/kernels/binary_ops.py":108:37)
#loc7 = loc("examples/kernels/binary_ops.py":108:67)
#loc8 = loc("examples/kernels/binary_ops.py":109:22)
#loc9 = loc("examples/kernels/binary_ops.py":109:37)
#loc10 = loc("examples/kernels/binary_ops.py":109:67)
#loc11 = loc("examples/kernels/binary_ops.py":110:29)
#loc12 = loc("examples/kernels/binary_ops.py":110:40)
#loc13 = loc("examples/kernels/binary_ops.py":110:59)
#loc14 = loc("examples/kernels/binary_ops.py":110:52)
#loc15 = loc("examples/kernels/binary_ops.py":110:22)
#loc16 = loc("examples/kernels/binary_ops.py":111:40)
#loc17 = loc("examples/kernels/binary_ops.py":111:52)
#loc18 = loc("examples/kernels/binary_ops.py":111:22)
#loc19 = loc("examples/kernels/binary_ops.py":112:40)
#loc20 = loc("examples/kernels/binary_ops.py":112:52)
#loc21 = loc("examples/kernels/binary_ops.py":112:22)
#loc22 = loc("examples/kernels/binary_ops.py":114:31)
#loc23 = loc("examples/kernels/binary_ops.py":114:55)
#loc24 = loc("examples/kernels/binary_ops.py":114:37)
#loc25 = loc("examples/kernels/binary_ops.py":116:16)
#loc26 = loc("examples/kernels/binary_ops.py":117:16)
#loc27 = loc("examples/kernels/binary_ops.py":118:12)
#loc28 = loc("examples/kernels/binary_ops.py":119:21)
#loc29 = loc("examples/kernels/binary_ops.py":119:4)


…
    %99 = llvm.bitcast %98 : i32 to vector<1xf32> loc(#loc23)
    %100 = llvm.extractvalue %95[2] : !llvm.struct<(i32, i32, i32, i32)>  loc(#loc23)
    %101 = llvm.bitcast %100 : i32 to vector<1xf32> loc(#loc23)
    %102 = llvm.extractvalue %95[3] : !llvm.struct<(i32, i32, i32, i32)>  loc(#loc23)
    %103 = llvm.bitcast %102 : i32 to vector<1xf32> loc(#loc23)
    %104 = llvm.extractelement %97[%7 : i32] : vector<1xf32> loc(#loc23)
    %105 = llvm.extractelement %99[%7 : i32] : vector<1xf32> loc(#loc23)
    %106 = llvm.extractelement %101[%7 : i32] : vector<1xf32> loc(#loc23)
    %107 = llvm.extractelement %103[%7 : i32] : vector<1xf32> loc(#loc23)
    %108 = llvm.inline_asm has_side_effects asm_dialect = att operand_attrs = [] "mov.u32 $0, $4;\0A\09mov.u32 $1, $5;\0A\09mov.u32 $2, $6;\0A\09mov.u32 $3, $7;\0A\09@$9 ld.global.v4.b32 { $0, $1, $2, $3 }, [ $8 + 0 ];", "=r,=r,=r,=r,r,r,r,r,l,b" %81, %81, %81, %81, %67, %78 : (i32, i32, i32, i32, !llvm.ptr<1>, i1) -> !llvm.struct<(i32, i32, i32, i32)> loc(#loc24)
    %109 = llvm.extractvalue %108[0] : !llvm.struct<(i32, i32, i32, i32)>  loc(#loc24)
    %110 = llvm.bitcast %109 : i32 to vector<1xf32> loc(#loc24)
    %111 = llvm.extractvalue %108[1] : !llvm.struct<(i32, i32, i32, i32)>  loc(#loc24)
    %112 = llvm.bitcast %111 : i32 to vector<1xf32> loc(#loc24)
    %113 = llvm.extractvalue %108[2] : !llvm.struct<(i32, i32, i32, i32)>  loc(#loc24)
    %114 = llvm.bitcast %113 : i32 to vector<1xf32> loc(#loc24)
    %115 = llvm.extractvalue %108[3] : !llvm.struct<(i32, i32, i32, i32)>  loc(#loc24)
    %116 = llvm.bitcast %115 : i32 to vector<1xf32> loc(#loc24)
    %117 = llvm.extractelement %110[%7 : i32] : vector<1xf32> loc(#loc24)
    %118 = llvm.extractelement %112[%7 : i32] : vector<1xf32> loc(#loc24)
    %119 = llvm.extractelement %114[%7 : i32] : vector<1xf32> loc(#loc24)
    %120 = llvm.extractelement %116[%7 : i32] : vector<1xf32> loc(#loc24)
    %121 = llvm.inline_asm has_side_effects asm_dialect = att operand_attrs = [] "mov.u32 $0, $4;\0A\09mov.u32 $1, $5;\0A\09mov.u32 $2, $6;\0A\09mov.u32 $3, $7;\0A\09@$9 ld.global.v4.b32 { $0, $1, $2, $3 }, [ $8 + 0 ];", "=r,=r,=r,=r,r,r,r,r,l,b" %81, %81, %81, %81, %68, %79 : (i32, i32, i32, i32, !llvm.ptr<1>, i1) -> !llvm.struct<(i32, i32, i32, i32)> loc(#loc24)
    %122 = llvm.extractvalue %121[0] : !llvm.struct<(i32, i32, i32, i32)>  loc(#loc24)
    %123 = llvm.bitcast %122 : i32 to vector<1xf32> loc(#loc24)
    %124 = llvm.extractvalue %121[1] : !llvm.struct<(i32, i32, i32, i32)>  loc(#loc24)
    %125 = llvm.bitcast %124 : i32 to vector<1xf32> loc(#loc24)
    %126 = llvm.extractvalue %121[2] : !llvm.struct<(i32, i32, i32, i32)>  loc(#loc24)
    %127 = llvm.bitcast %126 : i32 to vector<1xf32> loc(#loc24)
    %128 = llvm.extractvalue %121[3] : !llvm.struct<(i32, i32, i32, i32)>  loc(#loc24)
    %129 = llvm.bitcast %128 : i32 to vector<1xf32> loc(#loc24)
    %130 = llvm.extractelement %123[%7 : i32] : vector<1xf32> loc(#loc24)
    %131 = llvm.extractelement %125[%7 : i32] : vector<1xf32> loc(#loc24)
    %132 = llvm.extractelement %127[%7 : i32] : vector<1xf32> loc(#loc24)
    %133 = llvm.extractelement %129[%7 : i32] : vector<1xf32> loc(#loc24)
    %134 = llvm.fadd %91, %117 : f32 loc(#loc25)
    %135 = llvm.fadd %92, %118 : f32 loc(#loc25)
    %136 = llvm.fadd %93, %119 : f32 loc(#loc25)
    %137 = llvm.fadd %94, %120 : f32 loc(#loc25)
    %138 = llvm.fadd %104, %130 : f32 loc(#loc25)
    %139 = llvm.fadd %105, %131 : f32 loc(#loc25)
    %140 = llvm.fadd %106, %132 : f32 loc(#loc25)
    %141 = llvm.fadd %107, %133 : f32 loc(#loc25)
    %142 = llvm.insertelement %134, %0[%6 : i32] : vector<1xf32> loc(#loc26)
    %143 = llvm.bitcast %142 : vector<1xf32> to i32 loc(#loc26)
    %144 = llvm.insertelement %135, %0[%6 : i32] : vector<1xf32> loc(#loc26)
    %145 = llvm.bitcast %144 : vector<1xf32> to i32 loc(#loc26)
    %146 = llvm.insertelement %136, %0[%6 : i32] : vector<1xf32> loc(#loc26)
    %147 = llvm.bitcast %146 : vector<1xf32> to i32 loc(#loc26)
    %148 = llvm.insertelement %137, %0[%6 : i32] : vector<1xf32> loc(#loc26)
    %149 = llvm.bitcast %148 : vector<1xf32> to i32 loc(#loc26)
    %150 = llvm.inline_asm has_side_effects asm_dialect = att operand_attrs = [] "@$5 st.global.v4.b32 [ $4 + 0 ], { $0, $1, $2, $3 };", "r,r,r,r,l,b" %143, %145, %147, %149, %73, %78 : (i32, i32, i32, i32, !llvm.ptr<1>, i1) -> !llvm.void loc(#loc26)
    %151 = llvm.insertelement %138, %0[%6 : i32] : vector<1xf32> loc(#loc26)
    %152 = llvm.bitcast %151 : vector<1xf32> to i32 loc(#loc26)
    %153 = llvm.insertelement %139, %0[%6 : i32] : vector<1xf32> loc(#loc26)
    %154 = llvm.bitcast %153 : vector<1xf32> to i32 loc(#loc26)
    %155 = llvm.insertelement %140, %0[%6 : i32] : vector<1xf32> loc(#loc26)
    %156 = llvm.bitcast %155 : vector<1xf32> to i32 loc(#loc26)
    %157 = llvm.insertelement %141, %0[%6 : i32] : vector<1xf32> loc(#loc26)
    %158 = llvm.bitcast %157 : vector<1xf32> to i32 loc(#loc26)
    %159 = llvm.inline_asm has_side_effects asm_dialect = att operand_attrs = [] "@$5 st.global.v4.b32 [ $4 + 0 ], { $0, $1, $2, $3 };", "r,r,r,r,l,b" %152, %154, %156, %158, %74, %79 : (i32, i32, i32, i32, !llvm.ptr<1>, i1) -> !llvm.void loc(#loc26)
    llvm.return loc(#loc27)
  } loc(#loc)
} loc(#loc)
#loc1 = loc(unknown)
#loc2 = loc("examples/kernels/binary_ops.py":106:26)
#loc3 = loc("examples/kernels/binary_ops.py":107:26)
#loc4 = loc("examples/kernels/binary_ops.py":108:22)
#loc5 = loc("examples/kernels/binary_ops.py":108:50)
#loc6 = loc("examples/kernels/binary_ops.py":108:37)
#loc7 = loc("examples/kernels/binary_ops.py":108:67)
#loc8 = loc("examples/kernels/binary_ops.py":109:22)
#loc9 = loc("examples/kernels/binary_ops.py":109:37)
#loc10 = loc("examples/kernels/binary_ops.py":109:67)
#loc11 = loc("examples/kernels/binary_ops.py":110:40)
#loc12 = loc("examples/kernels/binary_ops.py":110:52)
#loc13 = loc("examples/kernels/binary_ops.py":110:22)
#loc14 = loc("examples/kernels/binary_ops.py":111:40)
#loc15 = loc("examples/kernels/binary_ops.py":111:52)
#loc16 = loc("examples/kernels/binary_ops.py":111:22)
#loc17 = loc("examples/kernels/binary_ops.py":112:40)
#loc18 = loc("examples/kernels/binary_ops.py":112:52)
#loc19 = loc("examples/kernels/binary_ops.py":112:22)
#loc20 = loc("examples/kernels/binary_ops.py":114:31)
#loc21 = loc("examples/kernels/binary_ops.py":114:55)
#loc22 = loc("examples/kernels/binary_ops.py":114:37)
#loc23 = loc("examples/kernels/binary_ops.py":116:16)
#loc24 = loc("examples/kernels/binary_ops.py":117:16)
#loc25 = loc("examples/kernels/binary_ops.py":118:12)
#loc26 = loc("examples/kernels/binary_ops.py":119:21)
#loc27 = loc("examples/kernels/binary_ops.py":119:4)


// -----// IR Dump Before CSE (cse) ('builtin.module' operation) //----- //
#loc = loc("examples/kernels/binary_ops.py":97:0)
module attributes {ttg.global_scratch_memory_alignment = 1 : i32, ttg.global_scratch_memory_size = 0 : i32, "ttg.num-ctas" = 1 : i32, "ttg.num-warps" = 4 : i32, ttg.shared = 0 : i32, ttg.target = "cuda:89", ttg.tensor_memory_size = 0 : i32, "ttg.threads-per-warp" = 32 : i32, "ttg.total-num-warps" = 4 : i32} {
  llvm.mlir.global external @global_smem() {addr_space = 3 : i32, alignment = 16 : i64} : !llvm.array<0 x i8> loc(#loc)
  llvm.func @add_2d_kernel(%arg0: !llvm.ptr<1> {tt.divisibility = 16 : i32} loc("examples/kernels/binary_ops.py":97:0), %arg1: !llvm.ptr<1> {tt.divisibility = 16 : i32} loc("examples/kernels/binary_ops.py":97:0), %arg2: !llvm.ptr<1> {tt.divisibility = 16 : i32} loc("examples/kernels/binary_ops.py":97:0), %arg3: i32 {tt.divisibility = 16 : i32} loc("examples/kernels/binary_ops.py":97:0), %arg4: i32 {tt.divisibility = 16 : i32} loc("examples/kernels/binary_ops.py":97:0), %arg5: i32 {tt.divisibility = 16 : i32} loc("examples/kernels/binary_ops.py":97:0), %arg6: i32 {tt.divisibility = 16 : i32} loc("examples/kernels/binary_ops.py":97:0), %arg7: i32 {tt.divisibility = 16 : i32} loc("examples/kernels/binary_ops.py":97:0), %arg8: !llvm.ptr<1> loc("examples/kernels/binary_ops.py":97:0)) attributes {noinline = false, nvvm.kernel = 1 : ui1, nvvm.reqntid = array<i32: 128>, ttg.global_scratch_memory_alignment = 1 : i32, ttg.global_scratch_memory_size = 0 : i32} {
    %0 = llvm.mlir.undef : vector<1xf32> loc(#loc1)
    %1 = llvm.mlir.constant(16 : i32) : i32 loc(#loc1)
    %2 = llvm.mlir.constant(8 : i32) : i32 loc(#loc1)
    %3 = llvm.mlir.constant(4 : i32) : i32 loc(#loc1)
    %4 = llvm.mlir.constant(2 : i32) : i32 loc(#loc1)
    %5 = llvm.mlir.constant(1 : i32) : i32 loc(#loc1)
    %6 = llvm.mlir.constant(0 : i32) : i32 loc(#loc1)
    %7 = llvm.mlir.constant(0 : index) : i32 loc(#loc1)
    %8 = llvm.mlir.constant(32 : i32) : i32 loc(#loc1)
    %9 = llvm.mlir.constant(0.000000e+00 : f32) : f32 loc(#loc1)
    %10 = llvm.call_intrinsic "llvm.nvvm.read.ptx.sreg.ctaid.x"() : () -> i32 loc(#loc2)
    %11 = llvm.call_intrinsic "llvm.nvvm.read.ptx.sreg.ctaid.y"() : () -> i32 loc(#loc3)
    %12 = llvm.mul %10, %8 : i32 loc(#loc4)
    %13 = nvvm.read.ptx.sreg.tid.x : i32 loc(#loc5)
    %14 = llvm.urem %13, %8 : i32 loc(#loc5)
    %15 = llvm.udiv %13, %8 : i32 loc(#loc5)
    %16 = llvm.and %14, %2 : i32 loc(#loc5)
    %17 = llvm.icmp "eq" %16, %6 : i32 loc(#loc5)
    %18 = llvm.select %17, %6, %5 : i1, i32 loc(#loc5)
    %19 = llvm.xor %6, %18 : i32 loc(#loc5)
    %20 = llvm.and %14, %1 : i32 loc(#loc5)
    %21 = llvm.icmp "eq" %20, %6 : i32 loc(#loc5)
    %22 = llvm.select %21, %6, %4 : i1, i32 loc(#loc5)
    %23 = llvm.xor %19, %22 : i32 loc(#loc5)
    %24 = llvm.and %15, %5 : i32 loc(#loc5)
    %25 = llvm.icmp "eq" %24, %6 : i32 loc(#loc5)
    %26 = llvm.select %25, %6, %3 : i1, i32 loc(#loc5)
    %27 = llvm.xor %23, %26 : i32 loc(#loc5)
    %28 = llvm.and %15, %4 : i32 loc(#loc5)
    %29 = llvm.icmp "eq" %28, %6 : i32 loc(#loc5)
    %30 = llvm.select %29, %6, %2 : i1, i32 loc(#loc5)
    %31 = llvm.xor %27, %30 : i32 loc(#loc5)
    %32 = llvm.xor %31, %6 : i32 loc(#loc5)
    %33 = llvm.xor %31, %1 : i32 loc(#loc5)
    %34 = llvm.add %32, %7 : i32 loc(#loc5)
    %35 = llvm.add %33, %7 : i32 loc(#loc5)
    %36 = llvm.and %14, %5 : i32 loc(#loc5)
    %37 = llvm.icmp "eq" %36, %6 : i32 loc(#loc5)
    %38 = llvm.select %37, %6, %3 : i1, i32 loc(#loc5)
    %39 = llvm.xor %6, %38 : i32 loc(#loc5)
    %40 = llvm.and %14, %4 : i32 loc(#loc5)
    %41 = llvm.icmp "eq" %40, %6 : i32 loc(#loc5)
    %42 = llvm.select %41, %6, %2 : i1, i32 loc(#loc5)
    %43 = llvm.xor %39, %42 : i32 loc(#loc5)
    %44 = llvm.and %14, %3 : i32 loc(#loc5)
    %45 = llvm.icmp "eq" %44, %6 : i32 loc(#loc5)
    %46 = llvm.select %45, %6, %1 : i1, i32 loc(#loc5)
    %47 = llvm.xor %43, %46 : i32 loc(#loc5)
    %48 = llvm.xor %47, %6 : i32 loc(#loc5)
    %49 = llvm.add %48, %7 : i32 loc(#loc5)
    %50 = llvm.add %12, %34 : i32 loc(#loc6)
    %51 = llvm.add %12, %35 : i32 loc(#loc6)
    %52 = llvm.srem %50, %arg3 : i32 loc(#loc7)
    %53 = llvm.srem %51, %arg3 : i32 loc(#loc7)
    %54 = llvm.mul %11, %8 : i32 loc(#loc8)
    %55 = llvm.add %54, %49 : i32 loc(#loc9)
    %56 = llvm.srem %55, %arg4 : i32 loc(#loc10)
    %57 = llvm.mul %52, %arg5 : i32 loc(#loc11)
    %58 = llvm.mul %53, %arg5 : i32 loc(#loc11)
    %59 = llvm.add %57, %56 : i32 loc(#loc12)
    %60 = llvm.add %58, %56 : i32 loc(#loc12)
    %61 = llvm.getelementptr %arg0[%59] : (!llvm.ptr<1>, i32) -> !llvm.ptr<1>, f32 loc(#loc13)
    %62 = llvm.getelementptr %arg0[%60] : (!llvm.ptr<1>, i32) -> !llvm.ptr<1>, f32 loc(#loc13)
    %63 = llvm.mul %52, %arg6 : i32 loc(#loc14)
    %64 = llvm.mul %53, %arg6 : i32 loc(#loc14)
    %65 = llvm.add %63, %56 : i32 loc(#loc15)
    %66 = llvm.add %64, %56 : i32 loc(#loc15)
    %67 = llvm.getelementptr %arg1[%65] : (!llvm.ptr<1>, i32) -> !llvm.ptr<1>, f32 loc(#loc16)
    %68 = llvm.getelementptr %arg1[%66] : (!llvm.ptr<1>, i32) -> !llvm.ptr<1>, f32 loc(#loc16)
    %69 = llvm.mul %52, %arg7 : i32 loc(#loc17)
    %70 = llvm.mul %53, %arg7 : i32 loc(#loc17)
    %71 = llvm.add %69, %56 : i32 loc(#loc18)
    %72 = llvm.add %70, %56 : i32 loc(#loc18)
    %73 = llvm.getelementptr %arg2[%71] : (!llvm.ptr<1>, i32) -> !llvm.ptr<1>, f32 loc(#loc19)
    %74 = llvm.getelementptr %arg2[%72] : (!llvm.ptr<1>, i32) -> !llvm.ptr<1>, f32 loc(#loc19)
    %75 = llvm.icmp "slt" %52, %arg3 : i32 loc(#loc20)
    %76 = llvm.icmp "slt" %53, %arg3 : i32 loc(#loc20)
    %77 = llvm.icmp "slt" %56, %arg4 : i32 loc(#loc21)
    %78 = llvm.and %75, %77 : i1 loc(#loc22)
    %79 = llvm.and %76, %77 : i1 loc(#loc22)
    %80 = llvm.insertelement %9, %0[%7 : i32] : vector<1xf32> loc(#loc23)
    %81 = llvm.bitcast %80 : vector<1xf32> to i32 loc(#loc23)
    %82 = llvm.inline_asm has_side_effects asm_dialect = att operand_attrs = [] "mov.u32 $0, $4;\0A\09mov.u32 $1, $5;\0A\09mov.u32 $2, $6;\0A\09mov.u32 $3, $7;\0A\09@$9 ld.global.v4.b32 { $0, $1, $2, $3 }, [ $8 + 0 ];", "=r,=r,=r,=r,r,r,r,r,l,b" %81, %81, %81, %81, %61, %78 : (i32, i32, i32, i32, !llvm.ptr<1>, i1) -> !llvm.struct<(i32, i32, i32, i32)> loc(#loc23)
    %83 = llvm.extractvalue %82[0] : !llvm.struct<(i32, i32, i32, i32)>  loc(#loc23)
    %84 = llvm.bitcast %83 : i32 to vector<1xf32> loc(#loc23)
    %85 = llvm.extractvalue %82[1] : !llvm.struct<(i32, i32, i32, i32)>  loc(#loc23)
    %86 = llvm.bitcast %85 : i32 to vector<1xf32> loc(#loc23)
    %87 = llvm.extractvalue %82[2] : !llvm.struct<(i32, i32, i32, i32)>  loc(#loc23)
    %88 = llvm.bitcast %87 : i32 to vector<1xf32> loc(#loc23)
    %89 = llvm.extractvalue %82[3] : !llvm.struct<(i32, i32, i32, i32)>  loc(#loc23)
    %90 = llvm.bitcast %89 : i32 to vector<1xf32> loc(#loc23)
    %91 = llvm.extractelement %84[%7 : i32] : vector<1xf32> loc(#loc23)
    %92 = llvm.extractelement %86[%7 : i32] : vector<1xf32> loc(#loc23)
    %93 = llvm.extractelement %88[%7 : i32] : vector<1xf32> loc(#loc23)
    %94 = llvm.extractelement %90[%7 : i32] : vector<1xf32> loc(#loc23)
    %95 = llvm.inline_asm has_side_effects asm_dialect = att operand_attrs = [] "mov.u32 $0, $4;\0A\09mov.u32 $1, $5;\0A\09mov.u32 $2, $6;\0A\09mov.u32 $3, $7;\0A\09@$9 ld.global.v4.b32 { $0, $1, $2, $3 }, [ $8 + 0 ];", "=r,=r,=r,=r,r,r,r,r,l,b" %81, %81, %81, %81, %62, %79 : (i32, i32, i32, i32, !llvm.ptr<1>, i1) -> !llvm.struct<(i32, i32, i32, i32)> loc(#loc23)
    %96 = llvm.extractvalue %95[0] : !llvm.struct<(i32, i32, i32, i32)>  loc(#loc23)
    %97 = llvm.bitcast %96 : i32 to vector<1xf32> loc(#loc23)
    %98 = llvm.extractvalue %95[1] : !llvm.struct<(i32, i32, i32, i32)>  loc(#loc23)
    %99 = llvm.bitcast %98 : i32 to vector<1xf32> loc(#loc23)
    %100 = llvm.extractvalue %95[2] : !llvm.struct<(i32, i32, i32, i32)>  loc(#loc23)
    %101 = llvm.bitcast %100 : i32 to vector<1xf32> loc(#loc23)
    %102 = llvm.extractvalue %95[3] : !llvm.struct<(i32, i32, i32, i32)>  loc(#loc23)
    %103 = llvm.bitcast %102 : i32 to vector<1xf32> loc(#loc23)
    %104 = llvm.extractelement %97[%7 : i32] : vector<1xf32> loc(#loc23)
    %105 = llvm.extractelement %99[%7 : i32] : vector<1xf32> loc(#loc23)
    %106 = llvm.extractelement %101[%7 : i32] : vector<1xf32> loc(#loc23)
    %107 = llvm.extractelement %103[%7 : i32] : vector<1xf32> loc(#loc23)
    %108 = llvm.inline_asm has_side_effects asm_dialect = att operand_attrs = [] "mov.u32 $0, $4;\0A\09mov.u32 $1, $5;\0A\09mov.u32 $2, $6;\0A\09mov.u32 $3, $7;\0A\09@$9 ld.global.v4.b32 { $0, $1, $2, $3 }, [ $8 + 0 ];", "=r,=r,=r,=r,r,r,r,r,l,b" %81, %81, %81, %81, %67, %78 : (i32, i32, i32, i32, !llvm.ptr<1>, i1) -> !llvm.struct<(i32, i32, i32, i32)> loc(#loc24)
    %109 = llvm.extractvalue %108[0] : !llvm.struct<(i32, i32, i32, i32)>  loc(#loc24)
    %110 = llvm.bitcast %109 : i32 to vector<1xf32> loc(#loc24)
    %111 = llvm.extractvalue %108[1] : !llvm.struct<(i32, i32, i32, i32)>  loc(#loc24)
    %112 = llvm.bitcast %111 : i32 to vector<1xf32> loc(#loc24)
    %113 = llvm.extractvalue %108[2] : !llvm.struct<(i32, i32, i32, i32)>  loc(#loc24)
    %114 = llvm.bitcast %113 : i32 to vector<1xf32> loc(#loc24)
    %115 = llvm.extractvalue %108[3] : !llvm.struct<(i32, i32, i32, i32)>  loc(#loc24)
    %116 = llvm.bitcast %115 : i32 to vector<1xf32> loc(#loc24)
    %117 = llvm.extractelement %110[%7 : i32] : vector<1xf32> loc(#loc24)
    %118 = llvm.extractelement %112[%7 : i32] : vector<1xf32> loc(#loc24)
    %119 = llvm.extractelement %114[%7 : i32] : vector<1xf32> loc(#loc24)
    %120 = llvm.extractelement %116[%7 : i32] : vector<1xf32> loc(#loc24)
    %121 = llvm.inline_asm has_side_effects asm_dialect = att operand_attrs = [] "mov.u32 $0, $4;\0A\09mov.u32 $1, $5;\0A\09mov.u32 $2, $6;\0A\09mov.u32 $3, $7;\0A\09@$9 ld.global.v4.b32 { $0, $1, $2, $3 }, [ $8 + 0 ];", "=r,=r,=r,=r,r,r,r,r,l,b" %81, %81, %81, %81, %68, %79 : (i32, i32, i32, i32, !llvm.ptr<1>, i1) -> !llvm.struct<(i32, i32, i32, i32)> loc(#loc24)
    %122 = llvm.extractvalue %121[0] : !llvm.struct<(i32, i32, i32, i32)>  loc(#loc24)
    %123 = llvm.bitcast %122 : i32 to vector<1xf32> loc(#loc24)
    %124 = llvm.extractvalue %121[1] : !llvm.struct<(i32, i32, i32, i32)>  loc(#loc24)
    %125 = llvm.bitcast %124 : i32 to vector<1xf32> loc(#loc24)
    %126 = llvm.extractvalue %121[2] : !llvm.struct<(i32, i32, i32, i32)>  loc(#loc24)
    %127 = llvm.bitcast %126 : i32 to vector<1xf32> loc(#loc24)
    %128 = llvm.extractvalue %121[3] : !llvm.struct<(i32, i32, i32, i32)>  loc(#loc24)
    %129 = llvm.bitcast %128 : i32 to vector<1xf32> loc(#loc24)
    %130 = llvm.extractelement %123[%7 : i32] : vector<1xf32> loc(#loc24)
    %131 = llvm.extractelement %125[%7 : i32] : vector<1xf32> loc(#loc24)
    %132 = llvm.extractelement %127[%7 : i32] : vector<1xf32> loc(#loc24)
    %133 = llvm.extractelement %129[%7 : i32] : vector<1xf32> loc(#loc24)
    %134 = llvm.fadd %91, %117 : f32 loc(#loc25)
    %135 = llvm.fadd %92, %118 : f32 loc(#loc25)
    %136 = llvm.fadd %93, %119 : f32 loc(#loc25)
    %137 = llvm.fadd %94, %120 : f32 loc(#loc25)
    %138 = llvm.fadd %104, %130 : f32 loc(#loc25)
    %139 = llvm.fadd %105, %131 : f32 loc(#loc25)
    %140 = llvm.fadd %106, %132 : f32 loc(#loc25)
    %141 = llvm.fadd %107, %133 : f32 loc(#loc25)
    %142 = llvm.insertelement %134, %0[%6 : i32] : vector<1xf32> loc(#loc26)
    %143 = llvm.bitcast %142 : vector<1xf32> to i32 loc(#loc26)
    %144 = llvm.insertelement %135, %0[%6 : i32] : vector<1xf32> loc(#loc26)
    %145 = llvm.bitcast %144 : vector<1xf32> to i32 loc(#loc26)
    %146 = llvm.insertelement %136, %0[%6 : i32] : vector<1xf32> loc(#loc26)
    %147 = llvm.bitcast %146 : vector<1xf32> to i32 loc(#loc26)
    %148 = llvm.insertelement %137, %0[%6 : i32] : vector<1xf32> loc(#loc26)
    %149 = llvm.bitcast %148 : vector<1xf32> to i32 loc(#loc26)
    %150 = llvm.inline_asm has_side_effects asm_dialect = att operand_attrs = [] "@$5 st.global.v4.b32 [ $4 + 0 ], { $0, $1, $2, $3 };", "r,r,r,r,l,b" %143, %145, %147, %149, %73, %78 : (i32, i32, i32, i32, !llvm.ptr<1>, i1) -> !llvm.void loc(#loc26)
    %151 = llvm.insertelement %138, %0[%6 : i32] : vector<1xf32> loc(#loc26)
    %152 = llvm.bitcast %151 : vector<1xf32> to i32 loc(#loc26)
    %153 = llvm.insertelement %139, %0[%6 : i32] : vector<1xf32> loc(#loc26)
    %154 = llvm.bitcast %153 : vector<1xf32> to i32 loc(#loc26)
    %155 = llvm.insertelement %140, %0[%6 : i32] : vector<1xf32> loc(#loc26)
    %156 = llvm.bitcast %155 : vector<1xf32> to i32 loc(#loc26)
    %157 = llvm.insertelement %141, %0[%6 : i32] : vector<1xf32> loc(#loc26)
    %158 = llvm.bitcast %157 : vector<1xf32> to i32 loc(#loc26)
    %159 = llvm.inline_asm has_side_effects asm_dialect = att operand_attrs = [] "@$5 st.global.v4.b32 [ $4 + 0 ], { $0, $1, $2, $3 };", "r,r,r,r,l,b" %152, %154, %156, %158, %74, %79 : (i32, i32, i32, i32, !llvm.ptr<1>, i1) -> !llvm.void loc(#loc26)
    llvm.return loc(#loc27)
  } loc(#loc)
} loc(#loc)
#loc1 = loc(unknown)
#loc2 = loc("examples/kernels/binary_ops.py":106:26)
#loc3 = loc("examples/kernels/binary_ops.py":107:26)
#loc4 = loc("examples/kernels/binary_ops.py":108:22)
#loc5 = loc("examples/kernels/binary_ops.py":108:50)
#loc6 = loc("examples/kernels/binary_ops.py":108:37)
#loc7 = loc("examples/kernels/binary_ops.py":108:67)
#loc8 = loc("examples/kernels/binary_ops.py":109:22)
#loc9 = loc("examples/kernels/binary_ops.py":109:37)
#loc10 = loc("examples/kernels/binary_ops.py":109:67)
#loc11 = loc("examples/kernels/binary_ops.py":110:40)
#loc12 = loc("examples/kernels/binary_ops.py":110:52)
#loc13 = loc("examples/kernels/binary_ops.py":110:22)
#loc14 = loc("examples/kernels/binary_ops.py":111:40)
#loc15 = loc("examples/kernels/binary_ops.py":111:52)
#loc16 = loc("examples/kernels/binary_ops.py":111:22)
#loc17 = loc("examples/kernels/binary_ops.py":112:40)
#loc18 = loc("examples/kernels/binary_ops.py":112:52)
#loc19 = loc("examples/kernels/binary_ops.py":112:22)
#loc20 = loc("examples/kernels/binary_ops.py":114:31)
#loc21 = loc("examples/kernels/binary_ops.py":114:55)
#loc22 = loc("examples/kernels/binary_ops.py":114:37)
#loc23 = loc("examples/kernels/binary_ops.py":116:16)
#loc24 = loc("examples/kernels/binary_ops.py":117:16)
#loc25 = loc("examples/kernels/binary_ops.py":118:12)
#loc26 = loc("examples/kernels/binary_ops.py":119:21)
#loc27 = loc("examples/kernels/binary_ops.py":119:4)


// -----// IR Dump Before SymbolDCE (symbol-dce) ('builtin.module' operation) //----- //
#loc = loc("examples/kernels/binary_ops.py":97:0)
module attributes {ttg.global_scratch_memory_alignment = 1 : i32, ttg.global_scratch_memory_size = 0 : i32, "ttg.num-ctas" = 1 : i32, "ttg.num-warps" = 4 : i32, ttg.shared = 0 : i32, ttg.target = "cuda:89", ttg.tensor_memory_size = 0 : i32, "ttg.threads-per-warp" = 32 : i32, "ttg.total-num-warps" = 4 : i32} {
  llvm.mlir.global external @global_smem() {addr_space = 3 : i32, alignment = 16 : i64} : !llvm.array<0 x i8> loc(#loc)
  llvm.func @add_2d_kernel(%arg0: !llvm.ptr<1> {tt.divisibility = 16 : i32} loc("examples/kernels/binary_ops.py":97:0), %arg1: !llvm.ptr<1> {tt.divisibility = 16 : i32} loc("examples/kernels/binary_ops.py":97:0), %arg2: !llvm.ptr<1> {tt.divisibility = 16 : i32} loc("examples/kernels/binary_ops.py":97:0), %arg3: i32 {tt.divisibility = 16 : i32} loc("examples/kernels/binary_ops.py":97:0), %arg4: i32 {tt.divisibility = 16 : i32} loc("examples/kernels/binary_ops.py":97:0), %arg5: i32 {tt.divisibility = 16 : i32} loc("examples/kernels/binary_ops.py":97:0), %arg6: i32 {tt.divisibility = 16 : i32} loc("examples/kernels/binary_ops.py":97:0), %arg7: i32 {tt.divisibility = 16 : i32} loc("examples/kernels/binary_ops.py":97:0), %arg8: !llvm.ptr<1> loc("examples/kernels/binary_ops.py":97:0)) attributes {noinline = false, nvvm.kernel = 1 : ui1, nvvm.reqntid = array<i32: 128>, ttg.global_scratch_memory_alignment = 1 : i32, ttg.global_scratch_memory_size = 0 : i32} {
    %0 = llvm.mlir.undef : vector<1xf32> loc(#loc1)
    %1 = llvm.mlir.constant(16 : i32) : i32 loc(#loc1)
    %2 = llvm.mlir.constant(8 : i32) : i32 loc(#loc1)
    %3 = llvm.mlir.constant(4 : i32) : i32 loc(#loc1)
    %4 = llvm.mlir.constant(2 : i32) : i32 loc(#loc1)
    %5 = llvm.mlir.constant(1 : i32) : i32 loc(#loc1)
    %6 = llvm.mlir.constant(0 : i32) : i32 loc(#loc1)
    %7 = llvm.mlir.constant(0 : index) : i32 loc(#loc1)
    %8 = llvm.mlir.constant(32 : i32) : i32 loc(#loc1)
    %9 = llvm.mlir.constant(0.000000e+00 : f32) : f32 loc(#loc1)
    %10 = llvm.call_intrinsic "llvm.nvvm.read.ptx.sreg.ctaid.x"() : () -> i32 loc(#loc2)
    %11 = llvm.call_intrinsic "llvm.nvvm.read.ptx.sreg.ctaid.y"() : () -> i32 loc(#loc3)
    %12 = llvm.mul %10, %8 : i32 loc(#loc4)
    %13 = nvvm.read.ptx.sreg.tid.x : i32 loc(#loc5)
    %14 = llvm.urem %13, %8 : i32 loc(#loc5)
    %15 = llvm.udiv %13, %8 : i32 loc(#loc5)
    %16 = llvm.and %14, %2 : i32 loc(#loc5)
    %17 = llvm.icmp "eq" %16, %6 : i32 loc(#loc5)
    %18 = llvm.select %17, %6, %5 : i1, i32 loc(#loc5)
    %19 = llvm.xor %6, %18 : i32 loc(#loc5)
    %20 = llvm.and %14, %1 : i32 loc(#loc5)
    %21 = llvm.icmp "eq" %20, %6 : i32 loc(#loc5)
    %22 = llvm.select %21, %6, %4 : i1, i32 loc(#loc5)
    %23 = llvm.xor %19, %22 : i32 loc(#loc5)
    %24 = llvm.and %15, %5 : i32 loc(#loc5)
    %25 = llvm.icmp "eq" %24, %6 : i32 loc(#loc5)
    %26 = llvm.select %25, %6, %3 : i1, i32 loc(#loc5)
    %27 = llvm.xor %23, %26 : i32 loc(#loc5)
    %28 = llvm.and %15, %4 : i32 loc(#loc5)
    %29 = llvm.icmp "eq" %28, %6 : i32 loc(#loc5)
    %30 = llvm.select %29, %6, %2 : i1, i32 loc(#loc5)
    %31 = llvm.xor %27, %30 : i32 loc(#loc5)
    %32 = llvm.xor %31, %6 : i32 loc(#loc5)
    %33 = llvm.xor %31, %1 : i32 loc(#loc5)
    %34 = llvm.add %32, %7 : i32 loc(#loc5)
    %35 = llvm.add %33, %7 : i32 loc(#loc5)
    %36 = llvm.and %14, %5 : i32 loc(#loc5)
    %37 = llvm.icmp "eq" %36, %6 : i32 loc(#loc5)
    %38 = llvm.select %37, %6, %3 : i1, i32 loc(#loc5)
    %39 = llvm.xor %6, %38 : i32 loc(#loc5)
    %40 = llvm.and %14, %4 : i32 loc(#loc5)
    %41 = llvm.icmp "eq" %40, %6 : i32 loc(#loc5)
    %42 = llvm.select %41, %6, %2 : i1, i32 loc(#loc5)
    %43 = llvm.xor %39, %42 : i32 loc(#loc5)
    %44 = llvm.and %14, %3 : i32 loc(#loc5)
    %45 = llvm.icmp "eq" %44, %6 : i32 loc(#loc5)
    %46 = llvm.select %45, %6, %1 : i1, i32 loc(#loc5)
    %47 = llvm.xor %43, %46 : i32 loc(#loc5)
    %48 = llvm.xor %47, %6 : i32 loc(#loc5)
    %49 = llvm.add %48, %7 : i32 loc(#loc5)
    %50 = llvm.add %12, %34 : i32 loc(#loc6)
    %51 = llvm.add %12, %35 : i32 loc(#loc6)
    %52 = llvm.srem %50, %arg3 : i32 loc(#loc7)
    %53 = llvm.srem %51, %arg3 : i32 loc(#loc7)
    %54 = llvm.mul %11, %8 : i32 loc(#loc8)
    %55 = llvm.add %54, %49 : i32 loc(#loc9)
    %56 = llvm.srem %55, %arg4 : i32 loc(#loc10)
    %57 = llvm.mul %52, %arg5 : i32 loc(#loc11)
    %58 = llvm.mul %53, %arg5 : i32 loc(#loc11)
    %59 = llvm.add %57, %56 : i32 loc(#loc12)
    %60 = llvm.add %58, %56 : i32 loc(#loc12)
    %61 = llvm.getelementptr %arg0[%59] : (!llvm.ptr<1>, i32) -> !llvm.ptr<1>, f32 loc(#loc13)
    %62 = llvm.getelementptr %arg0[%60] : (!llvm.ptr<1>, i32) -> !llvm.ptr<1>, f32 loc(#loc13)
    %63 = llvm.mul %52, %arg6 : i32 loc(#loc14)
    %64 = llvm.mul %53, %arg6 : i32 loc(#loc14)
    %65 = llvm.add %63, %56 : i32 loc(#loc15)
    %66 = llvm.add %64, %56 : i32 loc(#loc15)
    %67 = llvm.getelementptr %arg1[%65] : (!llvm.ptr<1>, i32) -> !llvm.ptr<1>, f32 loc(#loc16)
    %68 = llvm.getelementptr %arg1[%66] : (!llvm.ptr<1>, i32) -> !llvm.ptr<1>, f32 loc(#loc16)
    %69 = llvm.mul %52, %arg7 : i32 loc(#loc17)
    %70 = llvm.mul %53, %arg7 : i32 loc(#loc17)
    %71 = llvm.add %69, %56 : i32 loc(#loc18)
    %72 = llvm.add %70, %56 : i32 loc(#loc18)
    %73 = llvm.getelementptr %arg2[%71] : (!llvm.ptr<1>, i32) -> !llvm.ptr<1>, f32 loc(#loc19)
    %74 = llvm.getelementptr %arg2[%72] : (!llvm.ptr<1>, i32) -> !llvm.ptr<1>, f32 loc(#loc19)
    %75 = llvm.icmp "slt" %52, %arg3 : i32 loc(#loc20)
    %76 = llvm.icmp "slt" %53, %arg3 : i32 loc(#loc20)
    %77 = llvm.icmp "slt" %56, %arg4 : i32 loc(#loc21)
    %78 = llvm.and %75, %77 : i1 loc(#loc22)
    %79 = llvm.and %76, %77 : i1 loc(#loc22)
    %80 = llvm.insertelement %9, %0[%7 : i32] : vector<1xf32> loc(#loc23)
    %81 = llvm.bitcast %80 : vector<1xf32> to i32 loc(#loc23)
    %82 = llvm.inline_asm has_side_effects asm_dialect = att operand_attrs = [] "mov.u32 $0, $4;\0A\09mov.u32 $1, $5;\0A\09mov.u32 $2, $6;\0A\09mov.u32 $3, $7;\0A\09@$9 ld.global.v4.b32 { $0, $1, $2, $3 }, [ $8 + 0 ];", "=r,=r,=r,=r,r,r,r,r,l,b" %81, %81, %81, %81, %61, %78 : (i32, i32, i32, i32, !llvm.ptr<1>, i1) -> !llvm.struct<(i32, i32, i32, i32)> loc(#loc23)
    %83 = llvm.extractvalue %82[0] : !llvm.struct<(i32, i32, i32, i32)>  loc(#loc23)
    %84 = llvm.bitcast %83 : i32 to vector<1xf32> loc(#loc23)
    %85 = llvm.extractvalue %82[1] : !llvm.struct<(i32, i32, i32, i32)>  loc(#loc23)
    %86 = llvm.bitcast %85 : i32 to vector<1xf32> loc(#loc23)
    %87 = llvm.extractvalue %82[2] : !llvm.struct<(i32, i32, i32, i32)>  loc(#loc23)
    %88 = llvm.bitcast %87 : i32 to vector<1xf32> loc(#loc23)
    %89 = llvm.extractvalue %82[3] : !llvm.struct<(i32, i32, i32, i32)>  loc(#loc23)
    %90 = llvm.bitcast %89 : i32 to vector<1xf32> loc(#loc23)
    %91 = llvm.extractelement %84[%7 : i32] : vector<1xf32> loc(#loc23)
    %92 = llvm.extractelement %86[%7 : i32] : vector<1xf32> loc(#loc23)
    %93 = llvm.extractelement %88[%7 : i32] : vector<1xf32> loc(#loc23)
    %94 = llvm.extractelement %90[%7 : i32] : vector<1xf32> loc(#loc23)
    %95 = llvm.inline_asm has_side_effects asm_dialect = att operand_attrs = [] "mov.u32 $0, $4;\0A\09mov.u32 $1, $5;\0A\09mov.u32 $2, $6;\0A\09mov.u32 $3, $7;\0A\09@$9 ld.global.v4.b32 { $0, $1, $2, $3 }, [ $8 + 0 ];", "=r,=r,=r,=r,r,r,r,r,l,b" %81, %81, %81, %81, %62, %79 : (i32, i32, i32, i32, !llvm.ptr<1>, i1) -> !llvm.struct<(i32, i32, i32, i32)> loc(#loc23)
    %96 = llvm.extractvalue %95[0] : !llvm.struct<(i32, i32, i32, i32)>  loc(#loc23)
    %97 = llvm.bitcast %96 : i32 to vector<1xf32> loc(#loc23)
    %98 = llvm.extractvalue %95[1] : !llvm.struct<(i32, i32, i32, i32)>  loc(#loc23)
    %99 = llvm.bitcast %98 : i32 to vector<1xf32> loc(#loc23)
    %100 = llvm.extractvalue %95[2] : !llvm.struct<(i32, i32, i32, i32)>  loc(#loc23)
    %101 = llvm.bitcast %100 : i32 to vector<1xf32> loc(#loc23)
    %102 = llvm.extractvalue %95[3] : !llvm.struct<(i32, i32, i32, i32)>  loc(#loc23)
    %103 = llvm.bitcast %102 : i32 to vector<1xf32> loc(#loc23)
    %104 = llvm.extractelement %97[%7 : i32] : vector<1xf32> loc(#loc23)
    %105 = llvm.extractelement %99[%7 : i32] : vector<1xf32> loc(#loc23)
    %106 = llvm.extractelement %101[%7 : i32] : vector<1xf32> loc(#loc23)
    %107 = llvm.extractelement %103[%7 : i32] : vector<1xf32> loc(#loc23)
    %108 = llvm.inline_asm has_side_effects asm_dialect = att operand_attrs = [] "mov.u32 $0, $4;\0A\09mov.u32 $1, $5;\0A\09mov.u32 $2, $6;\0A\09mov.u32 $3, $7;\0A\09@$9 ld.global.v4.b32 { $0, $1, $2, $3 }, [ $8 + 0 ];", "=r,=r,=r,=r,r,r,r,r,l,b" %81, %81, %81, %81, %67, %78 : (i32, i32, i32, i32, !llvm.ptr<1>, i1) -> !llvm.struct<(i32, i32, i32, i32)> loc(#loc24)
    %109 = llvm.extractvalue %108[0] : !llvm.struct<(i32, i32, i32, i32)>  loc(#loc24)
    %110 = llvm.bitcast %109 : i32 to vector<1xf32> loc(#loc24)
    %111 = llvm.extractvalue %108[1] : !llvm.struct<(i32, i32, i32, i32)>  loc(#loc24)
    %112 = llvm.bitcast %111 : i32 to vector<1xf32> loc(#loc24)
    %113 = llvm.extractvalue %108[2] : !llvm.struct<(i32, i32, i32, i32)>  loc(#loc24)
    %114 = llvm.bitcast %113 : i32 to vector<1xf32> loc(#loc24)
    %115 = llvm.extractvalue %108[3] : !llvm.struct<(i32, i32, i32, i32)>  loc(#loc24)
    %116 = llvm.bitcast %115 : i32 to vector<1xf32> loc(#loc24)
    %117 = llvm.extractelement %110[%7 : i32] : vector<1xf32> loc(#loc24)
    %118 = llvm.extractelement %112[%7 : i32] : vector<1xf32> loc(#loc24)
    %119 = llvm.extractelement %114[%7 : i32] : vector<1xf32> loc(#loc24)
    %120 = llvm.extractelement %116[%7 : i32] : vector<1xf32> loc(#loc24)
    %121 = llvm.inline_asm has_side_effects asm_dialect = att operand_attrs = [] "mov.u32 $0, $4;\0A\09mov.u32 $1, $5;\0A\09mov.u32 $2, $6;\0A\09mov.u32 $3, $7;\0A\09@$9 ld.global.v4.b32 { $0, $1, $2, $3 }, [ $8 + 0 ];", "=r,=r,=r,=r,r,r,r,r,l,b" %81, %81, %81, %81, %68, %79 : (i32, i32, i32, i32, !llvm.ptr<1>, i1) -> !llvm.struct<(i32, i32, i32, i32)> loc(#loc24)
    %122 = llvm.extractvalue %121[0] : !llvm.struct<(i32, i32, i32, i32)>  loc(#loc24)
    %123 = llvm.bitcast %122 : i32 to vector<1xf32> loc(#loc24)
    %124 = llvm.extractvalue %121[1] : !llvm.struct<(i32, i32, i32, i32)>  loc(#loc24)
    %125 = llvm.bitcast %124 : i32 to vector<1xf32> loc(#loc24)
    %126 = llvm.extractvalue %121[2] : !llvm.struct<(i32, i32, i32, i32)>  loc(#loc24)
    %127 = llvm.bitcast %126 : i32 to vector<1xf32> loc(#loc24)
    %128 = llvm.extractvalue %121[3] : !llvm.struct<(i32, i32, i32, i32)>  loc(#loc24)
    %129 = llvm.bitcast %128 : i32 to vector<1xf32> loc(#loc24)
    %130 = llvm.extractelement %123[%7 : i32] : vector<1xf32> loc(#loc24)
    %131 = llvm.extractelement %125[%7 : i32] : vector<1xf32> loc(#loc24)
    %132 = llvm.extractelement %127[%7 : i32] : vector<1xf32> loc(#loc24)
    %133 = llvm.extractelement %129[%7 : i32] : vector<1xf32> loc(#loc24)
    %134 = llvm.fadd %91, %117 : f32 loc(#loc25)
    %135 = llvm.fadd %92, %118 : f32 loc(#loc25)
    %136 = llvm.fadd %93, %119 : f32 loc(#loc25)
    %137 = llvm.fadd %94, %120 : f32 loc(#loc25)
    %138 = llvm.fadd %104, %130 : f32 loc(#loc25)
    %139 = llvm.fadd %105, %131 : f32 loc(#loc25)
    %140 = llvm.fadd %106, %132 : f32 loc(#loc25)
    %141 = llvm.fadd %107, %133 : f32 loc(#loc25)
    %142 = llvm.insertelement %134, %0[%6 : i32] : vector<1xf32> loc(#loc26)
    %143 = llvm.bitcast %142 : vector<1xf32> to i32 loc(#loc26)
    %144 = llvm.insertelement %135, %0[%6 : i32] : vector<1xf32> loc(#loc26)
    %145 = llvm.bitcast %144 : vector<1xf32> to i32 loc(#loc26)
    %146 = llvm.insertelement %136, %0[%6 : i32] : vector<1xf32> loc(#loc26)
    %147 = llvm.bitcast %146 : vector<1xf32> to i32 loc(#loc26)
    %148 = llvm.insertelement %137, %0[%6 : i32] : vector<1xf32> loc(#loc26)
    %149 = llvm.bitcast %148 : vector<1xf32> to i32 loc(#loc26)
    %150 = llvm.inline_asm has_side_effects asm_dialect = att operand_attrs = [] "@$5 st.global.v4.b32 [ $4 + 0 ], { $0, $1, $2, $3 };", "r,r,r,r,l,b" %143, %145, %147, %149, %73, %78 : (i32, i32, i32, i32, !llvm.ptr<1>, i1) -> !llvm.void loc(#loc26)
    %151 = llvm.insertelement %138, %0[%6 : i32] : vector<1xf32> loc(#loc26)
    %152 = llvm.bitcast %151 : vector<1xf32> to i32 loc(#loc26)
    %153 = llvm.insertelement %139, %0[%6 : i32] : vector<1xf32> loc(#loc26)
    %154 = llvm.bitcast %153 : vector<1xf32> to i32 loc(#loc26)
    %155 = llvm.insertelement %140, %0[%6 : i32] : vector<1xf32> loc(#loc26)
    %156 = llvm.bitcast %155 : vector<1xf32> to i32 loc(#loc26)
    %157 = llvm.insertelement %141, %0[%6 : i32] : vector<1xf32> loc(#loc26)
    %158 = llvm.bitcast %157 : vector<1xf32> to i32 loc(#loc26)
    %159 = llvm.inline_asm has_side_effects asm_dialect = att operand_attrs = [] "@$5 st.global.v4.b32 [ $4 + 0 ], { $0, $1, $2, $3 };", "r,r,r,r,l,b" %152, %154, %156, %158, %74, %79 : (i32, i32, i32, i32, !llvm.ptr<1>, i1) -> !llvm.void loc(#loc26)
    llvm.return loc(#loc27)
  } loc(#loc)
} loc(#loc)
#loc1 = loc(unknown)
#loc2 = loc("examples/kernels/binary_ops.py":106:26)
#loc3 = loc("examples/kernels/binary_ops.py":107:26)
#loc4 = loc("examples/kernels/binary_ops.py":108:22)
#loc5 = loc("examples/kernels/binary_ops.py":108:50)
#loc6 = loc("examples/kernels/binary_ops.py":108:37)
#loc7 = loc("examples/kernels/binary_ops.py":108:67)
#loc8 = loc("examples/kernels/binary_ops.py":109:22)
#loc9 = loc("examples/kernels/binary_ops.py":109:37)
#loc10 = loc("examples/kernels/binary_ops.py":109:67)
#loc11 = loc("examples/kernels/binary_ops.py":110:40)
#loc12 = loc("examples/kernels/binary_ops.py":110:52)
#loc13 = loc("examples/kernels/binary_ops.py":110:22)
#loc14 = loc("examples/kernels/binary_ops.py":111:40)
#loc15 = loc("examples/kernels/binary_ops.py":111:52)
#loc16 = loc("examples/kernels/binary_ops.py":111:22)
#loc17 = loc("examples/kernels/binary_ops.py":112:40)
#loc18 = loc("examples/kernels/binary_ops.py":112:52)
#loc19 = loc("examples/kernels/binary_ops.py":112:22)
#loc20 = loc("examples/kernels/binary_ops.py":114:31)
#loc21 = loc("examples/kernels/binary_ops.py":114:55)
#loc22 = loc("examples/kernels/binary_ops.py":114:37)
#loc23 = loc("examples/kernels/binary_ops.py":116:16)
#loc24 = loc("examples/kernels/binary_ops.py":117:16)
#loc25 = loc("examples/kernels/binary_ops.py":118:12)
#loc26 = loc("examples/kernels/binary_ops.py":119:21)
#loc27 = loc("examples/kernels/binary_ops.py":119:4)


// -----// IR Dump Before LLVMDIScope (enable-line-info) ('builtin.module' operation) //----- //
#loc = loc("examples/kernels/binary_ops.py":97:0)
module attributes {ttg.global_scratch_memory_alignment = 1 : i32, ttg.global_scratch_memory_size = 0 : i32, "ttg.num-ctas" = 1 : i32, "ttg.num-warps" = 4 : i32, ttg.shared = 0 : i32, ttg.target = "cuda:89", ttg.tensor_memory_size = 0 : i32, "ttg.threads-per-warp" = 32 : i32, "ttg.total-num-warps" = 4 : i32} {
  llvm.mlir.global external @global_smem() {addr_space = 3 : i32, alignment = 16 : i64} : !llvm.array<0 x i8> loc(#loc)
  llvm.func @add_2d_kernel(%arg0: !llvm.ptr<1> {tt.divisibility = 16 : i32} loc("examples/kernels/binary_ops.py":97:0), %arg1: !llvm.ptr<1> {tt.divisibility = 16 : i32} loc("examples/kernels/binary_ops.py":97:0), %arg2: !llvm.ptr<1> {tt.divisibility = 16 : i32} loc("examples/kernels/binary_ops.py":97:0), %arg3: i32 {tt.divisibility = 16 : i32} loc("examples/kernels/binary_ops.py":97:0), %arg4: i32 {tt.divisibility = 16 : i32} loc("examples/kernels/binary_ops.py":97:0), %arg5: i32 {tt.divisibility = 16 : i32} loc("examples/kernels/binary_ops.py":97:0), %arg6: i32 {tt.divisibility = 16 : i32} loc("examples/kernels/binary_ops.py":97:0), %arg7: i32 {tt.divisibility = 16 : i32} loc("examples/kernels/binary_ops.py":97:0), %arg8: !llvm.ptr<1> loc("examples/kernels/binary_ops.py":97:0)) attributes {noinline = false, nvvm.kernel = 1 : ui1, nvvm.reqntid = array<i32: 128>, ttg.global_scratch_memory_alignment = 1 : i32, ttg.global_scratch_memory_size = 0 : i32} {
    %0 = llvm.mlir.undef : vector<1xf32> loc(#loc1)
    %1 = llvm.mlir.constant(16 : i32) : i32 loc(#loc1)
    %2 = llvm.mlir.constant(8 : i32) : i32 loc(#loc1)
    %3 = llvm.mlir.constant(4 : i32) : i32 loc(#loc1)
    %4 = llvm.mlir.constant(2 : i32) : i32 loc(#loc1)
    %5 = llvm.mlir.constant(1 : i32) : i32 loc(#loc1)
    %6 = llvm.mlir.constant(0 : i32) : i32 loc(#loc1)
    %7 = llvm.mlir.constant(0 : index) : i32 loc(#loc1)
    %8 = llvm.mlir.constant(32 : i32) : i32 loc(#loc1)
    %9 = llvm.mlir.constant(0.000000e+00 : f32) : f32 loc(#loc1)
    %10 = llvm.call_intrinsic "llvm.nvvm.read.ptx.sreg.ctaid.x"() : () -> i32 loc(#loc2)
    %11 = llvm.call_intrinsic "llvm.nvvm.read.ptx.sreg.ctaid.y"() : () -> i32 loc(#loc3)
    %12 = llvm.mul %10, %8 : i32 loc(#loc4)
    %13 = nvvm.read.ptx.sreg.tid.x : i32 loc(#loc5)
    %14 = llvm.urem %13, %8 : i32 loc(#loc5)
    %15 = llvm.udiv %13, %8 : i32 loc(#loc5)
    %16 = llvm.and %14, %2 : i32 loc(#loc5)
    %17 = llvm.icmp "eq" %16, %6 : i32 loc(#loc5)
    %18 = llvm.select %17, %6, %5 : i1, i32 loc(#loc5)
    %19 = llvm.xor %6, %18 : i32 loc(#loc5)
    %20 = llvm.and %14, %1 : i32 loc(#loc5)
    %21 = llvm.icmp "eq" %20, %6 : i32 loc(#loc5)
    %22 = llvm.select %21, %6, %4 : i1, i32 loc(#loc5)
    %23 = llvm.xor %19, %22 : i32 loc(#loc5)
    %24 = llvm.and %15, %5 : i32 loc(#loc5)
    %25 = llvm.icmp "eq" %24, %6 : i32 loc(#loc5)
    %26 = llvm.select %25, %6, %3 : i1, i32 loc(#loc5)
    %27 = llvm.xor %23, %26 : i32 loc(#loc5)
    %28 = llvm.and %15, %4 : i32 loc(#loc5)
    %29 = llvm.icmp "eq" %28, %6 : i32 loc(#loc5)
    %30 = llvm.select %29, %6, %2 : i1, i32 loc(#loc5)
    %31 = llvm.xor %27, %30 : i32 loc(#loc5)
    %32 = llvm.xor %31, %6 : i32 loc(#loc5)
    %33 = llvm.xor %31, %1 : i32 loc(#loc5)
    %34 = llvm.add %32, %7 : i32 loc(#loc5)
    %35 = llvm.add %33, %7 : i32 loc(#loc5)
    %36 = llvm.and %14, %5 : i32 loc(#loc5)
    %37 = llvm.icmp "eq" %36, %6 : i32 loc(#loc5)
    %38 = llvm.select %37, %6, %3 : i1, i32 loc(#loc5)
    %39 = llvm.xor %6, %38 : i32 loc(#loc5)
    %40 = llvm.and %14, %4 : i32 loc(#loc5)
    %41 = llvm.icmp "eq" %40, %6 : i32 loc(#loc5)
    %42 = llvm.select %41, %6, %2 : i1, i32 loc(#loc5)
    %43 = llvm.xor %39, %42 : i32 loc(#loc5)
    %44 = llvm.and %14, %3 : i32 loc(#loc5)
    %45 = llvm.icmp "eq" %44, %6 : i32 loc(#loc5)
    %46 = llvm.select %45, %6, %1 : i1, i32 loc(#loc5)
    %47 = llvm.xor %43, %46 : i32 loc(#loc5)
    %48 = llvm.xor %47, %6 : i32 loc(#loc5)
    %49 = llvm.add %48, %7 : i32 loc(#loc5)
    %50 = llvm.add %12, %34 : i32 loc(#loc6)
    %51 = llvm.add %12, %35 : i32 loc(#loc6)
    %52 = llvm.srem %50, %arg3 : i32 loc(#loc7)
    %53 = llvm.srem %51, %arg3 : i32 loc(#loc7)
    %54 = llvm.mul %11, %8 : i32 loc(#loc8)
    %55 = llvm.add %54, %49 : i32 loc(#loc9)
    %56 = llvm.srem %55, %arg4 : i32 loc(#loc10)
    %57 = llvm.mul %52, %arg5 : i32 loc(#loc11)
    %58 = llvm.mul %53, %arg5 : i32 loc(#loc11)
    %59 = llvm.add %57, %56 : i32 loc(#loc12)
    %60 = llvm.add %58, %56 : i32 loc(#loc12)
    %61 = llvm.getelementptr %arg0[%59] : (!llvm.ptr<1>, i32) -> !llvm.ptr<1>, f32 loc(#loc13)
    %62 = llvm.getelementptr %arg0[%60] : (!llvm.ptr<1>, i32) -> !llvm.ptr<1>, f32 loc(#loc13)
    %63 = llvm.mul %52, %arg6 : i32 loc(#loc14)
    %64 = llvm.mul %53, %arg6 : i32 loc(#loc14)
    %65 = llvm.add %63, %56 : i32 loc(#loc15)
    %66 = llvm.add %64, %56 : i32 loc(#loc15)
    %67 = llvm.getelementptr %arg1[%65] : (!llvm.ptr<1>, i32) -> !llvm.ptr<1>, f32 loc(#loc16)
    %68 = llvm.getelementptr %arg1[%66] : (!llvm.ptr<1>, i32) -> !llvm.ptr<1>, f32 loc(#loc16)
    %69 = llvm.mul %52, %arg7 : i32 loc(#loc17)
    %70 = llvm.mul %53, %arg7 : i32 loc(#loc17)
    %71 = llvm.add %69, %56 : i32 loc(#loc18)
    %72 = llvm.add %70, %56 : i32 loc(#loc18)
    %73 = llvm.getelementptr %arg2[%71] : (!llvm.ptr<1>, i32) -> !llvm.ptr<1>, f32 loc(#loc19)
    %74 = llvm.getelementptr %arg2[%72] : (!llvm.ptr<1>, i32) -> !llvm.ptr<1>, f32 loc(#loc19)
    %75 = llvm.icmp "slt" %52, %arg3 : i32 loc(#loc20)
    %76 = llvm.icmp "slt" %53, %arg3 : i32 loc(#loc20)
    %77 = llvm.icmp "slt" %56, %arg4 : i32 loc(#loc21)
    %78 = llvm.and %75, %77 : i1 loc(#loc22)
    %79 = llvm.and %76, %77 : i1 loc(#loc22)
    %80 = llvm.insertelement %9, %0[%7 : i32] : vector<1xf32> loc(#loc23)
    %81 = llvm.bitcast %80 : vector<1xf32> to i32 loc(#loc23)
    %82 = llvm.inline_asm has_side_effects asm_dialect = att operand_attrs = [] "mov.u32 $0, $4;\0A\09mov.u32 $1, $5;\0A\09mov.u32 $2, $6;\0A\09mov.u32 $3, $7;\0A\09@$9 ld.global.v4.b32 { $0, $1, $2, $3 }, [ $8 + 0 ];", "=r,=r,=r,=r,r,r,r,r,l,b" %81, %81, %81, %81, %61, %78 : (i32, i32, i32, i32, !llvm.ptr<1>, i1) -> !llvm.struct<(i32, i32, i32, i32)> loc(#loc23)
    %83 = llvm.extractvalue %82[0] : !llvm.struct<(i32, i32, i32, i32)>  loc(#loc23)
    %84 = llvm.bitcast %83 : i32 to vector<1xf32> loc(#loc23)
    %85 = llvm.extractvalue %82[1] : !llvm.struct<(i32, i32, i32, i32)>  loc(#loc23)
    %86 = llvm.bitcast %85 : i32 to vector<1xf32> loc(#loc23)
    %87 = llvm.extractvalue %82[2] : !llvm.struct<(i32, i32, i32, i32)>  loc(#loc23)
    %88 = llvm.bitcast %87 : i32 to vector<1xf32> loc(#loc23)
    %89 = llvm.extractvalue %82[3] : !llvm.struct<(i32, i32, i32, i32)>  loc(#loc23)
    %90 = llvm.bitcast %89 : i32 to vector<1xf32> loc(#loc23)
    %91 = llvm.extractelement %84[%7 : i32] : vector<1xf32> loc(#loc23)
    %92 = llvm.extractelement %86[%7 : i32] : vector<1xf32> loc(#loc23)
    %93 = llvm.extractelement %88[%7 : i32] : vector<1xf32> loc(#loc23)
    %94 = llvm.extractelement %90[%7 : i32] : vector<1xf32> loc(#loc23)
    %95 = llvm.inline_asm has_side_effects asm_dialect = att operand_attrs = [] "mov.u32 $0, $4;\0A\09mov.u32 $1, $5;\0A\09mov.u32 $2, $6;\0A\09mov.u32 $3, $7;\0A\09@$9 ld.global.v4.b32 { $0, $1, $2, $3 }, [ $8 + 0 ];", "=r,=r,=r,=r,r,r,r,r,l,b" %81, %81, %81, %81, %62, %79 : (i32, i32, i32, i32, !llvm.ptr<1>, i1) -> !llvm.struct<(i32, i32, i32, i32)> loc(#loc23)
    %96 = llvm.extractvalue %95[0] : !llvm.struct<(i32, i32, i32, i32)>  loc(#loc23)
    %97 = llvm.bitcast %96 : i32 to vector<1xf32> loc(#loc23)
    %98 = llvm.extractvalue %95[1] : !llvm.struct<(i32, i32, i32, i32)>  loc(#loc23)
    %99 = llvm.bitcast %98 : i32 to vector<1xf32> loc(#loc23)
    %100 = llvm.extractvalue %95[2] : !llvm.struct<(i32, i32, i32, i32)>  loc(#loc23)
    %101 = llvm.bitcast %100 : i32 to vector<1xf32> loc(#loc23)
    %102 = llvm.extractvalue %95[3] : !llvm.struct<(i32, i32, i32, i32)>  loc(#loc23)
    %103 = llvm.bitcast %102 : i32 to vector<1xf32> loc(#loc23)
    %104 = llvm.extractelement %97[%7 : i32] : vector<1xf32> loc(#loc23)
    %105 = llvm.extractelement %99[%7 : i32] : vector<1xf32> loc(#loc23)
    %106 = llvm.extractelement %101[%7 : i32] : vector<1xf32> loc(#loc23)
    %107 = llvm.extractelement %103[%7 : i32] : vector<1xf32> loc(#loc23)
    %108 = llvm.inline_asm has_side_effects asm_dialect = att operand_attrs = [] "mov.u32 $0, $4;\0A\09mov.u32 $1, $5;\0A\09mov.u32 $2, $6;\0A\09mov.u32 $3, $7;\0A\09@$9 ld.global.v4.b32 { $0, $1, $2, $3 }, [ $8 + 0 ];", "=r,=r,=r,=r,r,r,r,r,l,b" %81, %81, %81, %81, %67, %78 : (i32, i32, i32, i32, !llvm.ptr<1>, i1) -> !llvm.struct<(i32, i32, i32, i32)> loc(#loc24)
    %109 = llvm.extractvalue %108[0] : !llvm.struct<(i32, i32, i32, i32)>  loc(#loc24)
    %110 = llvm.bitcast %109 : i32 to vector<1xf32> loc(#loc24)
    %111 = llvm.extractvalue %108[1] : !llvm.struct<(i32, i32, i32, i32)>  loc(#loc24)
    %112 = llvm.bitcast %111 : i32 to vector<1xf32> loc(#loc24)
    %113 = llvm.extractvalue %108[2] : !llvm.struct<(i32, i32, i32, i32)>  loc(#loc24)
    %114 = llvm.bitcast %113 : i32 to vector<1xf32> loc(#loc24)
    %115 = llvm.extractvalue %108[3] : !llvm.struct<(i32, i32, i32, i32)>  loc(#loc24)
    %116 = llvm.bitcast %115 : i32 to vector<1xf32> loc(#loc24)
    %117 = llvm.extractelement %110[%7 : i32] : vector<1xf32> loc(#loc24)
    %118 = llvm.extractelement %112[%7 : i32] : vector<1xf32> loc(#loc24)
    %119 = llvm.extractelement %114[%7 : i32] : vector<1xf32> loc(#loc24)
    %120 = llvm.extractelement %116[%7 : i32] : vector<1xf32> loc(#loc24)
    %121 = llvm.inline_asm has_side_effects asm_dialect = att operand_attrs = [] "mov.u32 $0, $4;\0A\09mov.u32 $1, $5;\0A\09mov.u32 $2, $6;\0A\09mov.u32 $3, $7;\0A\09@$9 ld.global.v4.b32 { $0, $1, $2, $3 }, [ $8 + 0 ];", "=r,=r,=r,=r,r,r,r,r,l,b" %81, %81, %81, %81, %68, %79 : (i32, i32, i32, i32, !llvm.ptr<1>, i1) -> !llvm.struct<(i32, i32, i32, i32)> loc(#loc24)
    %122 = llvm.extractvalue %121[0] : !llvm.struct<(i32, i32, i32, i32)>  loc(#loc24)
    %123 = llvm.bitcast %122 : i32 to vector<1xf32> loc(#loc24)
    %124 = llvm.extractvalue %121[1] : !llvm.struct<(i32, i32, i32, i32)>  loc(#loc24)
    %125 = llvm.bitcast %124 : i32 to vector<1xf32> loc(#loc24)
    %126 = llvm.extractvalue %121[2] : !llvm.struct<(i32, i32, i32, i32)>  loc(#loc24)
    %127 = llvm.bitcast %126 : i32 to vector<1xf32> loc(#loc24)
    %128 = llvm.extractvalue %121[3] : !llvm.struct<(i32, i32, i32, i32)>  loc(#loc24)
    %129 = llvm.bitcast %128 : i32 to vector<1xf32> loc(#loc24)
    %130 = llvm.extractelement %123[%7 : i32] : vector<1xf32> loc(#loc24)
    %131 = llvm.extractelement %125[%7 : i32] : vector<1xf32> loc(#loc24)
    %132 = llvm.extractelement %127[%7 : i32] : vector<1xf32> loc(#loc24)
    %133 = llvm.extractelement %129[%7 : i32] : vector<1xf32> loc(#loc24)
    %134 = llvm.fadd %91, %117 : f32 loc(#loc25)
    %135 = llvm.fadd %92, %118 : f32 loc(#loc25)
    %136 = llvm.fadd %93, %119 : f32 loc(#loc25)
    %137 = llvm.fadd %94, %120 : f32 loc(#loc25)
    %138 = llvm.fadd %104, %130 : f32 loc(#loc25)
    %139 = llvm.fadd %105, %131 : f32 loc(#loc25)
    %140 = llvm.fadd %106, %132 : f32 loc(#loc25)
    %141 = llvm.fadd %107, %133 : f32 loc(#loc25)
    %142 = llvm.insertelement %134, %0[%6 : i32] : vector<1xf32> loc(#loc26)
    %143 = llvm.bitcast %142 : vector<1xf32> to i32 loc(#loc26)
    %144 = llvm.insertelement %135, %0[%6 : i32] : vector<1xf32> loc(#loc26)
    %145 = llvm.bitcast %144 : vector<1xf32> to i32 loc(#loc26)
    %146 = llvm.insertelement %136, %0[%6 : i32] : vector<1xf32> loc(#loc26)
    %147 = llvm.bitcast %146 : vector<1xf32> to i32 loc(#loc26)
    %148 = llvm.insertelement %137, %0[%6 : i32] : vector<1xf32> loc(#loc26)
    %149 = llvm.bitcast %148 : vector<1xf32> to i32 loc(#loc26)
    %150 = llvm.inline_asm has_side_effects asm_dialect = att operand_attrs = [] "@$5 st.global.v4.b32 [ $4 + 0 ], { $0, $1, $2, $3 };", "r,r,r,r,l,b" %143, %145, %147, %149, %73, %78 : (i32, i32, i32, i32, !llvm.ptr<1>, i1) -> !llvm.void loc(#loc26)
    %151 = llvm.insertelement %138, %0[%6 : i32] : vector<1xf32> loc(#loc26)
    %152 = llvm.bitcast %151 : vector<1xf32> to i32 loc(#loc26)
    %153 = llvm.insertelement %139, %0[%6 : i32] : vector<1xf32> loc(#loc26)
    %154 = llvm.bitcast %153 : vector<1xf32> to i32 loc(#loc26)
    %155 = llvm.insertelement %140, %0[%6 : i32] : vector<1xf32> loc(#loc26)
    %156 = llvm.bitcast %155 : vector<1xf32> to i32 loc(#loc26)
    %157 = llvm.insertelement %141, %0[%6 : i32] : vector<1xf32> loc(#loc26)
    %158 = llvm.bitcast %157 : vector<1xf32> to i32 loc(#loc26)
    %159 = llvm.inline_asm has_side_effects asm_dialect = att operand_attrs = [] "@$5 st.global.v4.b32 [ $4 + 0 ], { $0, $1, $2, $3 };", "r,r,r,r,l,b" %152, %154, %156, %158, %74, %79 : (i32, i32, i32, i32, !llvm.ptr<1>, i1) -> !llvm.void loc(#loc26)
    llvm.return loc(#loc27)
  } loc(#loc)
} loc(#loc)
#loc1 = loc(unknown)
#loc2 = loc("examples/kernels/binary_ops.py":106:26)
#loc3 = loc("examples/kernels/binary_ops.py":107:26)
#loc4 = loc("examples/kernels/binary_ops.py":108:22)
#loc5 = loc("examples/kernels/binary_ops.py":108:50)
#loc6 = loc("examples/kernels/binary_ops.py":108:37)
#loc7 = loc("examples/kernels/binary_ops.py":108:67)
#loc8 = loc("examples/kernels/binary_ops.py":109:22)
#loc9 = loc("examples/kernels/binary_ops.py":109:37)
#loc10 = loc("examples/kernels/binary_ops.py":109:67)
#loc11 = loc("examples/kernels/binary_ops.py":110:40)
#loc12 = loc("examples/kernels/binary_ops.py":110:52)
#loc13 = loc("examples/kernels/binary_ops.py":110:22)
#loc14 = loc("examples/kernels/binary_ops.py":111:40)
#loc15 = loc("examples/kernels/binary_ops.py":111:52)
#loc16 = loc("examples/kernels/binary_ops.py":111:22)
#loc17 = loc("examples/kernels/binary_ops.py":112:40)
#loc18 = loc("examples/kernels/binary_ops.py":112:52)
#loc19 = loc("examples/kernels/binary_ops.py":112:22)
#loc20 = loc("examples/kernels/binary_ops.py":114:31)
#loc21 = loc("examples/kernels/binary_ops.py":114:55)
#loc22 = loc("examples/kernels/binary_ops.py":114:37)
#loc23 = loc("examples/kernels/binary_ops.py":116:16)
#loc24 = loc("examples/kernels/binary_ops.py":117:16)
#loc25 = loc("examples/kernels/binary_ops.py":118:12)
#loc26 = loc("examples/kernels/binary_ops.py":119:21)
#loc27 = loc("examples/kernels/binary_ops.py":119:4)


