// -----// IR Dump Before Inliner (inline) ('builtin.module' operation) //----- //
#loc = loc("examples/kernels/binary_ops.py":103:0)
#loc86 = loc("/home/ahmed/miniconda3/envs/torch-env/lib/python3.13/site-packages/triton/language/standard.py":31:0)
module {
  tt.func public @matmul_kernel(%arg0: !tt.ptr<f32> {tt.divisibility = 16 : i32} loc("examples/kernels/binary_ops.py":103:0), %arg1: !tt.ptr<f32> {tt.divisibility = 16 : i32} loc("examples/kernels/binary_ops.py":103:0), %arg2: !tt.ptr<f16> {tt.divisibility = 16 : i32} loc("examples/kernels/binary_ops.py":103:0), %arg3: i32 {tt.divisibility = 16 : i32} loc("examples/kernels/binary_ops.py":103:0), %arg4: i32 {tt.divisibility = 16 : i32} loc("examples/kernels/binary_ops.py":103:0), %arg5: i32 loc("examples/kernels/binary_ops.py":103:0), %arg6: i32 loc("examples/kernels/binary_ops.py":103:0), %arg7: i32 {tt.divisibility = 16 : i32} loc("examples/kernels/binary_ops.py":103:0), %arg8: i32 {tt.divisibility = 16 : i32} loc("examples/kernels/binary_ops.py":103:0)) attributes {noinline = false} {
    %0 = tt.get_program_id x : i32 loc(#loc1)
    %1 = tt.call @"cdiv__i32__(1,)cconstexpr_32_"(%arg3) : (i32) -> i32 loc(#loc2)
    %2 = tt.call @"cdiv__i32__(1,)cconstexpr_32_"(%arg4) : (i32) -> i32 loc(#loc3)
    %c4_i32 = arith.constant 4 : i32 loc(#loc4)
    %c4_i32_0 = arith.constant 4 : i32 loc(#loc4)
    %3 = arith.extsi %c4_i32_0 : i32 to i64 loc(#loc4)
    %4 = arith.extsi %2 : i32 to i64 loc(#loc4)
    %5 = arith.muli %3, %4 : i64 loc(#loc4)
    %c2147483647_i64 = arith.constant 2147483647 : i64 loc(#loc4)
    %c-2147483648_i64 = arith.constant -2147483648 : i64 loc(#loc4)
    %6 = arith.cmpi sle, %5, %c2147483647_i64 : i64 loc(#loc4)
    %7 = arith.cmpi sge, %5, %c-2147483648_i64 : i64 loc(#loc4)
    %8 = arith.andi %6, %7 : i1 loc(#loc4)
    %9 = arith.muli %c4_i32_0, %2 : i32 loc(#loc4)
    %10 = arith.divsi %0, %9 : i32 loc(#loc5)
    %c4_i32_1 = arith.constant 4 : i32 loc(#loc6)
    %c4_i32_2 = arith.constant 4 : i32 loc(#loc6)
    %11 = arith.extsi %10 : i32 to i64 loc(#loc6)
    %12 = arith.extsi %c4_i32_2 : i32 to i64 loc(#loc6)
    %13 = arith.muli %11, %12 : i64 loc(#loc6)
    %c2147483647_i64_3 = arith.constant 2147483647 : i64 loc(#loc6)
    %c-2147483648_i64_4 = arith.constant -2147483648 : i64 loc(#loc6)
    %14 = arith.cmpi sle, %13, %c2147483647_i64_3 : i64 loc(#loc6)
    %15 = arith.cmpi sge, %13, %c-2147483648_i64_4 : i64 loc(#loc6)
    %16 = arith.andi %14, %15 : i1 loc(#loc6)
    %17 = arith.muli %10, %c4_i32_2 : i32 loc(#loc6)
    %18 = arith.extsi %1 : i32 to i64 loc(#loc7)
    %19 = arith.extsi %17 : i32 to i64 loc(#loc7)
    %20 = arith.subi %18, %19 : i64 loc(#loc7)
    %c2147483647_i64_5 = arith.constant 2147483647 : i64 loc(#loc7)
    %c-2147483648_i64_6 = arith.constant -2147483648 : i64 loc(#loc7)
    %21 = arith.cmpi sle, %20, %c2147483647_i64_5 : i64 loc(#loc7)
    %22 = arith.cmpi sge, %20, %c-2147483648_i64_6 : i64 loc(#loc7)
    %23 = arith.andi %21, %22 : i1 loc(#loc7)
    %24 = arith.subi %1, %17 : i32 loc(#loc7)
    %c4_i32_7 = arith.constant 4 : i32 loc(#loc8)
    %25 = arith.minsi %24, %c4_i32_7 : i32 loc(#loc8)
    %26 = arith.remsi %0, %9 : i32 loc(#loc9)
    %27 = arith.remsi %26, %25 : i32 loc(#loc10)
    %28 = arith.extsi %17 : i32 to i64 loc(#loc11)
    %29 = arith.extsi %27 : i32 to i64 loc(#loc11)
    %30 = arith.addi %28, %29 : i64 loc(#loc11)
    %c2147483647_i64_8 = arith.constant 2147483647 : i64 loc(#loc11)
    %c-2147483648_i64_9 = arith.constant -2147483648 : i64 loc(#loc11)
    %31 = arith.cmpi sle, %30, %c2147483647_i64_8 : i64 loc(#loc11)
    %32 = arith.cmpi sge, %30, %c-2147483648_i64_9 : i64 loc(#loc11)
    %33 = arith.andi %31, %32 : i1 loc(#loc11)
    %34 = arith.addi %17, %27 : i32 loc(#loc11)
    %35 = arith.remsi %0, %9 : i32 loc(#loc12)
    %36 = arith.divsi %35, %25 : i32 loc(#loc13)
    %c0_i32 = arith.constant 0 : i32 loc(#loc14)
    %37 = arith.cmpi sge, %34, %c0_i32 : i32 loc(#loc14)
    llvm.intr.assume %37 : i1 loc(#loc15)
    %c0_i32_10 = arith.constant 0 : i32 loc(#loc16)
    %38 = arith.cmpi sge, %36, %c0_i32_10 : i32 loc(#loc16)
    llvm.intr.assume %38 : i1 loc(#loc17)
    %c0_i32_11 = arith.constant 0 : i32 loc(#loc18)
    %39 = arith.cmpi sgt, %arg6, %c0_i32_11 : i32 loc(#loc18)
    llvm.intr.assume %39 : i1 loc(#loc19)
    %true = arith.constant true loc(#loc20)
    llvm.intr.assume %true : i1 loc(#loc20)
    %true_12 = arith.constant true loc(#loc21)
    llvm.intr.assume %true_12 : i1 loc(#loc21)
    %c0_i32_13 = arith.constant 0 : i32 loc(#loc22)
    %40 = arith.cmpi sgt, %arg7, %c0_i32_13 : i32 loc(#loc22)
    llvm.intr.assume %40 : i1 loc(#loc23)
    %c0_i32_14 = arith.constant 0 : i32 loc(#loc24)
    %41 = arith.cmpi sgt, %arg8, %c0_i32_14 : i32 loc(#loc24)
    llvm.intr.assume %41 : i1 loc(#loc25)
    %true_15 = arith.constant true loc(#loc26)
    llvm.intr.assume %true_15 : i1 loc(#loc26)
    %c32_i32 = arith.constant 32 : i32 loc(#loc27)
    %c32_i32_16 = arith.constant 32 : i32 loc(#loc27)
    %42 = arith.extsi %34 : i32 to i64 loc(#loc27)
    %43 = arith.extsi %c32_i32_16 : i32 to i64 loc(#loc27)
    %44 = arith.muli %42, %43 : i64 loc(#loc27)
    %c2147483647_i64_17 = arith.constant 2147483647 : i64 loc(#loc27)
    %c-2147483648_i64_18 = arith.constant -2147483648 : i64 loc(#loc27)
    %45 = arith.cmpi sle, %44, %c2147483647_i64_17 : i64 loc(#loc27)
    %46 = arith.cmpi sge, %44, %c-2147483648_i64_18 : i64 loc(#loc27)
    %47 = arith.andi %45, %46 : i1 loc(#loc27)
    %48 = arith.muli %34, %c32_i32_16 : i32 loc(#loc27)
    %49 = tt.make_range {end = 32 : i32, start = 0 : i32} : tensor<32xi32> loc(#loc28)
    %50 = tt.splat %48 : i32 -> tensor<32xi32> loc(#loc29)
    %51 = arith.extsi %50 : tensor<32xi32> to tensor<32xi64> loc(#loc29)
    %52 = arith.extsi %49 : tensor<32xi32> to tensor<32xi64> loc(#loc29)
    %53 = arith.addi %51, %52 : tensor<32xi64> loc(#loc29)
    %c2147483647_i64_19 = arith.constant 2147483647 : i64 loc(#loc29)
    %c-2147483648_i64_20 = arith.constant -2147483648 : i64 loc(#loc29)
    %cst = arith.constant dense<2147483647> : tensor<32xi64> loc(#loc29)
    %54 = arith.cmpi sle, %53, %cst : tensor<32xi64> loc(#loc29)
    %cst_21 = arith.constant dense<-2147483648> : tensor<32xi64> loc(#loc29)
    %55 = arith.cmpi sge, %53, %cst_21 : tensor<32xi64> loc(#loc29)
    %56 = arith.andi %54, %55 : tensor<32xi1> loc(#loc29)
    %57 = arith.addi %50, %49 : tensor<32xi32> loc(#loc29)
    %58 = tt.splat %arg3 : i32 -> tensor<32xi32> loc(#loc30)
    %59 = arith.remsi %57, %58 : tensor<32xi32> loc(#loc30)
    %c32_i32_22 = arith.constant 32 : i32 loc(#loc31)
    %c32_i32_23 = arith.constant 32 : i32 loc(#loc31)
    %60 = arith.extsi %36 : i32 to i64 loc(#loc31)
    %61 = arith.extsi %c32_i32_23 : i32 to i64 loc(#loc31)
    %62 = arith.muli %60, %61 : i64 loc(#loc31)
    %c2147483647_i64_24 = arith.constant 2147483647 : i64 loc(#loc31)
    %c-2147483648_i64_25 = arith.constant -2147483648 : i64 loc(#loc31)
    %63 = arith.cmpi sle, %62, %c2147483647_i64_24 : i64 loc(#loc31)
    %64 = arith.cmpi sge, %62, %c-2147483648_i64_25 : i64 loc(#loc31)
    %65 = arith.andi %63, %64 : i1 loc(#loc31)
    %66 = arith.muli %36, %c32_i32_23 : i32 loc(#loc31)
    %67 = tt.make_range {end = 32 : i32, start = 0 : i32} : tensor<32xi32> loc(#loc32)
    %68 = tt.splat %66 : i32 -> tensor<32xi32> loc(#loc33)
    %69 = arith.extsi %68 : tensor<32xi32> to tensor<32xi64> loc(#loc33)
    %70 = arith.extsi %67 : tensor<32xi32> to tensor<32xi64> loc(#loc33)
    %71 = arith.addi %69, %70 : tensor<32xi64> loc(#loc33)
    %c2147483647_i64_26 = arith.constant 2147483647 : i64 loc(#loc33)
    %c-2147483648_i64_27 = arith.constant -2147483648 : i64 loc(#loc33)
    %cst_28 = arith.constant dense<2147483647> : tensor<32xi64> loc(#loc33)
    %72 = arith.cmpi sle, %71, %cst_28 : tensor<32xi64> loc(#loc33)
    %cst_29 = arith.constant dense<-2147483648> : tensor<32xi64> loc(#loc33)
    %73 = arith.cmpi sge, %71, %cst_29 : tensor<32xi64> loc(#loc33)
    %74 = arith.andi %72, %73 : tensor<32xi1> loc(#loc33)
    %75 = arith.addi %68, %67 : tensor<32xi32> loc(#loc33)
    %76 = tt.splat %arg4 : i32 -> tensor<32xi32> loc(#loc34)
    %77 = arith.remsi %75, %76 : tensor<32xi32> loc(#loc34)
    %78 = tt.make_range {end = 16 : i32, start = 0 : i32} : tensor<16xi32> loc(#loc35)
    %79 = tt.expand_dims %59 {axis = 1 : i32} : tensor<32xi32> -> tensor<32x1xi32> loc(#loc36)
    %80 = tt.splat %arg6 : i32 -> tensor<32x1xi32> loc(#loc37)
    %81 = arith.extsi %79 : tensor<32x1xi32> to tensor<32x1xi64> loc(#loc37)
    %82 = arith.extsi %80 : tensor<32x1xi32> to tensor<32x1xi64> loc(#loc37)
    %83 = arith.muli %81, %82 : tensor<32x1xi64> loc(#loc37)
    %c2147483647_i64_30 = arith.constant 2147483647 : i64 loc(#loc37)
    %c-2147483648_i64_31 = arith.constant -2147483648 : i64 loc(#loc37)
    %cst_32 = arith.constant dense<2147483647> : tensor<32x1xi64> loc(#loc37)
    %84 = arith.cmpi sle, %83, %cst_32 : tensor<32x1xi64> loc(#loc37)
    %cst_33 = arith.constant dense<-2147483648> : tensor<32x1xi64> loc(#loc37)
    %85 = arith.cmpi sge, %83, %cst_33 : tensor<32x1xi64> loc(#loc37)
    %86 = arith.andi %84, %85 : tensor<32x1xi1> loc(#loc37)
    %87 = arith.muli %79, %80 : tensor<32x1xi32> loc(#loc37)
    %88 = tt.expand_dims %78 {axis = 0 : i32} : tensor<16xi32> -> tensor<1x16xi32> loc(#loc38)
    %c1_i32 = arith.constant 1 : i32 loc(#loc39)
    %c1_i32_34 = arith.constant 1 : i32 loc(#loc39)
    %cst_35 = arith.constant dense<1> : tensor<1x16xi32> loc(#loc39)
    %89 = arith.extsi %88 : tensor<1x16xi32> to tensor<1x16xi64> loc(#loc39)
    %90 = arith.extsi %cst_35 : tensor<1x16xi32> to tensor<1x16xi64> loc(#loc39)
    %91 = arith.muli %89, %90 : tensor<1x16xi64> loc(#loc39)
    %c2147483647_i64_36 = arith.constant 2147483647 : i64 loc(#loc39)
    %c-2147483648_i64_37 = arith.constant -2147483648 : i64 loc(#loc39)
    %cst_38 = arith.constant dense<2147483647> : tensor<1x16xi64> loc(#loc39)
    %92 = arith.cmpi sle, %91, %cst_38 : tensor<1x16xi64> loc(#loc39)
    %cst_39 = arith.constant dense<-2147483648> : tensor<1x16xi64> loc(#loc39)
    %93 = arith.cmpi sge, %91, %cst_39 : tensor<1x16xi64> loc(#loc39)
    %94 = arith.andi %92, %93 : tensor<1x16xi1> loc(#loc39)
    %95 = arith.muli %88, %cst_35 : tensor<1x16xi32> loc(#loc39)
    %96 = tt.broadcast %87 : tensor<32x1xi32> -> tensor<32x16xi32> loc(#loc40)
    %97 = tt.broadcast %95 : tensor<1x16xi32> -> tensor<32x16xi32> loc(#loc40)
    %98 = arith.extsi %96 : tensor<32x16xi32> to tensor<32x16xi64> loc(#loc40)
    %99 = arith.extsi %97 : tensor<32x16xi32> to tensor<32x16xi64> loc(#loc40)
    %100 = arith.addi %98, %99 : tensor<32x16xi64> loc(#loc40)
    %c2147483647_i64_40 = arith.constant 2147483647 : i64 loc(#loc40)
    %c-2147483648_i64_41 = arith.constant -2147483648 : i64 loc(#loc40)
    %cst_42 = arith.constant dense<2147483647> : tensor<32x16xi64> loc(#loc40)
    %101 = arith.cmpi sle, %100, %cst_42 : tensor<32x16xi64> loc(#loc40)
    %cst_43 = arith.constant dense<-2147483648> : tensor<32x16xi64> loc(#loc40)
    %102 = arith.cmpi sge, %100, %cst_43 : tensor<32x16xi64> loc(#loc40)
    %103 = arith.andi %101, %102 : tensor<32x16xi1> loc(#loc40)
    %104 = arith.addi %96, %97 : tensor<32x16xi32> loc(#loc40)
    %105 = tt.splat %arg0 : !tt.ptr<f32> -> tensor<32x16x!tt.ptr<f32>> loc(#loc41)
    %106 = tt.addptr %105, %104 : tensor<32x16x!tt.ptr<f32>>, tensor<32x16xi32> loc(#loc41)
    %107 = tt.expand_dims %78 {axis = 1 : i32} : tensor<16xi32> -> tensor<16x1xi32> loc(#loc42)
    %108 = tt.splat %arg7 : i32 -> tensor<16x1xi32> loc(#loc43)
    %109 = arith.extsi %107 : tensor<16x1xi32> to tensor<16x1xi64> loc(#loc43)
    %110 = arith.extsi %108 : tensor<16x1xi32> to tensor<16x1xi64> loc(#loc43)
    %111 = arith.muli %109, %110 : tensor<16x1xi64> loc(#loc43)
    %c2147483647_i64_44 = arith.constant 2147483647 : i64 loc(#loc43)
    %c-2147483648_i64_45 = arith.constant -2147483648 : i64 loc(#loc43)
    %cst_46 = arith.constant dense<2147483647> : tensor<16x1xi64> loc(#loc43)
    %112 = arith.cmpi sle, %111, %cst_46 : tensor<16x1xi64> loc(#loc43)
    %cst_47 = arith.constant dense<-2147483648> : tensor<16x1xi64> loc(#loc43)
    %113 = arith.cmpi sge, %111, %cst_47 : tensor<16x1xi64> loc(#loc43)
    %114 = arith.andi %112, %113 : tensor<16x1xi1> loc(#loc43)
    %115 = arith.muli %107, %108 : tensor<16x1xi32> loc(#loc43)
    %116 = tt.expand_dims %77 {axis = 0 : i32} : tensor<32xi32> -> tensor<1x32xi32> loc(#loc44)
    %c1_i32_48 = arith.constant 1 : i32 loc(#loc45)
    %c1_i32_49 = arith.constant 1 : i32 loc(#loc45)
    %cst_50 = arith.constant dense<1> : tensor<1x32xi32> loc(#loc45)
    %117 = arith.extsi %116 : tensor<1x32xi32> to tensor<1x32xi64> loc(#loc45)
    %118 = arith.extsi %cst_50 : tensor<1x32xi32> to tensor<1x32xi64> loc(#loc45)
    %119 = arith.muli %117, %118 : tensor<1x32xi64> loc(#loc45)
    %c2147483647_i64_51 = arith.constant 2147483647 : i64 loc(#loc45)
    %c-2147483648_i64_52 = arith.constant -2147483648 : i64 loc(#loc45)
    %cst_53 = arith.constant dense<2147483647> : tensor<1x32xi64> loc(#loc45)
    %120 = arith.cmpi sle, %119, %cst_53 : tensor<1x32xi64> loc(#loc45)
    %cst_54 = arith.constant dense<-2147483648> : tensor<1x32xi64> loc(#loc45)
    %121 = arith.cmpi sge, %119, %cst_54 : tensor<1x32xi64> loc(#loc45)
    %122 = arith.andi %120, %121 : tensor<1x32xi1> loc(#loc45)
    %123 = arith.muli %116, %cst_50 : tensor<1x32xi32> loc(#loc45)
    %124 = tt.broadcast %115 : tensor<16x1xi32> -> tensor<16x32xi32> loc(#loc46)
    %125 = tt.broadcast %123 : tensor<1x32xi32> -> tensor<16x32xi32> loc(#loc46)
    %126 = arith.extsi %124 : tensor<16x32xi32> to tensor<16x32xi64> loc(#loc46)
    %127 = arith.extsi %125 : tensor<16x32xi32> to tensor<16x32xi64> loc(#loc46)
    %128 = arith.addi %126, %127 : tensor<16x32xi64> loc(#loc46)
    %c2147483647_i64_55 = arith.constant 2147483647 : i64 loc(#loc46)
    %c-2147483648_i64_56 = arith.constant -2147483648 : i64 loc(#loc46)
    %cst_57 = arith.constant dense<2147483647> : tensor<16x32xi64> loc(#loc46)
    %129 = arith.cmpi sle, %128, %cst_57 : tensor<16x32xi64> loc(#loc46)
    %cst_58 = arith.constant dense<-2147483648> : tensor<16x32xi64> loc(#loc46)
    %130 = arith.cmpi sge, %128, %cst_58 : tensor<16x32xi64> loc(#loc46)
    %131 = arith.andi %129, %130 : tensor<16x32xi1> loc(#loc46)
    %132 = arith.addi %124, %125 : tensor<16x32xi32> loc(#loc46)
    %133 = tt.splat %arg1 : !tt.ptr<f32> -> tensor<16x32x!tt.ptr<f32>> loc(#loc47)
    %134 = tt.addptr %133, %132 : tensor<16x32x!tt.ptr<f32>>, tensor<16x32xi32> loc(#loc47)
    %135 = tt.call @"zeros____(0, 0)cconstexpr_32__(0, 1)cconstexpr_32__(1,)cconstexpr_fp32_"() : () -> tensor<32x32xf32> loc(#loc48)
    %136 = tt.call @"cdiv__i32__(1,)cconstexpr_16_"(%arg5) : (i32) -> i32 loc(#loc49)
    %c0_i32_59 = arith.constant 0 : i32 loc(#loc50)
    %c1_i32_60 = arith.constant 1 : i32 loc(#loc50)
    %137 = arith.bitcast %c0_i32_59 : i32 to i32 loc(#loc50)
    %138 = arith.bitcast %136 : i32 to i32 loc(#loc50)
    %139 = arith.bitcast %c1_i32_60 : i32 to i32 loc(#loc50)
    %140 = ub.poison : i32 loc(#loc50)
    %141:3 = scf.for %arg9 = %137 to %138 step %139 iter_args(%arg10 = %135, %arg11 = %106, %arg12 = %134) -> (tensor<32x32xf32>, tensor<32x16x!tt.ptr<f32>>, tensor<16x32x!tt.ptr<f32>>)  : i32 {
      %206 = tt.expand_dims %78 {axis = 0 : i32} : tensor<16xi32> -> tensor<1x16xi32> loc(#loc51)
      %c16_i32 = arith.constant 16 : i32 loc(#loc52)
      %c16_i32_88 = arith.constant 16 : i32 loc(#loc52)
      %207 = arith.extsi %arg9 : i32 to i64 loc(#loc52)
      %208 = arith.extsi %c16_i32_88 : i32 to i64 loc(#loc52)
      %209 = arith.muli %207, %208 : i64 loc(#loc52)
      %c2147483647_i64_89 = arith.constant 2147483647 : i64 loc(#loc52)
      %c-2147483648_i64_90 = arith.constant -2147483648 : i64 loc(#loc52)
      %210 = arith.cmpi sle, %209, %c2147483647_i64_89 : i64 loc(#loc52)
      %211 = arith.cmpi sge, %209, %c-2147483648_i64_90 : i64 loc(#loc52)
      %212 = arith.andi %210, %211 : i1 loc(#loc52)
      %213 = arith.muli %arg9, %c16_i32_88 : i32 loc(#loc52)
      %214 = arith.extsi %arg5 : i32 to i64 loc(#loc53)
      %215 = arith.extsi %213 : i32 to i64 loc(#loc53)
      %216 = arith.subi %214, %215 : i64 loc(#loc53)
      %c2147483647_i64_91 = arith.constant 2147483647 : i64 loc(#loc53)
      %c-2147483648_i64_92 = arith.constant -2147483648 : i64 loc(#loc53)
      %217 = arith.cmpi sle, %216, %c2147483647_i64_91 : i64 loc(#loc53)
      %218 = arith.cmpi sge, %216, %c-2147483648_i64_92 : i64 loc(#loc53)
      %219 = arith.andi %217, %218 : i1 loc(#loc53)
      %220 = arith.subi %arg5, %213 : i32 loc(#loc53)
      %221 = tt.splat %220 : i32 -> tensor<1x16xi32> loc(#loc54)
      %222 = arith.cmpi slt, %206, %221 : tensor<1x16xi32> loc(#loc54)
      %cst_93 = arith.constant 0.000000e+00 : f32 loc(#loc55)
      %223 = tt.broadcast %222 : tensor<1x16xi1> -> tensor<32x16xi1> loc(#loc55)
      %cst_94 = arith.constant dense<0.000000e+00> : tensor<32x16xf32> loc(#loc55)
      %224 = tt.load %arg11, %223, %cst_94 : tensor<32x16x!tt.ptr<f32>> loc(#loc55)
      %225 = tt.expand_dims %78 {axis = 1 : i32} : tensor<16xi32> -> tensor<16x1xi32> loc(#loc56)
      %c16_i32_95 = arith.constant 16 : i32 loc(#loc57)
      %c16_i32_96 = arith.constant 16 : i32 loc(#loc57)
      %226 = arith.extsi %arg9 : i32 to i64 loc(#loc57)
      %227 = arith.extsi %c16_i32_96 : i32 to i64 loc(#loc57)
      %228 = arith.muli %226, %227 : i64 loc(#loc57)
      %c2147483647_i64_97 = arith.constant 2147483647 : i64 loc(#loc57)
      %c-2147483648_i64_98 = arith.constant -2147483648 : i64 loc(#loc57)
      %229 = arith.cmpi sle, %228, %c2147483647_i64_97 : i64 loc(#loc57)
      %230 = arith.cmpi sge, %228, %c-2147483648_i64_98 : i64 loc(#loc57)
      %231 = arith.andi %229, %230 : i1 loc(#loc57)
      %232 = arith.muli %arg9, %c16_i32_96 : i32 loc(#loc57)
      %233 = arith.extsi %arg5 : i32 to i64 loc(#loc58)
      %234 = arith.extsi %232 : i32 to i64 loc(#loc58)
      %235 = arith.subi %233, %234 : i64 loc(#loc58)
      %c2147483647_i64_99 = arith.constant 2147483647 : i64 loc(#loc58)
      %c-2147483648_i64_100 = arith.constant -2147483648 : i64 loc(#loc58)
      %236 = arith.cmpi sle, %235, %c2147483647_i64_99 : i64 loc(#loc58)
      %237 = arith.cmpi sge, %235, %c-2147483648_i64_100 : i64 loc(#loc58)
      %238 = arith.andi %236, %237 : i1 loc(#loc58)
      %239 = arith.subi %arg5, %232 : i32 loc(#loc58)
      %240 = tt.splat %239 : i32 -> tensor<16x1xi32> loc(#loc59)
      %241 = arith.cmpi slt, %225, %240 : tensor<16x1xi32> loc(#loc59)
      %cst_101 = arith.constant 0.000000e+00 : f32 loc(#loc60)
      %242 = tt.broadcast %241 : tensor<16x1xi1> -> tensor<16x32xi1> loc(#loc60)
      %cst_102 = arith.constant dense<0.000000e+00> : tensor<16x32xf32> loc(#loc60)
      %243 = tt.load %arg12, %242, %cst_102 : tensor<16x32x!tt.ptr<f32>> loc(#loc60)
      %cst_103 = arith.constant 0.000000e+00 : f32 loc(#loc61)
      %244 = tt.dot %224, %243, %arg10, inputPrecision = tf32 : tensor<32x16xf32> * tensor<16x32xf32> -> tensor<32x32xf32> loc(#loc61)
      %c16_i32_104 = arith.constant 16 : i32 loc(#loc62)
      %cst_105 = arith.constant dense<16> : tensor<32x16xi32> loc(#loc62)
      %245 = tt.addptr %arg11, %cst_105 : tensor<32x16x!tt.ptr<f32>>, tensor<32x16xi32> loc(#loc62)
      %c16_i32_106 = arith.constant 16 : i32 loc(#loc63)
      %c16_i32_107 = arith.constant 16 : i32 loc(#loc63)
      %246 = arith.extsi %c16_i32_107 : i32 to i64 loc(#loc63)
      %247 = arith.extsi %arg7 : i32 to i64 loc(#loc63)
      %248 = arith.muli %246, %247 : i64 loc(#loc63)
      %c2147483647_i64_108 = arith.constant 2147483647 : i64 loc(#loc63)
      %c-2147483648_i64_109 = arith.constant -2147483648 : i64 loc(#loc63)
      %249 = arith.cmpi sle, %248, %c2147483647_i64_108 : i64 loc(#loc63)
      %250 = arith.cmpi sge, %248, %c-2147483648_i64_109 : i64 loc(#loc63)
      %251 = arith.andi %249, %250 : i1 loc(#loc63)
      %252 = arith.muli %c16_i32_107, %arg7 : i32 loc(#loc63)
      %253 = tt.splat %252 : i32 -> tensor<16x32xi32> loc(#loc64)
      %254 = tt.addptr %arg12, %253 : tensor<16x32x!tt.ptr<f32>>, tensor<16x32xi32> loc(#loc64)
      scf.yield %244, %245, %254 : tensor<32x32xf32>, tensor<32x16x!tt.ptr<f32>>, tensor<16x32x!tt.ptr<f32>> loc(#loc65)
    } loc(#loc50)
    %142 = arith.truncf %141#0 : tensor<32x32xf32> to tensor<32x32xf16> loc(#loc66)
    %c32_i32_61 = arith.constant 32 : i32 loc(#loc67)
    %c32_i32_62 = arith.constant 32 : i32 loc(#loc67)
    %143 = arith.extsi %34 : i32 to i64 loc(#loc67)
    %144 = arith.extsi %c32_i32_62 : i32 to i64 loc(#loc67)
    %145 = arith.muli %143, %144 : i64 loc(#loc67)
    %c2147483647_i64_63 = arith.constant 2147483647 : i64 loc(#loc67)
    %c-2147483648_i64_64 = arith.constant -2147483648 : i64 loc(#loc67)
    %146 = arith.cmpi sle, %145, %c2147483647_i64_63 : i64 loc(#loc67)
    %147 = arith.cmpi sge, %145, %c-2147483648_i64_64 : i64 loc(#loc67)
    %148 = arith.andi %146, %147 : i1 loc(#loc67)
    %149 = arith.muli %34, %c32_i32_62 : i32 loc(#loc67)
    %150 = tt.make_range {end = 32 : i32, start = 0 : i32} : tensor<32xi32> loc(#loc68)
    %151 = tt.splat %149 : i32 -> tensor<32xi32> loc(#loc69)
    %152 = arith.extsi %151 : tensor<32xi32> to tensor<32xi64> loc(#loc69)
    %153 = arith.extsi %150 : tensor<32xi32> to tensor<32xi64> loc(#loc69)
    %154 = arith.addi %152, %153 : tensor<32xi64> loc(#loc69)
    %c2147483647_i64_65 = arith.constant 2147483647 : i64 loc(#loc69)
    %c-2147483648_i64_66 = arith.constant -2147483648 : i64 loc(#loc69)
    %cst_67 = arith.constant dense<2147483647> : tensor<32xi64> loc(#loc69)
    %155 = arith.cmpi sle, %154, %cst_67 : tensor<32xi64> loc(#loc69)
    %cst_68 = arith.constant dense<-2147483648> : tensor<32xi64> loc(#loc69)
    %156 = arith.cmpi sge, %154, %cst_68 : tensor<32xi64> loc(#loc69)
    %157 = arith.andi %155, %156 : tensor<32xi1> loc(#loc69)
    %158 = arith.addi %151, %150 : tensor<32xi32> loc(#loc69)
    %c32_i32_69 = arith.constant 32 : i32 loc(#loc70)
    %c32_i32_70 = arith.constant 32 : i32 loc(#loc70)
    %159 = arith.extsi %36 : i32 to i64 loc(#loc70)
    %160 = arith.extsi %c32_i32_70 : i32 to i64 loc(#loc70)
    %161 = arith.muli %159, %160 : i64 loc(#loc70)
    %c2147483647_i64_71 = arith.constant 2147483647 : i64 loc(#loc70)
    %c-2147483648_i64_72 = arith.constant -2147483648 : i64 loc(#loc70)
    %162 = arith.cmpi sle, %161, %c2147483647_i64_71 : i64 loc(#loc70)
    %163 = arith.cmpi sge, %161, %c-2147483648_i64_72 : i64 loc(#loc70)
    %164 = arith.andi %162, %163 : i1 loc(#loc70)
    %165 = arith.muli %36, %c32_i32_70 : i32 loc(#loc70)
    %166 = tt.make_range {end = 32 : i32, start = 0 : i32} : tensor<32xi32> loc(#loc71)
    %167 = tt.splat %165 : i32 -> tensor<32xi32> loc(#loc72)
    %168 = arith.extsi %167 : tensor<32xi32> to tensor<32xi64> loc(#loc72)
    %169 = arith.extsi %166 : tensor<32xi32> to tensor<32xi64> loc(#loc72)
    %170 = arith.addi %168, %169 : tensor<32xi64> loc(#loc72)
    %c2147483647_i64_73 = arith.constant 2147483647 : i64 loc(#loc72)
    %c-2147483648_i64_74 = arith.constant -2147483648 : i64 loc(#loc72)
    %cst_75 = arith.constant dense<2147483647> : tensor<32xi64> loc(#loc72)
    %171 = arith.cmpi sle, %170, %cst_75 : tensor<32xi64> loc(#loc72)
    %cst_76 = arith.constant dense<-2147483648> : tensor<32xi64> loc(#loc72)
    %172 = arith.cmpi sge, %170, %cst_76 : tensor<32xi64> loc(#loc72)
    %173 = arith.andi %171, %172 : tensor<32xi1> loc(#loc72)
    %174 = arith.addi %167, %166 : tensor<32xi32> loc(#loc72)
    %175 = tt.expand_dims %158 {axis = 1 : i32} : tensor<32xi32> -> tensor<32x1xi32> loc(#loc73)
    %176 = tt.splat %arg8 : i32 -> tensor<32x1xi32> loc(#loc74)
    %177 = arith.extsi %176 : tensor<32x1xi32> to tensor<32x1xi64> loc(#loc74)
    %178 = arith.extsi %175 : tensor<32x1xi32> to tensor<32x1xi64> loc(#loc74)
    %179 = arith.muli %177, %178 : tensor<32x1xi64> loc(#loc74)
    %c2147483647_i64_77 = arith.constant 2147483647 : i64 loc(#loc74)
    %c-2147483648_i64_78 = arith.constant -2147483648 : i64 loc(#loc74)
    %cst_79 = arith.constant dense<2147483647> : tensor<32x1xi64> loc(#loc74)
    %180 = arith.cmpi sle, %179, %cst_79 : tensor<32x1xi64> loc(#loc74)
    %cst_80 = arith.constant dense<-2147483648> : tensor<32x1xi64> loc(#loc74)
    %181 = arith.cmpi sge, %179, %cst_80 : tensor<32x1xi64> loc(#loc74)
    %182 = arith.andi %180, %181 : tensor<32x1xi1> loc(#loc74)
    %183 = arith.muli %176, %175 : tensor<32x1xi32> loc(#loc74)
    %184 = tt.splat %arg2 : !tt.ptr<f16> -> tensor<32x1x!tt.ptr<f16>> loc(#loc75)
    %185 = tt.addptr %184, %183 : tensor<32x1x!tt.ptr<f16>>, tensor<32x1xi32> loc(#loc75)
    %186 = tt.expand_dims %174 {axis = 0 : i32} : tensor<32xi32> -> tensor<1x32xi32> loc(#loc76)
    %c1_i32_81 = arith.constant 1 : i32 loc(#loc77)
    %c1_i32_82 = arith.constant 1 : i32 loc(#loc77)
    %cst_83 = arith.constant dense<1> : tensor<1x32xi32> loc(#loc77)
    %187 = arith.extsi %cst_83 : tensor<1x32xi32> to tensor<1x32xi64> loc(#loc77)
    %188 = arith.extsi %186 : tensor<1x32xi32> to tensor<1x32xi64> loc(#loc77)
    %189 = arith.muli %187, %188 : tensor<1x32xi64> loc(#loc77)
    %c2147483647_i64_84 = arith.constant 2147483647 : i64 loc(#loc77)
    %c-2147483648_i64_85 = arith.constant -2147483648 : i64 loc(#loc77)
    %cst_86 = arith.constant dense<2147483647> : tensor<1x32xi64> loc(#loc77)
    %190 = arith.cmpi sle, %189, %cst_86 : tensor<1x32xi64> loc(#loc77)
    %cst_87 = arith.constant dense<-2147483648> : tensor<1x32xi64> loc(#loc77)
    %191 = arith.cmpi sge, %189, %cst_87 : tensor<1x32xi64> loc(#loc77)
    %192 = arith.andi %190, %191 : tensor<1x32xi1> loc(#loc77)
    %193 = arith.muli %cst_83, %186 : tensor<1x32xi32> loc(#loc77)
    %194 = tt.broadcast %185 : tensor<32x1x!tt.ptr<f16>> -> tensor<32x32x!tt.ptr<f16>> loc(#loc78)
    %195 = tt.broadcast %193 : tensor<1x32xi32> -> tensor<32x32xi32> loc(#loc78)
    %196 = tt.addptr %194, %195 : tensor<32x32x!tt.ptr<f16>>, tensor<32x32xi32> loc(#loc78)
    %197 = tt.expand_dims %158 {axis = 1 : i32} : tensor<32xi32> -> tensor<32x1xi32> loc(#loc79)
    %198 = tt.splat %arg3 : i32 -> tensor<32x1xi32> loc(#loc80)
    %199 = arith.cmpi slt, %197, %198 : tensor<32x1xi32> loc(#loc80)
    %200 = tt.expand_dims %174 {axis = 0 : i32} : tensor<32xi32> -> tensor<1x32xi32> loc(#loc81)
    %201 = tt.splat %arg4 : i32 -> tensor<1x32xi32> loc(#loc82)
    %202 = arith.cmpi slt, %200, %201 : tensor<1x32xi32> loc(#loc82)
    %203 = tt.broadcast %199 : tensor<32x1xi1> -> tensor<32x32xi1> loc(#loc83)
    %204 = tt.broadcast %202 : tensor<1x32xi1> -> tensor<32x32xi1> loc(#loc83)
    %205 = arith.andi %203, %204 : tensor<32x32xi1> loc(#loc83)
    tt.store %196, %142, %205 : tensor<32x32x!tt.ptr<f16>> loc(#loc84)
    tt.return loc(#loc85)
  } loc(#loc)
  tt.func private @"cdiv__i32__(1,)cconstexpr_32_"(%arg0: i32 loc("/home/ahmed/miniconda3/envs/torch-env/lib/python3.13/site-packages/triton/language/standard.py":31:0)) -> i32 attributes {noinline = false} {
    %c32_i32 = arith.constant 32 : i32 loc(#loc87)
    %c32_i32_0 = arith.constant 32 : i32 loc(#loc87)
    %0 = arith.extsi %arg0 : i32 to i64 loc(#loc87)
    %1 = arith.extsi %c32_i32_0 : i32 to i64 loc(#loc87)
    %2 = arith.addi %0, %1 : i64 loc(#loc87)
    %c2147483647_i64 = arith.constant 2147483647 : i64 loc(#loc87)
    %c-2147483648_i64 = arith.constant -2147483648 : i64 loc(#loc87)
    %3 = arith.cmpi sle, %2, %c2147483647_i64 : i64 loc(#loc87)
    %4 = arith.cmpi sge, %2, %c-2147483648_i64 : i64 loc(#loc87)
    %5 = arith.andi %3, %4 : i1 loc(#loc87)
    %6 = arith.addi %arg0, %c32_i32_0 : i32 loc(#loc87)
    %c1_i32 = arith.constant 1 : i32 loc(#loc88)
    %c1_i32_1 = arith.constant 1 : i32 loc(#loc88)
    %7 = arith.extsi %6 : i32 to i64 loc(#loc88)
    %8 = arith.extsi %c1_i32_1 : i32 to i64 loc(#loc88)
    %9 = arith.subi %7, %8 : i64 loc(#loc88)
    %c2147483647_i64_2 = arith.constant 2147483647 : i64 loc(#loc88)
    %c-2147483648_i64_3 = arith.constant -2147483648 : i64 loc(#loc88)
    %10 = arith.cmpi sle, %9, %c2147483647_i64_2 : i64 loc(#loc88)
    %11 = arith.cmpi sge, %9, %c-2147483648_i64_3 : i64 loc(#loc88)
    %12 = arith.andi %10, %11 : i1 loc(#loc88)
    %13 = arith.subi %6, %c1_i32_1 : i32 loc(#loc88)
    %c32_i32_4 = arith.constant 32 : i32 loc(#loc89)
    %c32_i32_5 = arith.constant 32 : i32 loc(#loc89)
    %14 = arith.divsi %13, %c32_i32_5 : i32 loc(#loc89)
    tt.return %14 : i32 loc(#loc90)
  ^bb1:  // no predecessors
    %15 = ub.poison : i32 loc(#loc91)
    tt.return %15 : i32 loc(#loc91)
  } loc(#loc86)
  tt.func private @"zeros____(0, 0)cconstexpr_32__(0, 1)cconstexpr_32__(1,)cconstexpr_fp32_"() -> tensor<32x32xf32> attributes {noinline = false} {
    %cst = arith.constant 0.000000e+00 : f32 loc(#loc93)
    %cst_0 = arith.constant dense<0.000000e+00> : tensor<32x32xf32> loc(#loc93)
    tt.return %cst_0 : tensor<32x32xf32> loc(#loc94)
  ^bb1:  // no predecessors
    %0 = ub.poison : tensor<32x32xf32> loc(#loc95)
    tt.return %0 : tensor<32x32xf32> loc(#loc95)
  } loc(#loc92)
  tt.func private @"cdiv__i32__(1,)cconstexpr_16_"(%arg0: i32 loc("/home/ahmed/miniconda3/envs/torch-env/lib/python3.13/site-packages/triton/language/standard.py":31:0)) -> i32 attributes {noinline = false} {
    %c16_i32 = arith.constant 16 : i32 loc(#loc87)
    %c16_i32_0 = arith.constant 16 : i32 loc(#loc87)
    %0 = arith.extsi %arg0 : i32 to i64 loc(#loc87)
    %1 = arith.extsi %c16_i32_0 : i32 to i64 loc(#loc87)
    %2 = arith.addi %0, %1 : i64 loc(#loc87)
    %c2147483647_i64 = arith.constant 2147483647 : i64 loc(#loc87)
    %c-2147483648_i64 = arith.constant -2147483648 : i64 loc(#loc87)
    %3 = arith.cmpi sle, %2, %c2147483647_i64 : i64 loc(#loc87)
    %4 = arith.cmpi sge, %2, %c-2147483648_i64 : i64 loc(#loc87)
    %5 = arith.andi %3, %4 : i1 loc(#loc87)
    %6 = arith.addi %arg0, %c16_i32_0 : i32 loc(#loc87)
    %c1_i32 = arith.constant 1 : i32 loc(#loc88)
    %c1_i32_1 = arith.constant 1 : i32 loc(#loc88)
    %7 = arith.extsi %6 : i32 to i64 loc(#loc88)
    %8 = arith.extsi %c1_i32_1 : i32 to i64 loc(#loc88)
    %9 = arith.subi %7, %8 : i64 loc(#loc88)
    %c2147483647_i64_2 = arith.constant 2147483647 : i64 loc(#loc88)
    %c-2147483648_i64_3 = arith.constant -2147483648 : i64 loc(#loc88)
    %10 = arith.cmpi sle, %9, %c2147483647_i64_2 : i64 loc(#loc88)
    %11 = arith.cmpi sge, %9, %c-2147483648_i64_3 : i64 loc(#loc88)
    %12 = arith.andi %10, %11 : i1 loc(#loc88)
    %13 = arith.subi %6, %c1_i32_1 : i32 loc(#loc88)
    %c16_i32_4 = arith.constant 16 : i32 loc(#loc89)
    %c16_i32_5 = arith.constant 16 : i32 loc(#loc89)
    %14 = arith.divsi %13, %c16_i32_5 : i32 loc(#loc89)
    tt.return %14 : i32 loc(#loc90)
  ^bb1:  // no predecessors
    %15 = ub.poison : i32 loc(#loc91)
    tt.return %15 : i32 loc(#loc91)
  } loc(#loc86)
} loc(#loc)
#loc1 = loc("examples/kernels/binary_ops.py":126:24)
#loc2 = loc("examples/kernels/binary_ops.py":127:27)
#loc3 = loc("examples/kernels/binary_ops.py":128:27)
#loc4 = loc("examples/kernels/binary_ops.py":129:38)
#loc5 = loc("examples/kernels/binary_ops.py":130:22)
#loc6 = loc("examples/kernels/binary_ops.py":131:29)
#loc7 = loc("examples/kernels/binary_ops.py":132:35)
#loc8 = loc("examples/kernels/binary_ops.py":132:48)
#loc9 = loc("examples/kernels/binary_ops.py":133:34)
#loc10 = loc("examples/kernels/binary_ops.py":133:54)
#loc11 = loc("examples/kernels/binary_ops.py":133:27)
#loc12 = loc("examples/kernels/binary_ops.py":134:19)
#loc13 = loc("examples/kernels/binary_ops.py":134:40)
#loc14 = loc("examples/kernels/binary_ops.py":140:23)
#loc15 = loc("examples/kernels/binary_ops.py":140:14)
#loc16 = loc("examples/kernels/binary_ops.py":141:23)
#loc17 = loc("examples/kernels/binary_ops.py":141:14)
#loc18 = loc("examples/kernels/binary_ops.py":142:26)
#loc19 = loc("examples/kernels/binary_ops.py":142:14)
#loc20 = loc("examples/kernels/binary_ops.py":143:14)
#loc21 = loc("examples/kernels/binary_ops.py":144:14)
#loc22 = loc("examples/kernels/binary_ops.py":145:26)
#loc23 = loc("examples/kernels/binary_ops.py":145:14)
#loc24 = loc("examples/kernels/binary_ops.py":146:26)
#loc25 = loc("examples/kernels/binary_ops.py":146:14)
#loc26 = loc("examples/kernels/binary_ops.py":147:14)
#loc27 = loc("examples/kernels/binary_ops.py":156:23)
#loc28 = loc("examples/kernels/binary_ops.py":156:51)
#loc29 = loc("examples/kernels/binary_ops.py":156:38)
#loc30 = loc("examples/kernels/binary_ops.py":156:68)
#loc31 = loc("examples/kernels/binary_ops.py":157:23)
#loc32 = loc("examples/kernels/binary_ops.py":157:51)
#loc33 = loc("examples/kernels/binary_ops.py":157:38)
#loc34 = loc("examples/kernels/binary_ops.py":157:68)
#loc35 = loc("examples/kernels/binary_ops.py":158:26)
#loc36 = loc("examples/kernels/binary_ops.py":159:30)
#loc37 = loc("examples/kernels/binary_ops.py":159:41)
#loc38 = loc("examples/kernels/binary_ops.py":159:60)
#loc39 = loc("examples/kernels/binary_ops.py":159:71)
#loc40 = loc("examples/kernels/binary_ops.py":159:53)
#loc41 = loc("examples/kernels/binary_ops.py":159:22)
#loc42 = loc("examples/kernels/binary_ops.py":160:29)
#loc43 = loc("examples/kernels/binary_ops.py":160:40)
#loc44 = loc("examples/kernels/binary_ops.py":160:60)
#loc45 = loc("examples/kernels/binary_ops.py":160:71)
#loc46 = loc("examples/kernels/binary_ops.py":160:52)
#loc47 = loc("examples/kernels/binary_ops.py":160:22)
#loc48 = loc("examples/kernels/binary_ops.py":167:27)
#loc49 = loc("examples/kernels/binary_ops.py":168:33)
#loc50 = loc("examples/kernels/binary_ops.py":168:22)
#loc51 = loc("examples/kernels/binary_ops.py":171:40)
#loc52 = loc("examples/kernels/binary_ops.py":171:59)
#loc53 = loc("examples/kernels/binary_ops.py":171:55)
#loc54 = loc("examples/kernels/binary_ops.py":171:51)
#loc55 = loc("examples/kernels/binary_ops.py":171:20)
#loc56 = loc("examples/kernels/binary_ops.py":172:40)
#loc57 = loc("examples/kernels/binary_ops.py":172:59)
#loc58 = loc("examples/kernels/binary_ops.py":172:55)
#loc59 = loc("examples/kernels/binary_ops.py":172:51)
#loc60 = loc("examples/kernels/binary_ops.py":172:20)
#loc61 = loc("examples/kernels/binary_ops.py":174:35)
#loc62 = loc("examples/kernels/binary_ops.py":176:18)
#loc63 = loc("examples/kernels/binary_ops.py":177:33)
#loc64 = loc("examples/kernels/binary_ops.py":177:18)
#loc65 = loc("examples/kernels/binary_ops.py":177:8)
#loc66 = loc("examples/kernels/binary_ops.py":182:23)
#loc67 = loc("examples/kernels/binary_ops.py":186:22)
#loc68 = loc("examples/kernels/binary_ops.py":186:50)
#loc69 = loc("examples/kernels/binary_ops.py":186:37)
#loc70 = loc("examples/kernels/binary_ops.py":187:22)
#loc71 = loc("examples/kernels/binary_ops.py":187:50)
#loc72 = loc("examples/kernels/binary_ops.py":187:37)
#loc73 = loc("examples/kernels/binary_ops.py":188:41)
#loc74 = loc("examples/kernels/binary_ops.py":188:33)
#loc75 = loc("examples/kernels/binary_ops.py":188:21)
#loc76 = loc("examples/kernels/binary_ops.py":188:72)
#loc77 = loc("examples/kernels/binary_ops.py":188:64)
#loc78 = loc("examples/kernels/binary_ops.py":188:52)
#loc79 = loc("examples/kernels/binary_ops.py":189:22)
#loc80 = loc("examples/kernels/binary_ops.py":189:33)
#loc81 = loc("examples/kernels/binary_ops.py":189:47)
#loc82 = loc("examples/kernels/binary_ops.py":189:58)
#loc83 = loc("examples/kernels/binary_ops.py":189:39)
#loc84 = loc("examples/kernels/binary_ops.py":190:21)
#loc85 = loc("examples/kernels/binary_ops.py":190:4)
#loc87 = loc("/home/ahmed/miniconda3/envs/torch-env/lib/python3.13/site-packages/triton/language/standard.py":40:16)
#loc88 = loc("/home/ahmed/miniconda3/envs/torch-env/lib/python3.13/site-packages/triton/language/standard.py":40:22)
#loc89 = loc("/home/ahmed/miniconda3/envs/torch-env/lib/python3.13/site-packages/triton/language/standard.py":40:28)
#loc90 = loc("/home/ahmed/miniconda3/envs/torch-env/lib/python3.13/site-packages/triton/language/standard.py":40:11)
#loc91 = loc("/home/ahmed/miniconda3/envs/torch-env/lib/python3.13/site-packages/triton/language/standard.py":40:4)
#loc92 = loc("/home/ahmed/miniconda3/envs/torch-env/lib/python3.13/site-packages/triton/language/standard.py":113:0)
#loc93 = loc("/home/ahmed/miniconda3/envs/torch-env/lib/python3.13/site-packages/triton/language/standard.py":122:31)
#loc94 = loc("/home/ahmed/miniconda3/envs/torch-env/lib/python3.13/site-packages/triton/language/standard.py":122:11)
#loc95 = loc("/home/ahmed/miniconda3/envs/torch-env/lib/python3.13/site-packages/triton/language/standard.py":122:4)


// -----// IR Dump Before Canonicalizer (canonicalize) ('tt.func' operation: @cdiv__i32__(1,)cconstexpr_32_) //----- //
#loc = loc("examples/kernels/binary_ops.py":103:0)
#loc86 = loc("/home/ahmed/miniconda3/envs/torch-env/lib/python3.13/site-packages/triton/language/standard.py":31:0)
module {
  tt.func public @matmul_kernel(%arg0: !tt.ptr<f32> {tt.divisibility = 16 : i32} loc("examples/kernels/binary_ops.py":103:0), %arg1: !tt.ptr<f32> {tt.divisibility = 16 : i32} loc("examples/kernels/binary_ops.py":103:0), %arg2: !tt.ptr<f16> {tt.divisibility = 16 : i32} loc("examples/kernels/binary_ops.py":103:0), %arg3: i32 {tt.divisibility = 16 : i32} loc("examples/kernels/binary_ops.py":103:0), %arg4: i32 {tt.divisibility = 16 : i32} loc("examples/kernels/binary_ops.py":103:0), %arg5: i32 loc("examples/kernels/binary_ops.py":103:0), %arg6: i32 loc("examples/kernels/binary_ops.py":103:0), %arg7: i32 {tt.divisibility = 16 : i32} loc("examples/kernels/binary_ops.py":103:0), %arg8: i32 {tt.divisibility = 16 : i32} loc("examples/kernels/binary_ops.py":103:0)) attributes {noinline = false} {
    %0 = tt.get_program_id x : i32 loc(#loc1)
    %1 = tt.call @"cdiv__i32__(1,)cconstexpr_32_"(%arg3) : (i32) -> i32 loc(#loc2)
    %2 = tt.call @"cdiv__i32__(1,)cconstexpr_32_"(%arg4) : (i32) -> i32 loc(#loc3)
    %c4_i32 = arith.constant 4 : i32 loc(#loc4)
    %c4_i32_0 = arith.constant 4 : i32 loc(#loc4)
    %3 = arith.extsi %c4_i32_0 : i32 to i64 loc(#loc4)
    %4 = arith.extsi %2 : i32 to i64 loc(#loc4)
    %5 = arith.muli %3, %4 : i64 loc(#loc4)
    %c2147483647_i64 = arith.constant 2147483647 : i64 loc(#loc4)
    %c-2147483648_i64 = arith.constant -2147483648 : i64 loc(#loc4)
    %6 = arith.cmpi sle, %5, %c2147483647_i64 : i64 loc(#loc4)
    %7 = arith.cmpi sge, %5, %c-2147483648_i64 : i64 loc(#loc4)
    %8 = arith.andi %6, %7 : i1 loc(#loc4)
    %9 = arith.muli %c4_i32_0, %2 : i32 loc(#loc4)
    %10 = arith.divsi %0, %9 : i32 loc(#loc5)
    %c4_i32_1 = arith.constant 4 : i32 loc(#loc6)
    %c4_i32_2 = arith.constant 4 : i32 loc(#loc6)
    %11 = arith.extsi %10 : i32 to i64 loc(#loc6)
    %12 = arith.extsi %c4_i32_2 : i32 to i64 loc(#loc6)
    %13 = arith.muli %11, %12 : i64 loc(#loc6)
    %c2147483647_i64_3 = arith.constant 2147483647 : i64 loc(#loc6)
    %c-2147483648_i64_4 = arith.constant -2147483648 : i64 loc(#loc6)
    %14 = arith.cmpi sle, %13, %c2147483647_i64_3 : i64 loc(#loc6)
    %15 = arith.cmpi sge, %13, %c-2147483648_i64_4 : i64 loc(#loc6)
    %16 = arith.andi %14, %15 : i1 loc(#loc6)
    %17 = arith.muli %10, %c4_i32_2 : i32 loc(#loc6)
    %18 = arith.extsi %1 : i32 to i64 loc(#loc7)
    %19 = arith.extsi %17 : i32 to i64 loc(#loc7)
    %20 = arith.subi %18, %19 : i64 loc(#loc7)
    %c2147483647_i64_5 = arith.constant 2147483647 : i64 loc(#loc7)
    %c-2147483648_i64_6 = arith.constant -2147483648 : i64 loc(#loc7)
    %21 = arith.cmpi sle, %20, %c2147483647_i64_5 : i64 loc(#loc7)
    %22 = arith.cmpi sge, %20, %c-2147483648_i64_6 : i64 loc(#loc7)
    %23 = arith.andi %21, %22 : i1 loc(#loc7)
    %24 = arith.subi %1, %17 : i32 loc(#loc7)
    %c4_i32_7 = arith.constant 4 : i32 loc(#loc8)
    %25 = arith.minsi %24, %c4_i32_7 : i32 loc(#loc8)
    %26 = arith.remsi %0, %9 : i32 loc(#loc9)
    %27 = arith.remsi %26, %25 : i32 loc(#loc10)
    %28 = arith.extsi %17 : i32 to i64 loc(#loc11)
    %29 = arith.extsi %27 : i32 to i64 loc(#loc11)
    %30 = arith.addi %28, %29 : i64 loc(#loc11)
    %c2147483647_i64_8 = arith.constant 2147483647 : i64 loc(#loc11)
    %c-2147483648_i64_9 = arith.constant -2147483648 : i64 loc(#loc11)
    %31 = arith.cmpi sle, %30, %c2147483647_i64_8 : i64 loc(#loc11)
    %32 = arith.cmpi sge, %30, %c-2147483648_i64_9 : i64 loc(#loc11)
    %33 = arith.andi %31, %32 : i1 loc(#loc11)
    %34 = arith.addi %17, %27 : i32 loc(#loc11)
    %35 = arith.remsi %0, %9 : i32 loc(#loc12)
    %36 = arith.divsi %35, %25 : i32 loc(#loc13)
    %c0_i32 = arith.constant 0 : i32 loc(#loc14)
    %37 = arith.cmpi sge, %34, %c0_i32 : i32 loc(#loc14)
    llvm.intr.assume %37 : i1 loc(#loc15)
    %c0_i32_10 = arith.constant 0 : i32 loc(#loc16)
    %38 = arith.cmpi sge, %36, %c0_i32_10 : i32 loc(#loc16)
    llvm.intr.assume %38 : i1 loc(#loc17)
    %c0_i32_11 = arith.constant 0 : i32 loc(#loc18)
    %39 = arith.cmpi sgt, %arg6, %c0_i32_11 : i32 loc(#loc18)
    llvm.intr.assume %39 : i1 loc(#loc19)
    %true = arith.constant true loc(#loc20)
    llvm.intr.assume %true : i1 loc(#loc20)
    %true_12 = arith.constant true loc(#loc21)
    llvm.intr.assume %true_12 : i1 loc(#loc21)
    %c0_i32_13 = arith.constant 0 : i32 loc(#loc22)
    %40 = arith.cmpi sgt, %arg7, %c0_i32_13 : i32 loc(#loc22)
    llvm.intr.assume %40 : i1 loc(#loc23)
    %c0_i32_14 = arith.constant 0 : i32 loc(#loc24)
    %41 = arith.cmpi sgt, %arg8, %c0_i32_14 : i32 loc(#loc24)
    llvm.intr.assume %41 : i1 loc(#loc25)
    %true_15 = arith.constant true loc(#loc26)
    llvm.intr.assume %true_15 : i1 loc(#loc26)
    %c32_i32 = arith.constant 32 : i32 loc(#loc27)
    %c32_i32_16 = arith.constant 32 : i32 loc(#loc27)
    %42 = arith.extsi %34 : i32 to i64 loc(#loc27)
    %43 = arith.extsi %c32_i32_16 : i32 to i64 loc(#loc27)
    %44 = arith.muli %42, %43 : i64 loc(#loc27)
    %c2147483647_i64_17 = arith.constant 2147483647 : i64 loc(#loc27)
    %c-2147483648_i64_18 = arith.constant -2147483648 : i64 loc(#loc27)
    %45 = arith.cmpi sle, %44, %c2147483647_i64_17 : i64 loc(#loc27)
    %46 = arith.cmpi sge, %44, %c-2147483648_i64_18 : i64 loc(#loc27)
    %47 = arith.andi %45, %46 : i1 loc(#loc27)
    %48 = arith.muli %34, %c32_i32_16 : i32 loc(#loc27)
    %49 = tt.make_range {end = 32 : i32, start = 0 : i32} : tensor<32xi32> loc(#loc28)
    %50 = tt.splat %48 : i32 -> tensor<32xi32> loc(#loc29)
    %51 = arith.extsi %50 : tensor<32xi32> to tensor<32xi64> loc(#loc29)
    %52 = arith.extsi %49 : tensor<32xi32> to tensor<32xi64> loc(#loc29)
    %53 = arith.addi %51, %52 : tensor<32xi64> loc(#loc29)
    %c2147483647_i64_19 = arith.constant 2147483647 : i64 loc(#loc29)
    %c-2147483648_i64_20 = arith.constant -2147483648 : i64 loc(#loc29)
    %cst = arith.constant dense<2147483647> : tensor<32xi64> loc(#loc29)
    %54 = arith.cmpi sle, %53, %cst : tensor<32xi64> loc(#loc29)
    %cst_21 = arith.constant dense<-2147483648> : tensor<32xi64> loc(#loc29)
    %55 = arith.cmpi sge, %53, %cst_21 : tensor<32xi64> loc(#loc29)
    %56 = arith.andi %54, %55 : tensor<32xi1> loc(#loc29)
    %57 = arith.addi %50, %49 : tensor<32xi32> loc(#loc29)
    %58 = tt.splat %arg3 : i32 -> tensor<32xi32> loc(#loc30)
    %59 = arith.remsi %57, %58 : tensor<32xi32> loc(#loc30)
    %c32_i32_22 = arith.constant 32 : i32 loc(#loc31)
    %c32_i32_23 = arith.constant 32 : i32 loc(#loc31)
    %60 = arith.extsi %36 : i32 to i64 loc(#loc31)
    %61 = arith.extsi %c32_i32_23 : i32 to i64 loc(#loc31)
    %62 = arith.muli %60, %61 : i64 loc(#loc31)
    %c2147483647_i64_24 = arith.constant 2147483647 : i64 loc(#loc31)
    %c-2147483648_i64_25 = arith.constant -2147483648 : i64 loc(#loc31)
    %63 = arith.cmpi sle, %62, %c2147483647_i64_24 : i64 loc(#loc31)
    %64 = arith.cmpi sge, %62, %c-2147483648_i64_25 : i64 loc(#loc31)
    %65 = arith.andi %63, %64 : i1 loc(#loc31)
    %66 = arith.muli %36, %c32_i32_23 : i32 loc(#loc31)
    %67 = tt.make_range {end = 32 : i32, start = 0 : i32} : tensor<32xi32> loc(#loc32)
    %68 = tt.splat %66 : i32 -> tensor<32xi32> loc(#loc33)
    %69 = arith.extsi %68 : tensor<32xi32> to tensor<32xi64> loc(#loc33)
    %70 = arith.extsi %67 : tensor<32xi32> to tensor<32xi64> loc(#loc33)
    %71 = arith.addi %69, %70 : tensor<32xi64> loc(#loc33)
    %c2147483647_i64_26 = arith.constant 2147483647 : i64 loc(#loc33)
    %c-2147483648_i64_27 = arith.constant -2147483648 : i64 loc(#loc33)
    %cst_28 = arith.constant dense<2147483647> : tensor<32xi64> loc(#loc33)
    %72 = arith.cmpi sle, %71, %cst_28 : tensor<32xi64> loc(#loc33)
    %cst_29 = arith.constant dense<-2147483648> : tensor<32xi64> loc(#loc33)
    %73 = arith.cmpi sge, %71, %cst_29 : tensor<32xi64> loc(#loc33)
    %74 = arith.andi %72, %73 : tensor<32xi1> loc(#loc33)
    %75 = arith.addi %68, %67 : tensor<32xi32> loc(#loc33)
    %76 = tt.splat %arg4 : i32 -> tensor<32xi32> loc(#loc34)
    %77 = arith.remsi %75, %76 : tensor<32xi32> loc(#loc34)
    %78 = tt.make_range {end = 16 : i32, start = 0 : i32} : tensor<16xi32> loc(#loc35)
    %79 = tt.expand_dims %59 {axis = 1 : i32} : tensor<32xi32> -> tensor<32x1xi32> loc(#loc36)
    %80 = tt.splat %arg6 : i32 -> tensor<32x1xi32> loc(#loc37)
    %81 = arith.extsi %79 : tensor<32x1xi32> to tensor<32x1xi64> loc(#loc37)
    %82 = arith.extsi %80 : tensor<32x1xi32> to tensor<32x1xi64> loc(#loc37)
    %83 = arith.muli %81, %82 : tensor<32x1xi64> loc(#loc37)
    %c2147483647_i64_30 = arith.constant 2147483647 : i64 loc(#loc37)
    %c-2147483648_i64_31 = arith.constant -2147483648 : i64 loc(#loc37)
    %cst_32 = arith.constant dense<2147483647> : tensor<32x1xi64> loc(#loc37)
    %84 = arith.cmpi sle, %83, %cst_32 : tensor<32x1xi64> loc(#loc37)
    %cst_33 = arith.constant dense<-2147483648> : tensor<32x1xi64> loc(#loc37)
    %85 = arith.cmpi sge, %83, %cst_33 : tensor<32x1xi64> loc(#loc37)
    %86 = arith.andi %84, %85 : tensor<32x1xi1> loc(#loc37)
    %87 = arith.muli %79, %80 : tensor<32x1xi32> loc(#loc37)
    %88 = tt.expand_dims %78 {axis = 0 : i32} : tensor<16xi32> -> tensor<1x16xi32> loc(#loc38)
    %c1_i32 = arith.constant 1 : i32 loc(#loc39)
    %c1_i32_34 = arith.constant 1 : i32 loc(#loc39)
    %cst_35 = arith.constant dense<1> : tensor<1x16xi32> loc(#loc39)
    %89 = arith.extsi %88 : tensor<1x16xi32> to tensor<1x16xi64> loc(#loc39)
    %90 = arith.extsi %cst_35 : tensor<1x16xi32> to tensor<1x16xi64> loc(#loc39)
    %91 = arith.muli %89, %90 : tensor<1x16xi64> loc(#loc39)
    %c2147483647_i64_36 = arith.constant 2147483647 : i64 loc(#loc39)
    %c-2147483648_i64_37 = arith.constant -2147483648 : i64 loc(#loc39)
    %cst_38 = arith.constant dense<2147483647> : tensor<1x16xi64> loc(#loc39)
    %92 = arith.cmpi sle, %91, %cst_38 : tensor<1x16xi64> loc(#loc39)
    %cst_39 = arith.constant dense<-2147483648> : tensor<1x16xi64> loc(#loc39)
    %93 = arith.cmpi sge, %91, %cst_39 : tensor<1x16xi64> loc(#loc39)
    %94 = arith.andi %92, %93 : tensor<1x16xi1> loc(#loc39)
    %95 = arith.muli %88, %cst_35 : tensor<1x16xi32> loc(#loc39)
    %96 = tt.broadcast %87 : tensor<32x1xi32> -> tensor<32x16xi32> loc(#loc40)
    %97 = tt.broadcast %95 : tensor<1x16xi32> -> tensor<32x16xi32> loc(#loc40)
    %98 = arith.extsi %96 : tensor<32x16xi32> to tensor<32x16xi64> loc(#loc40)
    %99 = arith.extsi %97 : tensor<32x16xi32> to tensor<32x16xi64> loc(#loc40)
    %100 = arith.addi %98, %99 : tensor<32x16xi64> loc(#loc40)
    %c2147483647_i64_40 = arith.constant 2147483647 : i64 loc(#loc40)
    %c-2147483648_i64_41 = arith.constant -2147483648 : i64 loc(#loc40)
    %cst_42 = arith.constant dense<2147483647> : tensor<32x16xi64> loc(#loc40)
    %101 = arith.cmpi sle, %100, %cst_42 : tensor<32x16xi64> loc(#loc40)
    %cst_43 = arith.constant dense<-2147483648> : tensor<32x16xi64> loc(#loc40)
    %102 = arith.cmpi sge, %100, %cst_43 : tensor<32x16xi64> loc(#loc40)
    %103 = arith.andi %101, %102 : tensor<32x16xi1> loc(#loc40)
    %104 = arith.addi %96, %97 : tensor<32x16xi32> loc(#loc40)
    %105 = tt.splat %arg0 : !tt.ptr<f32> -> tensor<32x16x!tt.ptr<f32>> loc(#loc41)
    %106 = tt.addptr %105, %104 : tensor<32x16x!tt.ptr<f32>>, tensor<32x16xi32> loc(#loc41)
    %107 = tt.expand_dims %78 {axis = 1 : i32} : tensor<16xi32> -> tensor<16x1xi32> loc(#loc42)
    %108 = tt.splat %arg7 : i32 -> tensor<16x1xi32> loc(#loc43)
    %109 = arith.extsi %107 : tensor<16x1xi32> to tensor<16x1xi64> loc(#loc43)
    %110 = arith.extsi %108 : tensor<16x1xi32> to tensor<16x1xi64> loc(#loc43)
    %111 = arith.muli %109, %110 : tensor<16x1xi64> loc(#loc43)
    %c2147483647_i64_44 = arith.constant 2147483647 : i64 loc(#loc43)
    %c-2147483648_i64_45 = arith.constant -2147483648 : i64 loc(#loc43)
    %cst_46 = arith.constant dense<2147483647> : tensor<16x1xi64> loc(#loc43)
    %112 = arith.cmpi sle, %111, %cst_46 : tensor<16x1xi64> loc(#loc43)
    %cst_47 = arith.constant dense<-2147483648> : tensor<16x1xi64> loc(#loc43)
    %113 = arith.cmpi sge, %111, %cst_47 : tensor<16x1xi64> loc(#loc43)
    %114 = arith.andi %112, %113 : tensor<16x1xi1> loc(#loc43)
    %115 = arith.muli %107, %108 : tensor<16x1xi32> loc(#loc43)
    %116 = tt.expand_dims %77 {axis = 0 : i32} : tensor<32xi32> -> tensor<1x32xi32> loc(#loc44)
    %c1_i32_48 = arith.constant 1 : i32 loc(#loc45)
    %c1_i32_49 = arith.constant 1 : i32 loc(#loc45)
    %cst_50 = arith.constant dense<1> : tensor<1x32xi32> loc(#loc45)
    %117 = arith.extsi %116 : tensor<1x32xi32> to tensor<1x32xi64> loc(#loc45)
    %118 = arith.extsi %cst_50 : tensor<1x32xi32> to tensor<1x32xi64> loc(#loc45)
    %119 = arith.muli %117, %118 : tensor<1x32xi64> loc(#loc45)
    %c2147483647_i64_51 = arith.constant 2147483647 : i64 loc(#loc45)
    %c-2147483648_i64_52 = arith.constant -2147483648 : i64 loc(#loc45)
    %cst_53 = arith.constant dense<2147483647> : tensor<1x32xi64> loc(#loc45)
    %120 = arith.cmpi sle, %119, %cst_53 : tensor<1x32xi64> loc(#loc45)
    %cst_54 = arith.constant dense<-2147483648> : tensor<1x32xi64> loc(#loc45)
    %121 = arith.cmpi sge, %119, %cst_54 : tensor<1x32xi64> loc(#loc45)
    %122 = arith.andi %120, %121 : tensor<1x32xi1> loc(#loc45)
    %123 = arith.muli %116, %cst_50 : tensor<1x32xi32> loc(#loc45)
    %124 = tt.broadcast %115 : tensor<16x1xi32> -> tensor<16x32xi32> loc(#loc46)
    %125 = tt.broadcast %123 : tensor<1x32xi32> -> tensor<16x32xi32> loc(#loc46)
    %126 = arith.extsi %124 : tensor<16x32xi32> to tensor<16x32xi64> loc(#loc46)
    %127 = arith.extsi %125 : tensor<16x32xi32> to tensor<16x32xi64> loc(#loc46)
    %128 = arith.addi %126, %127 : tensor<16x32xi64> loc(#loc46)
    %c2147483647_i64_55 = arith.constant 2147483647 : i64 loc(#loc46)
    %c-2147483648_i64_56 = arith.constant -2147483648 : i64 loc(#loc46)
    %cst_57 = arith.constant dense<2147483647> : tensor<16x32xi64> loc(#loc46)
    %129 = arith.cmpi sle, %128, %cst_57 : tensor<16x32xi64> loc(#loc46)
    %cst_58 = arith.constant dense<-2147483648> : tensor<16x32xi64> loc(#loc46)
    %130 = arith.cmpi sge, %128, %cst_58 : tensor<16x32xi64> loc(#loc46)
    %131 = arith.andi %129, %130 : tensor<16x32xi1> loc(#loc46)
    %132 = arith.addi %124, %125 : tensor<16x32xi32> loc(#loc46)
    %133 = tt.splat %arg1 : !tt.ptr<f32> -> tensor<16x32x!tt.ptr<f32>> loc(#loc47)
    %134 = tt.addptr %133, %132 : tensor<16x32x!tt.ptr<f32>>, tensor<16x32xi32> loc(#loc47)
    %135 = tt.call @"zeros____(0, 0)cconstexpr_32__(0, 1)cconstexpr_32__(1,)cconstexpr_fp32_"() : () -> tensor<32x32xf32> loc(#loc48)
    %136 = tt.call @"cdiv__i32__(1,)cconstexpr_16_"(%arg5) : (i32) -> i32 loc(#loc49)
    %c0_i32_59 = arith.constant 0 : i32 loc(#loc50)
    %c1_i32_60 = arith.constant 1 : i32 loc(#loc50)
    %137 = arith.bitcast %c0_i32_59 : i32 to i32 loc(#loc50)
    %138 = arith.bitcast %136 : i32 to i32 loc(#loc50)
    %139 = arith.bitcast %c1_i32_60 : i32 to i32 loc(#loc50)
    %140 = ub.poison : i32 loc(#loc50)
    %141:3 = scf.for %arg9 = %137 to %138 step %139 iter_args(%arg10 = %135, %arg11 = %106, %arg12 = %134) -> (tensor<32x32xf32>, tensor<32x16x!tt.ptr<f32>>, tensor<16x32x!tt.ptr<f32>>)  : i32 {
      %206 = tt.expand_dims %78 {axis = 0 : i32} : tensor<16xi32> -> tensor<1x16xi32> loc(#loc51)
      %c16_i32 = arith.constant 16 : i32 loc(#loc52)
      %c16_i32_88 = arith.constant 16 : i32 loc(#loc52)
      %207 = arith.extsi %arg9 : i32 to i64 loc(#loc52)
      %208 = arith.extsi %c16_i32_88 : i32 to i64 loc(#loc52)
      %209 = arith.muli %207, %208 : i64 loc(#loc52)
      %c2147483647_i64_89 = arith.constant 2147483647 : i64 loc(#loc52)
      %c-2147483648_i64_90 = arith.constant -2147483648 : i64 loc(#loc52)
      %210 = arith.cmpi sle, %209, %c2147483647_i64_89 : i64 loc(#loc52)
      %211 = arith.cmpi sge, %209, %c-2147483648_i64_90 : i64 loc(#loc52)
      %212 = arith.andi %210, %211 : i1 loc(#loc52)
      %213 = arith.muli %arg9, %c16_i32_88 : i32 loc(#loc52)
      %214 = arith.extsi %arg5 : i32 to i64 loc(#loc53)
      %215 = arith.extsi %213 : i32 to i64 loc(#loc53)
      %216 = arith.subi %214, %215 : i64 loc(#loc53)
      %c2147483647_i64_91 = arith.constant 2147483647 : i64 loc(#loc53)
      %c-2147483648_i64_92 = arith.constant -2147483648 : i64 loc(#loc53)
      %217 = arith.cmpi sle, %216, %c2147483647_i64_91 : i64 loc(#loc53)
      %218 = arith.cmpi sge, %216, %c-2147483648_i64_92 : i64 loc(#loc53)
      %219 = arith.andi %217, %218 : i1 loc(#loc53)
      %220 = arith.subi %arg5, %213 : i32 loc(#loc53)
      %221 = tt.splat %220 : i32 -> tensor<1x16xi32> loc(#loc54)
      %222 = arith.cmpi slt, %206, %221 : tensor<1x16xi32> loc(#loc54)
      %cst_93 = arith.constant 0.000000e+00 : f32 loc(#loc55)
      %223 = tt.broadcast %222 : tensor<1x16xi1> -> tensor<32x16xi1> loc(#loc55)
      %cst_94 = arith.constant dense<0.000000e+00> : tensor<32x16xf32> loc(#loc55)
      %224 = tt.load %arg11, %223, %cst_94 : tensor<32x16x!tt.ptr<f32>> loc(#loc55)
      %225 = tt.expand_dims %78 {axis = 1 : i32} : tensor<16xi32> -> tensor<16x1xi32> loc(#loc56)
      %c16_i32_95 = arith.constant 16 : i32 loc(#loc57)
      %c16_i32_96 = arith.constant 16 : i32 loc(#loc57)
      %226 = arith.extsi %arg9 : i32 to i64 loc(#loc57)
      %227 = arith.extsi %c16_i32_96 : i32 to i64 loc(#loc57)
      %228 = arith.muli %226, %227 : i64 loc(#loc57)
      %c2147483647_i64_97 = arith.constant 2147483647 : i64 loc(#loc57)
      %c-2147483648_i64_98 = arith.constant -2147483648 : i64 loc(#loc57)
      %229 = arith.cmpi sle, %228, %c2147483647_i64_97 : i64 loc(#loc57)
      %230 = arith.cmpi sge, %228, %c-2147483648_i64_98 : i64 loc(#loc57)
      %231 = arith.andi %229, %230 : i1 loc(#loc57)
      %232 = arith.muli %arg9, %c16_i32_96 : i32 loc(#loc57)
      %233 = arith.extsi %arg5 : i32 to i64 loc(#loc58)
      %234 = arith.extsi %232 : i32 to i64 loc(#loc58)
      %235 = arith.subi %233, %234 : i64 loc(#loc58)
      %c2147483647_i64_99 = arith.constant 2147483647 : i64 loc(#loc58)
      %c-2147483648_i64_100 = arith.constant -2147483648 : i64 loc(#loc58)
      %236 = arith.cmpi sle, %235, %c2147483647_i64_99 : i64 loc(#loc58)
      %237 = arith.cmpi sge, %235, %c-2147483648_i64_100 : i64 loc(#loc58)
      %238 = arith.andi %236, %237 : i1 loc(#loc58)
      %239 = arith.subi %arg5, %232 : i32 loc(#loc58)
      %240 = tt.splat %239 : i32 -> tensor<16x1xi32> loc(#loc59)
      %241 = arith.cmpi slt, %225, %240 : tensor<16x1xi32> loc(#loc59)
      %cst_101 = arith.constant 0.000000e+00 : f32 loc(#loc60)
      %242 = tt.broadcast %241 : tensor<16x1xi1> -> tensor<16x32xi1> loc(#loc60)
      %cst_102 = arith.constant dense<0.000000e+00> : tensor<16x32xf32> loc(#loc60)
      %243 = tt.load %arg12, %242, %cst_102 : tensor<16x32x!tt.ptr<f32>> loc(#loc60)
      %cst_103 = arith.constant 0.000000e+00 : f32 loc(#loc61)
      %244 = tt.dot %224, %243, %arg10, inputPrecision = tf32 : tensor<32x16xf32> * tensor<16x32xf32> -> tensor<32x32xf32> loc(#loc61)
      %c16_i32_104 = arith.constant 16 : i32 loc(#loc62)
      %cst_105 = arith.constant dense<16> : tensor<32x16xi32> loc(#loc62)
      %245 = tt.addptr %arg11, %cst_105 : tensor<32x16x!tt.ptr<f32>>, tensor<32x16xi32> loc(#loc62)
      %c16_i32_106 = arith.constant 16 : i32 loc(#loc63)
      %c16_i32_107 = arith.constant 16 : i32 loc(#loc63)
      %246 = arith.extsi %c16_i32_107 : i32 to i64 loc(#loc63)
      %247 = arith.extsi %arg7 : i32 to i64 loc(#loc63)
      %248 = arith.muli %246, %247 : i64 loc(#loc63)
      %c2147483647_i64_108 = arith.constant 2147483647 : i64 loc(#loc63)
      %c-2147483648_i64_109 = arith.constant -2147483648 : i64 loc(#loc63)
      %249 = arith.cmpi sle, %248, %c2147483647_i64_108 : i64 loc(#loc63)
      %250 = arith.cmpi sge, %248, %c-2147483648_i64_109 : i64 loc(#loc63)
      %251 = arith.andi %249, %250 : i1 loc(#loc63)
      %252 = arith.muli %c16_i32_107, %arg7 : i32 loc(#loc63)
      %253 = tt.splat %252 : i32 -> tensor<16x32xi32> loc(#loc64)
      %254 = tt.addptr %arg12, %253 : tensor<16x32x!tt.ptr<f32>>, tensor<16x32xi32> loc(#loc64)
      scf.yield %244, %245, %254 : tensor<32x32xf32>, tensor<32x16x!tt.ptr<f32>>, tensor<16x32x!tt.ptr<f32>> loc(#loc65)
    } loc(#loc50)
    %142 = arith.truncf %141#0 : tensor<32x32xf32> to tensor<32x32xf16> loc(#loc66)
    %c32_i32_61 = arith.constant 32 : i32 loc(#loc67)
    %c32_i32_62 = arith.constant 32 : i32 loc(#loc67)
    %143 = arith.extsi %34 : i32 to i64 loc(#loc67)
    %144 = arith.extsi %c32_i32_62 : i32 to i64 loc(#loc67)
    %145 = arith.muli %143, %144 : i64 loc(#loc67)
    %c2147483647_i64_63 = arith.constant 2147483647 : i64 loc(#loc67)
    %c-2147483648_i64_64 = arith.constant -2147483648 : i64 loc(#loc67)
    %146 = arith.cmpi sle, %145, %c2147483647_i64_63 : i64 loc(#loc67)
    %147 = arith.cmpi sge, %145, %c-2147483648_i64_64 : i64 loc(#loc67)
    %148 = arith.andi %146, %147 : i1 loc(#loc67)
    %149 = arith.muli %34, %c32_i32_62 : i32 loc(#loc67)
    %150 = tt.make_range {end = 32 : i32, start = 0 : i32} : tensor<32xi32> loc(#loc68)
    %151 = tt.splat %149 : i32 -> tensor<32xi32> loc(#loc69)
    %152 = arith.extsi %151 : tensor<32xi32> to tensor<32xi64> loc(#loc69)
    %153 = arith.extsi %150 : tensor<32xi32> to tensor<32xi64> loc(#loc69)
    %154 = arith.addi %152, %153 : tensor<32xi64> loc(#loc69)
    %c2147483647_i64_65 = arith.constant 2147483647 : i64 loc(#loc69)
    %c-2147483648_i64_66 = arith.constant -2147483648 : i64 loc(#loc69)
    %cst_67 = arith.constant dense<2147483647> : tensor<32xi64> loc(#loc69)
    %155 = arith.cmpi sle, %154, %cst_67 : tensor<32xi64> loc(#loc69)
    %cst_68 = arith.constant dense<-2147483648> : tensor<32xi64> loc(#loc69)
    %156 = arith.cmpi sge, %154, %cst_68 : tensor<32xi64> loc(#loc69)
    %157 = arith.andi %155, %156 : tensor<32xi1> loc(#loc69)
    %158 = arith.addi %151, %150 : tensor<32xi32> loc(#loc69)
    %c32_i32_69 = arith.constant 32 : i32 loc(#loc70)
    %c32_i32_70 = arith.constant 32 : i32 loc(#loc70)
    %159 = arith.extsi %36 : i32 to i64 loc(#loc70)
    %160 = arith.extsi %c32_i32_70 : i32 to i64 loc(#loc70)
    %161 = arith.muli %159, %160 : i64 loc(#loc70)
    %c2147483647_i64_71 = arith.constant 2147483647 : i64 loc(#loc70)
    %c-2147483648_i64_72 = arith.constant -2147483648 : i64 loc(#loc70)
    %162 = arith.cmpi sle, %161, %c2147483647_i64_71 : i64 loc(#loc70)
    %163 = arith.cmpi sge, %161, %c-2147483648_i64_72 : i64 loc(#loc70)
    %164 = arith.andi %162, %163 : i1 loc(#loc70)
    %165 = arith.muli %36, %c32_i32_70 : i32 loc(#loc70)
    %166 = tt.make_range {end = 32 : i32, start = 0 : i32} : tensor<32xi32> loc(#loc71)
    %167 = tt.splat %165 : i32 -> tensor<32xi32> loc(#loc72)
    %168 = arith.extsi %167 : tensor<32xi32> to tensor<32xi64> loc(#loc72)
    %169 = arith.extsi %166 : tensor<32xi32> to tensor<32xi64> loc(#loc72)
    %170 = arith.addi %168, %169 : tensor<32xi64> loc(#loc72)
    %c2147483647_i64_73 = arith.constant 2147483647 : i64 loc(#loc72)
    %c-2147483648_i64_74 = arith.constant -2147483648 : i64 loc(#loc72)
    %cst_75 = arith.constant dense<2147483647> : tensor<32xi64> loc(#loc72)
    %171 = arith.cmpi sle, %170, %cst_75 : tensor<32xi64> loc(#loc72)
    %cst_76 = arith.constant dense<-2147483648> : tensor<32xi64> loc(#loc72)
    %172 = arith.cmpi sge, %170, %cst_76 : tensor<32xi64> loc(#loc72)
    %173 = arith.andi %171, %172 : tensor<32xi1> loc(#loc72)
    %174 = arith.addi %167, %166 : tensor<32xi32> loc(#loc72)
    %175 = tt.expand_dims %158 {axis = 1 : i32} : tensor<32xi32> -> tensor<32x1xi32> loc(#loc73)
    %176 = tt.splat %arg8 : i32 -> tensor<32x1xi32> loc(#loc74)
    %177 = arith.extsi %176 : tensor<32x1xi32> to tensor<32x1xi64> loc(#loc74)
    %178 = arith.extsi %175 : tensor<32x1xi32> to tensor<32x1xi64> loc(#loc74)
    %179 = arith.muli %177, %178 : tensor<32x1xi64> loc(#loc74)
    %c2147483647_i64_77 = arith.constant 2147483647 : i64 loc(#loc74)
    %c-2147483648_i64_78 = arith.constant -2147483648 : i64 loc(#loc74)
    %cst_79 = arith.constant dense<2147483647> : tensor<32x1xi64> loc(#loc74)
    %180 = arith.cmpi sle, %179, %cst_79 : tensor<32x1xi64> loc(#loc74)
    %cst_80 = arith.constant dense<-2147483648> : tensor<32x1xi64> loc(#loc74)
    %181 = arith.cmpi sge, %179, %cst_80 : tensor<32x1xi64> loc(#loc74)
    %182 = arith.andi %180, %181 : tensor<32x1xi1> loc(#loc74)
    %183 = arith.muli %176, %175 : tensor<32x1xi32> loc(#loc74)
    %184 = tt.splat %arg2 : !tt.ptr<f16> -> tensor<32x1x!tt.ptr<f16>> loc(#loc75)
    %185 = tt.addptr %184, %183 : tensor<32x1x!tt.ptr<f16>>, tensor<32x1xi32> loc(#loc75)
    %186 = tt.expand_dims %174 {axis = 0 : i32} : tensor<32xi32> -> tensor<1x32xi32> loc(#loc76)
    %c1_i32_81 = arith.constant 1 : i32 loc(#loc77)
    %c1_i32_82 = arith.constant 1 : i32 loc(#loc77)
    %cst_83 = arith.constant dense<1> : tensor<1x32xi32> loc(#loc77)
    %187 = arith.extsi %cst_83 : tensor<1x32xi32> to tensor<1x32xi64> loc(#loc77)
    %188 = arith.extsi %186 : tensor<1x32xi32> to tensor<1x32xi64> loc(#loc77)
    %189 = arith.muli %187, %188 : tensor<1x32xi64> loc(#loc77)
    %c2147483647_i64_84 = arith.constant 2147483647 : i64 loc(#loc77)
    %c-2147483648_i64_85 = arith.constant -2147483648 : i64 loc(#loc77)
    %cst_86 = arith.constant dense<2147483647> : tensor<1x32xi64> loc(#loc77)
    %190 = arith.cmpi sle, %189, %cst_86 : tensor<1x32xi64> loc(#loc77)
    %cst_87 = arith.constant dense<-2147483648> : tensor<1x32xi64> loc(#loc77)
    %191 = arith.cmpi sge, %189, %cst_87 : tensor<1x32xi64> loc(#loc77)
    %192 = arith.andi %190, %191 : tensor<1x32xi1> loc(#loc77)
    %193 = arith.muli %cst_83, %186 : tensor<1x32xi32> loc(#loc77)
    %194 = tt.broadcast %185 : tensor<32x1x!tt.ptr<f16>> -> tensor<32x32x!tt.ptr<f16>> loc(#loc78)
    %195 = tt.broadcast %193 : tensor<1x32xi32> -> tensor<32x32xi32> loc(#loc78)
    %196 = tt.addptr %194, %195 : tensor<32x32x!tt.ptr<f16>>, tensor<32x32xi32> loc(#loc78)
    %197 = tt.expand_dims %158 {axis = 1 : i32} : tensor<32xi32> -> tensor<32x1xi32> loc(#loc79)
    %198 = tt.splat %arg3 : i32 -> tensor<32x1xi32> loc(#loc80)
    %199 = arith.cmpi slt, %197, %198 : tensor<32x1xi32> loc(#loc80)
    %200 = tt.expand_dims %174 {axis = 0 : i32} : tensor<32xi32> -> tensor<1x32xi32> loc(#loc81)
    %201 = tt.splat %arg4 : i32 -> tensor<1x32xi32> loc(#loc82)
    %202 = arith.cmpi slt, %200, %201 : tensor<1x32xi32> loc(#loc82)
    %203 = tt.broadcast %199 : tensor<32x1xi1> -> tensor<32x32xi1> loc(#loc83)
    %204 = tt.broadcast %202 : tensor<1x32xi1> -> tensor<32x32xi1> loc(#loc83)
    %205 = arith.andi %203, %204 : tensor<32x32xi1> loc(#loc83)
    tt.store %196, %142, %205 : tensor<32x32x!tt.ptr<f16>> loc(#loc84)
    tt.return loc(#loc85)
  } loc(#loc)
  tt.func private @"cdiv__i32__(1,)cconstexpr_32_"(%arg0: i32 loc("/home/ahmed/miniconda3/envs/torch-env/lib/python3.13/site-packages/triton/language/standard.py":31:0)) -> i32 attributes {noinline = false} {
    %c32_i32 = arith.constant 32 : i32 loc(#loc87)
    %c32_i32_0 = arith.constant 32 : i32 loc(#loc87)
    %0 = arith.extsi %arg0 : i32 to i64 loc(#loc87)
    %1 = arith.extsi %c32_i32_0 : i32 to i64 loc(#loc87)
    %2 = arith.addi %0, %1 : i64 loc(#loc87)
    %c2147483647_i64 = arith.constant 2147483647 : i64 loc(#loc87)
    %c-2147483648_i64 = arith.constant -2147483648 : i64 loc(#loc87)
    %3 = arith.cmpi sle, %2, %c2147483647_i64 : i64 loc(#loc87)
    %4 = arith.cmpi sge, %2, %c-2147483648_i64 : i64 loc(#loc87)
    %5 = arith.andi %3, %4 : i1 loc(#loc87)
    %6 = arith.addi %arg0, %c32_i32_0 : i32 loc(#loc87)
    %c1_i32 = arith.constant 1 : i32 loc(#loc88)
    %c1_i32_1 = arith.constant 1 : i32 loc(#loc88)
    %7 = arith.extsi %6 : i32 to i64 loc(#loc88)
    %8 = arith.extsi %c1_i32_1 : i32 to i64 loc(#loc88)
    %9 = arith.subi %7, %8 : i64 loc(#loc88)
    %c2147483647_i64_2 = arith.constant 2147483647 : i64 loc(#loc88)
    %c-2147483648_i64_3 = arith.constant -2147483648 : i64 loc(#loc88)
    %10 = arith.cmpi sle, %9, %c2147483647_i64_2 : i64 loc(#loc88)
    %11 = arith.cmpi sge, %9, %c-2147483648_i64_3 : i64 loc(#loc88)
    %12 = arith.andi %10, %11 : i1 loc(#loc88)
    %13 = arith.subi %6, %c1_i32_1 : i32 loc(#loc88)
    %c32_i32_4 = arith.constant 32 : i32 loc(#loc89)
    %c32_i32_5 = arith.constant 32 : i32 loc(#loc89)
    %14 = arith.divsi %13, %c32_i32_5 : i32 loc(#loc89)
    tt.return %14 : i32 loc(#loc90)
  ^bb1:  // no predecessors
    %15 = ub.poison : i32 loc(#loc91)
    tt.return %15 : i32 loc(#loc91)
  } loc(#loc86)
  tt.func private @"zeros____(0, 0)cconstexpr_32__(0, 1)cconstexpr_32__(1,)cconstexpr_fp32_"() -> tensor<32x32xf32> attributes {noinline = false} {
    %cst = arith.constant 0.000000e+00 : f32 loc(#loc93)
    %cst_0 = arith.constant dense<0.000000e+00> : tensor<32x32xf32> loc(#loc93)
    tt.return %cst_0 : tensor<32x32xf32> loc(#loc94)
  ^bb1:  // no predecessors
    %0 = ub.poison : tensor<32x32xf32> loc(#loc95)
    tt.return %0 : tensor<32x32xf32> loc(#loc95)
  } loc(#loc92)
  tt.func private @"cdiv__i32__(1,)cconstexpr_16_"(%arg0: i32 loc("/home/ahmed/miniconda3/envs/torch-env/lib/python3.13/site-packages/triton/language/standard.py":31:0)) -> i32 attributes {noinline = false} {
    %c16_i32 = arith.constant 16 : i32 loc(#loc87)
    %c16_i32_0 = arith.constant 16 : i32 loc(#loc87)
    %0 = arith.extsi %arg0 : i32 to i64 loc(#loc87)
    %1 = arith.extsi %c16_i32_0 : i32 to i64 loc(#loc87)
    %2 = arith.addi %0, %1 : i64 loc(#loc87)
    %c2147483647_i64 = arith.constant 2147483647 : i64 loc(#loc87)
    %c-2147483648_i64 = arith.constant -2147483648 : i64 loc(#loc87)
    %3 = arith.cmpi sle, %2, %c2147483647_i64 : i64 loc(#loc87)
    %4 = arith.cmpi sge, %2, %c-2147483648_i64 : i64 loc(#loc87)
    %5 = arith.andi %3, %4 : i1 loc(#loc87)
    %6 = arith.addi %arg0, %c16_i32_0 : i32 loc(#loc87)
    %c1_i32 = arith.constant 1 : i32 loc(#loc88)
    %c1_i32_1 = arith.constant 1 : i32 loc(#loc88)
    %7 = arith.extsi %6 : i32 to i64 loc(#loc88)
    %8 = arith.extsi %c1_i32_1 : i32 to i64 loc(#loc88)
    %9 = arith.subi %7, %8 : i64 loc(#loc88)
    %c2147483647_i64_2 = arith.constant 2147483647 : i64 loc(#loc88)
    %c-2147483648_i64_3 = arith.constant -2147483648 : i64 loc(#loc88)
    %10 = arith.cmpi sle, %9, %c2147483647_i64_2 : i64 loc(#loc88)
    %11 = arith.cmpi sge, %9, %c-2147483648_i64_3 : i64 loc(#loc88)
    %12 = arith.andi %10, %11 : i1 loc(#loc88)
    %13 = arith.subi %6, %c1_i32_1 : i32 loc(#loc88)
    %c16_i32_4 = arith.constant 16 : i32 loc(#loc89)
    %c16_i32_5 = arith.constant 16 : i32 loc(#loc89)
    %14 = arith.divsi %13, %c16_i32_5 : i32 loc(#loc89)
    tt.return %14 : i32 loc(#loc90)
  ^bb1:  // no predecessors
    %15 = ub.poison : i32 loc(#loc91)
    tt.return %15 : i32 loc(#loc91)
  } loc(#loc86)
} loc(#loc)
#loc1 = loc("examples/kernels/binary_ops.py":126:24)
#loc2 = loc("examples/kernels/binary_ops.py":127:27)
#loc3 = loc("examples/kernels/binary_ops.py":128:27)
#loc4 = loc("examples/kernels/binary_ops.py":129:38)
#loc5 = loc("examples/kernels/binary_ops.py":130:22)
#loc6 = loc("examples/kernels/binary_ops.py":131:29)
#loc7 = loc("examples/kernels/binary_ops.py":132:35)
#loc8 = loc("examples/kernels/binary_ops.py":132:48)
#loc9 = loc("examples/kernels/binary_ops.py":133:34)
#loc10 = loc("examples/kernels/binary_ops.py":133:54)
#loc11 = loc("examples/kernels/binary_ops.py":133:27)
#loc12 = loc("examples/kernels/binary_ops.py":134:19)
#loc13 = loc("examples/kernels/binary_ops.py":134:40)
#loc14 = loc("examples/kernels/binary_ops.py":140:23)
#loc15 = loc("examples/kernels/binary_ops.py":140:14)
#loc16 = loc("examples/kernels/binary_ops.py":141:23)
#loc17 = loc("examples/kernels/binary_ops.py":141:14)
#loc18 = loc("examples/kernels/binary_ops.py":142:26)
#loc19 = loc("examples/kernels/binary_ops.py":142:14)
#loc20 = loc("examples/kernels/binary_ops.py":143:14)
#loc21 = loc("examples/kernels/binary_ops.py":144:14)
#loc22 = loc("examples/kernels/binary_ops.py":145:26)
#loc23 = loc("examples/kernels/binary_ops.py":145:14)
#loc24 = loc("examples/kernels/binary_ops.py":146:26)
#loc25 = loc("examples/kernels/binary_ops.py":146:14)
#loc26 = loc("examples/kernels/binary_ops.py":147:14)
#loc27 = loc("examples/kernels/binary_ops.py":156:23)
#loc28 = loc("examples/kernels/binary_ops.py":156:51)
#loc29 = loc("examples/kernels/binary_ops.py":156:38)
#loc30 = loc("examples/kernels/binary_ops.py":156:68)
#loc31 = loc("examples/kernels/binary_ops.py":157:23)
#loc32 = loc("examples/kernels/binary_ops.py":157:51)
#loc33 = loc("examples/kernels/binary_ops.py":157:38)
#loc34 = loc("examples/kernels/binary_ops.py":157:68)
#loc35 = loc("examples/kernels/binary_ops.py":158:26)
#loc36 = loc("examples/kernels/binary_ops.py":159:30)
#loc37 = loc("examples/kernels/binary_ops.py":159:41)
#loc38 = loc("examples/kernels/binary_ops.py":159:60)
#loc39 = loc("examples/kernels/binary_ops.py":159:71)
#loc40 = loc("examples/kernels/binary_ops.py":159:53)
#loc41 = loc("examples/kernels/binary_ops.py":159:22)
#loc42 = loc("examples/kernels/binary_ops.py":160:29)
#loc43 = loc("examples/kernels/binary_ops.py":160:40)
#loc44 = loc("examples/kernels/binary_ops.py":160:60)
#loc45 = loc("examples/kernels/binary_ops.py":160:71)
#loc46 = loc("examples/kernels/binary_ops.py":160:52)
#loc47 = loc("examples/kernels/binary_ops.py":160:22)
#loc48 = loc("examples/kernels/binary_ops.py":167:27)
#loc49 = loc("examples/kernels/binary_ops.py":168:33)
#loc50 = loc("examples/kernels/binary_ops.py":168:22)
#loc51 = loc("examples/kernels/binary_ops.py":171:40)
#loc52 = loc("examples/kernels/binary_ops.py":171:59)
#loc53 = loc("examples/kernels/binary_ops.py":171:55)
#loc54 = loc("examples/kernels/binary_ops.py":171:51)
#loc55 = loc("examples/kernels/binary_ops.py":171:20)
#loc56 = loc("examples/kernels/binary_ops.py":172:40)
#loc57 = loc("examples/kernels/binary_ops.py":172:59)
#loc58 = loc("examples/kernels/binary_ops.py":172:55)
#loc59 = loc("examples/kernels/binary_ops.py":172:51)
#loc60 = loc("examples/kernels/binary_ops.py":172:20)
#loc61 = loc("examples/kernels/binary_ops.py":174:35)
#loc62 = loc("examples/kernels/binary_ops.py":176:18)
#loc63 = loc("examples/kernels/binary_ops.py":177:33)
#loc64 = loc("examples/kernels/binary_ops.py":177:18)
#loc65 = loc("examples/kernels/binary_ops.py":177:8)
#loc66 = loc("examples/kernels/binary_ops.py":182:23)
#loc67 = loc("examples/kernels/binary_ops.py":186:22)
#loc68 = loc("examples/kernels/binary_ops.py":186:50)
#loc69 = loc("examples/kernels/binary_ops.py":186:37)
#loc70 = loc("examples/kernels/binary_ops.py":187:22)
#loc71 = loc("examples/kernels/binary_ops.py":187:50)
#loc72 = loc("examples/kernels/binary_ops.py":187:37)
#loc73 = loc("examples/kernels/binary_ops.py":188:41)
#loc74 = loc("examples/kernels/binary_ops.py":188:33)
#loc75 = loc("examples/kernels/binary_ops.py":188:21)
#loc76 = loc("examples/kernels/binary_ops.py":188:72)
#loc77 = loc("examples/kernels/binary_ops.py":188:64)
#loc78 = loc("examples/kernels/binary_ops.py":188:52)
#loc79 = loc("examples/kernels/binary_ops.py":189:22)
#loc80 = loc("examples/kernels/binary_ops.py":189:33)
#loc81 = loc("examples/kernels/binary_ops.py":189:47)
#loc82 = loc("examples/kernels/binary_ops.py":189:58)
#loc83 = loc("examples/kernels/binary_ops.py":189:39)
#loc84 = loc("examples/kernels/binary_ops.py":190:21)
#loc85 = loc("examples/kernels/binary_ops.py":190:4)
#loc87 = loc("/home/ahmed/miniconda3/envs/torch-env/lib/python3.13/site-packages/triton/language/standard.py":40:16)
#loc88 = loc("/home/ahmed/miniconda3/envs/torch-env/lib/python3.13/site-packages/triton/language/standard.py":40:22)
#loc89 = loc("/home/ahmed/miniconda3/envs/torch-env/lib/python3.13/site-packages/triton/language/standard.py":40:28)
#loc90 = loc("/home/ahmed/miniconda3/envs/torch-env/lib/python3.13/site-packages/triton/language/standard.py":40:11)
#loc91 = loc("/home/ahmed/miniconda3/envs/torch-env/lib/python3.13/site-packages/triton/language/standard.py":40:4)
#loc92 = loc("/home/ahmed/miniconda3/envs/torch-env/lib/python3.13/site-packages/triton/language/standard.py":113:0)
#loc93 = loc("/home/ahmed/miniconda3/envs/torch-env/lib/python3.13/site-packages/triton/language/standard.py":122:31)
#loc94 = loc("/home/ahmed/miniconda3/envs/torch-env/lib/python3.13/site-packages/triton/language/standard.py":122:11)
#loc95 = loc("/home/ahmed/miniconda3/envs/torch-env/lib/python3.13/site-packages/triton/language/standard.py":122:4)


// -----// IR Dump Before Canonicalizer (canonicalize) ('tt.func' operation: @zeros____(0, 0)cconstexpr_32__(0, 1)cconstexpr_32__(1,)cconstexpr_fp32_) //----- //
#loc = loc("examples/kernels/binary_ops.py":103:0)
#loc86 = loc("/home/ahmed/miniconda3/envs/torch-env/lib/python3.13/site-packages/triton/language/standard.py":31:0)
module {
  tt.func public @matmul_kernel(%arg0: !tt.ptr<f32> {tt.divisibility = 16 : i32} loc("examples/kernels/binary_ops.py":103:0), %arg1: !tt.ptr<f32> {tt.divisibility = 16 : i32} loc("examples/kernels/binary_ops.py":103:0), %arg2: !tt.ptr<f16> {tt.divisibility = 16 : i32} loc("examples/kernels/binary_ops.py":103:0), %arg3: i32 {tt.divisibility = 16 : i32} loc("examples/kernels/binary_ops.py":103:0), %arg4: i32 {tt.divisibility = 16 : i32} loc("examples/kernels/binary_ops.py":103:0), %arg5: i32 loc("examples/kernels/binary_ops.py":103:0), %arg6: i32 loc("examples/kernels/binary_ops.py":103:0), %arg7: i32 {tt.divisibility = 16 : i32} loc("examples/kernels/binary_ops.py":103:0), %arg8: i32 {tt.divisibility = 16 : i32} loc("examples/kernels/binary_ops.py":103:0)) attributes {noinline = false} {
    %0 = tt.get_program_id x : i32 loc(#loc1)
    %1 = tt.call @"cdiv__i32__(1,)cconstexpr_32_"(%arg3) : (i32) -> i32 loc(#loc2)
    %2 = tt.call @"cdiv__i32__(1,)cconstexpr_32_"(%arg4) : (i32) -> i32 loc(#loc3)
    %c4_i32 = arith.constant 4 : i32 loc(#loc4)
    %c4_i32_0 = arith.constant 4 : i32 loc(#loc4)
    %3 = arith.extsi %c4_i32_0 : i32 to i64 loc(#loc4)
    %4 = arith.extsi %2 : i32 to i64 loc(#loc4)
    %5 = arith.muli %3, %4 : i64 loc(#loc4)
    %c2147483647_i64 = arith.constant 2147483647 : i64 loc(#loc4)
    %c-2147483648_i64 = arith.constant -2147483648 : i64 loc(#loc4)
    %6 = arith.cmpi sle, %5, %c2147483647_i64 : i64 loc(#loc4)
    %7 = arith.cmpi sge, %5, %c-2147483648_i64 : i64 loc(#loc4)
    %8 = arith.andi %6, %7 : i1 loc(#loc4)
    %9 = arith.muli %c4_i32_0, %2 : i32 loc(#loc4)
    %10 = arith.divsi %0, %9 : i32 loc(#loc5)
    %c4_i32_1 = arith.constant 4 : i32 loc(#loc6)
    %c4_i32_2 = arith.constant 4 : i32 loc(#loc6)
    %11 = arith.extsi %10 : i32 to i64 loc(#loc6)
    %12 = arith.extsi %c4_i32_2 : i32 to i64 loc(#loc6)
    %13 = arith.muli %11, %12 : i64 loc(#loc6)
    %c2147483647_i64_3 = arith.constant 2147483647 : i64 loc(#loc6)
    %c-2147483648_i64_4 = arith.constant -2147483648 : i64 loc(#loc6)
    %14 = arith.cmpi sle, %13, %c2147483647_i64_3 : i64 loc(#loc6)
    %15 = arith.cmpi sge, %13, %c-2147483648_i64_4 : i64 loc(#loc6)
    %16 = arith.andi %14, %15 : i1 loc(#loc6)
    %17 = arith.muli %10, %c4_i32_2 : i32 loc(#loc6)
    %18 = arith.extsi %1 : i32 to i64 loc(#loc7)
    %19 = arith.extsi %17 : i32 to i64 loc(#loc7)
    %20 = arith.subi %18, %19 : i64 loc(#loc7)
    %c2147483647_i64_5 = arith.constant 2147483647 : i64 loc(#loc7)
    %c-2147483648_i64_6 = arith.constant -2147483648 : i64 loc(#loc7)
    %21 = arith.cmpi sle, %20, %c2147483647_i64_5 : i64 loc(#loc7)
    %22 = arith.cmpi sge, %20, %c-2147483648_i64_6 : i64 loc(#loc7)
    %23 = arith.andi %21, %22 : i1 loc(#loc7)
    %24 = arith.subi %1, %17 : i32 loc(#loc7)
    %c4_i32_7 = arith.constant 4 : i32 loc(#loc8)
    %25 = arith.minsi %24, %c4_i32_7 : i32 loc(#loc8)
    %26 = arith.remsi %0, %9 : i32 loc(#loc9)
    %27 = arith.remsi %26, %25 : i32 loc(#loc10)
    %28 = arith.extsi %17 : i32 to i64 loc(#loc11)
    %29 = arith.extsi %27 : i32 to i64 loc(#loc11)
    %30 = arith.addi %28, %29 : i64 loc(#loc11)
    %c2147483647_i64_8 = arith.constant 2147483647 : i64 loc(#loc11)
    %c-2147483648_i64_9 = arith.constant -2147483648 : i64 loc(#loc11)
    %31 = arith.cmpi sle, %30, %c2147483647_i64_8 : i64 loc(#loc11)
    %32 = arith.cmpi sge, %30, %c-2147483648_i64_9 : i64 loc(#loc11)
    %33 = arith.andi %31, %32 : i1 loc(#loc11)
    %34 = arith.addi %17, %27 : i32 loc(#loc11)
    %35 = arith.remsi %0, %9 : i32 loc(#loc12)
    %36 = arith.divsi %35, %25 : i32 loc(#loc13)
    %c0_i32 = arith.constant 0 : i32 loc(#loc14)
    %37 = arith.cmpi sge, %34, %c0_i32 : i32 loc(#loc14)
    llvm.intr.assume %37 : i1 loc(#loc15)
    %c0_i32_10 = arith.constant 0 : i32 loc(#loc16)
    %38 = arith.cmpi sge, %36, %c0_i32_10 : i32 loc(#loc16)
    llvm.intr.assume %38 : i1 loc(#loc17)
    %c0_i32_11 = arith.constant 0 : i32 loc(#loc18)
    %39 = arith.cmpi sgt, %arg6, %c0_i32_11 : i32 loc(#loc18)
    llvm.intr.assume %39 : i1 loc(#loc19)
    %true = arith.constant true loc(#loc20)
    llvm.intr.assume %true : i1 loc(#loc20)
    %true_12 = arith.constant true loc(#loc21)
    llvm.intr.assume %true_12 : i1 loc(#loc21)
    %c0_i32_13 = arith.constant 0 : i32 loc(#loc22)
    %40 = arith.cmpi sgt, %arg7, %c0_i32_13 : i32 loc(#loc22)
    llvm.intr.assume %40 : i1 loc(#loc23)
    %c0_i32_14 = arith.constant 0 : i32 loc(#loc24)
    %41 = arith.cmpi sgt, %arg8, %c0_i32_14 : i32 loc(#loc24)
    llvm.intr.assume %41 : i1 loc(#loc25)
    %true_15 = arith.constant true loc(#loc26)
    llvm.intr.assume %true_15 : i1 loc(#loc26)
    %c32_i32 = arith.constant 32 : i32 loc(#loc27)
    %c32_i32_16 = arith.constant 32 : i32 loc(#loc27)
    %42 = arith.extsi %34 : i32 to i64 loc(#loc27)
    %43 = arith.extsi %c32_i32_16 : i32 to i64 loc(#loc27)
    %44 = arith.muli %42, %43 : i64 loc(#loc27)
    %c2147483647_i64_17 = arith.constant 2147483647 : i64 loc(#loc27)
    %c-2147483648_i64_18 = arith.constant -2147483648 : i64 loc(#loc27)
    %45 = arith.cmpi sle, %44, %c2147483647_i64_17 : i64 loc(#loc27)
    %46 = arith.cmpi sge, %44, %c-2147483648_i64_18 : i64 loc(#loc27)
    %47 = arith.andi %45, %46 : i1 loc(#loc27)
    %48 = arith.muli %34, %c32_i32_16 : i32 loc(#loc27)
    %49 = tt.make_range {end = 32 : i32, start = 0 : i32} : tensor<32xi32> loc(#loc28)
    %50 = tt.splat %48 : i32 -> tensor<32xi32> loc(#loc29)
    %51 = arith.extsi %50 : tensor<32xi32> to tensor<32xi64> loc(#loc29)
    %52 = arith.extsi %49 : tensor<32xi32> to tensor<32xi64> loc(#loc29)
    %53 = arith.addi %51, %52 : tensor<32xi64> loc(#loc29)
    %c2147483647_i64_19 = arith.constant 2147483647 : i64 loc(#loc29)
    %c-2147483648_i64_20 = arith.constant -2147483648 : i64 loc(#loc29)
    %cst = arith.constant dense<2147483647> : tensor<32xi64> loc(#loc29)
    %54 = arith.cmpi sle, %53, %cst : tensor<32xi64> loc(#loc29)
    %cst_21 = arith.constant dense<-2147483648> : tensor<32xi64> loc(#loc29)
    %55 = arith.cmpi sge, %53, %cst_21 : tensor<32xi64> loc(#loc29)
    %56 = arith.andi %54, %55 : tensor<32xi1> loc(#loc29)
    %57 = arith.addi %50, %49 : tensor<32xi32> loc(#loc29)
    %58 = tt.splat %arg3 : i32 -> tensor<32xi32> loc(#loc30)
    %59 = arith.remsi %57, %58 : tensor<32xi32> loc(#loc30)
    %c32_i32_22 = arith.constant 32 : i32 loc(#loc31)
    %c32_i32_23 = arith.constant 32 : i32 loc(#loc31)
    %60 = arith.extsi %36 : i32 to i64 loc(#loc31)
    %61 = arith.extsi %c32_i32_23 : i32 to i64 loc(#loc31)
    %62 = arith.muli %60, %61 : i64 loc(#loc31)
    %c2147483647_i64_24 = arith.constant 2147483647 : i64 loc(#loc31)
    %c-2147483648_i64_25 = arith.constant -2147483648 : i64 loc(#loc31)
    %63 = arith.cmpi sle, %62, %c2147483647_i64_24 : i64 loc(#loc31)
    %64 = arith.cmpi sge, %62, %c-2147483648_i64_25 : i64 loc(#loc31)
    %65 = arith.andi %63, %64 : i1 loc(#loc31)
    %66 = arith.muli %36, %c32_i32_23 : i32 loc(#loc31)
    %67 = tt.make_range {end = 32 : i32, start = 0 : i32} : tensor<32xi32> loc(#loc32)
    %68 = tt.splat %66 : i32 -> tensor<32xi32> loc(#loc33)
    %69 = arith.extsi %68 : tensor<32xi32> to tensor<32xi64> loc(#loc33)
    %70 = arith.extsi %67 : tensor<32xi32> to tensor<32xi64> loc(#loc33)
    %71 = arith.addi %69, %70 : tensor<32xi64> loc(#loc33)
    %c2147483647_i64_26 = arith.constant 2147483647 : i64 loc(#loc33)
    %c-2147483648_i64_27 = arith.constant -2147483648 : i64 loc(#loc33)
    %cst_28 = arith.constant dense<2147483647> : tensor<32xi64> loc(#loc33)
    %72 = arith.cmpi sle, %71, %cst_28 : tensor<32xi64> loc(#loc33)
    %cst_29 = arith.constant dense<-2147483648> : tensor<32xi64> loc(#loc33)
    %73 = arith.cmpi sge, %71, %cst_29 : tensor<32xi64> loc(#loc33)
    %74 = arith.andi %72, %73 : tensor<32xi1> loc(#loc33)
    %75 = arith.addi %68, %67 : tensor<32xi32> loc(#loc33)
    %76 = tt.splat %arg4 : i32 -> tensor<32xi32> loc(#loc34)
    %77 = arith.remsi %75, %76 : tensor<32xi32> loc(#loc34)
    %78 = tt.make_range {end = 16 : i32, start = 0 : i32} : tensor<16xi32> loc(#loc35)
    %79 = tt.expand_dims %59 {axis = 1 : i32} : tensor<32xi32> -> tensor<32x1xi32> loc(#loc36)
    %80 = tt.splat %arg6 : i32 -> tensor<32x1xi32> loc(#loc37)
    %81 = arith.extsi %79 : tensor<32x1xi32> to tensor<32x1xi64> loc(#loc37)
    %82 = arith.extsi %80 : tensor<32x1xi32> to tensor<32x1xi64> loc(#loc37)
    %83 = arith.muli %81, %82 : tensor<32x1xi64> loc(#loc37)
    %c2147483647_i64_30 = arith.constant 2147483647 : i64 loc(#loc37)
    %c-2147483648_i64_31 = arith.constant -2147483648 : i64 loc(#loc37)
    %cst_32 = arith.constant dense<2147483647> : tensor<32x1xi64> loc(#loc37)
    %84 = arith.cmpi sle, %83, %cst_32 : tensor<32x1xi64> loc(#loc37)
    %cst_33 = arith.constant dense<-2147483648> : tensor<32x1xi64> loc(#loc37)
    %85 = arith.cmpi sge, %83, %cst_33 : tensor<32x1xi64> loc(#loc37)
    %86 = arith.andi %84, %85 : tensor<32x1xi1> loc(#loc37)
    %87 = arith.muli %79, %80 : tensor<32x1xi32> loc(#loc37)
    %88 = tt.expand_dims %78 {axis = 0 : i32} : tensor<16xi32> -> tensor<1x16xi32> loc(#loc38)
    %c1_i32 = arith.constant 1 : i32 loc(#loc39)
    %c1_i32_34 = arith.constant 1 : i32 loc(#loc39)
    %cst_35 = arith.constant dense<1> : tensor<1x16xi32> loc(#loc39)
    %89 = arith.extsi %88 : tensor<1x16xi32> to tensor<1x16xi64> loc(#loc39)
    %90 = arith.extsi %cst_35 : tensor<1x16xi32> to tensor<1x16xi64> loc(#loc39)
    %91 = arith.muli %89, %90 : tensor<1x16xi64> loc(#loc39)
    %c2147483647_i64_36 = arith.constant 2147483647 : i64 loc(#loc39)
    %c-2147483648_i64_37 = arith.constant -2147483648 : i64 loc(#loc39)
    %cst_38 = arith.constant dense<2147483647> : tensor<1x16xi64> loc(#loc39)
    %92 = arith.cmpi sle, %91, %cst_38 : tensor<1x16xi64> loc(#loc39)
    %cst_39 = arith.constant dense<-2147483648> : tensor<1x16xi64> loc(#loc39)
    %93 = arith.cmpi sge, %91, %cst_39 : tensor<1x16xi64> loc(#loc39)
    %94 = arith.andi %92, %93 : tensor<1x16xi1> loc(#loc39)
    %95 = arith.muli %88, %cst_35 : tensor<1x16xi32> loc(#loc39)
    %96 = tt.broadcast %87 : tensor<32x1xi32> -> tensor<32x16xi32> loc(#loc40)
    %97 = tt.broadcast %95 : tensor<1x16xi32> -> tensor<32x16xi32> loc(#loc40)
    %98 = arith.extsi %96 : tensor<32x16xi32> to tensor<32x16xi64> loc(#loc40)
    %99 = arith.extsi %97 : tensor<32x16xi32> to tensor<32x16xi64> loc(#loc40)
    %100 = arith.addi %98, %99 : tensor<32x16xi64> loc(#loc40)
    %c2147483647_i64_40 = arith.constant 2147483647 : i64 loc(#loc40)
    %c-2147483648_i64_41 = arith.constant -2147483648 : i64 loc(#loc40)
    %cst_42 = arith.constant dense<2147483647> : tensor<32x16xi64> loc(#loc40)
    %101 = arith.cmpi sle, %100, %cst_42 : tensor<32x16xi64> loc(#loc40)
    %cst_43 = arith.constant dense<-2147483648> : tensor<32x16xi64> loc(#loc40)
    %102 = arith.cmpi sge, %100, %cst_43 : tensor<32x16xi64> loc(#loc40)
    %103 = arith.andi %101, %102 : tensor<32x16xi1> loc(#loc40)
    %104 = arith.addi %96, %97 : tensor<32x16xi32> loc(#loc40)
    %105 = tt.splat %arg0 : !tt.ptr<f32> -> tensor<32x16x!tt.ptr<f32>> loc(#loc41)
    %106 = tt.addptr %105, %104 : tensor<32x16x!tt.ptr<f32>>, tensor<32x16xi32> loc(#loc41)
    %107 = tt.expand_dims %78 {axis = 1 : i32} : tensor<16xi32> -> tensor<16x1xi32> loc(#loc42)
    %108 = tt.splat %arg7 : i32 -> tensor<16x1xi32> loc(#loc43)
    %109 = arith.extsi %107 : tensor<16x1xi32> to tensor<16x1xi64> loc(#loc43)
    %110 = arith.extsi %108 : tensor<16x1xi32> to tensor<16x1xi64> loc(#loc43)
    %111 = arith.muli %109, %110 : tensor<16x1xi64> loc(#loc43)
    %c2147483647_i64_44 = arith.constant 2147483647 : i64 loc(#loc43)
    %c-2147483648_i64_45 = arith.constant -2147483648 : i64 loc(#loc43)
    %cst_46 = arith.constant dense<2147483647> : tensor<16x1xi64> loc(#loc43)
    %112 = arith.cmpi sle, %111, %cst_46 : tensor<16x1xi64> loc(#loc43)
    %cst_47 = arith.constant dense<-2147483648> : tensor<16x1xi64> loc(#loc43)
    %113 = arith.cmpi sge, %111, %cst_47 : tensor<16x1xi64> loc(#loc43)
    %114 = arith.andi %112, %113 : tensor<16x1xi1> loc(#loc43)
    %115 = arith.muli %107, %108 : tensor<16x1xi32> loc(#loc43)
    %116 = tt.expand_dims %77 {axis = 0 : i32} : tensor<32xi32> -> tensor<1x32xi32> loc(#loc44)
    %c1_i32_48 = arith.constant 1 : i32 loc(#loc45)
    %c1_i32_49 = arith.constant 1 : i32 loc(#loc45)
    %cst_50 = arith.constant dense<1> : tensor<1x32xi32> loc(#loc45)
    %117 = arith.extsi %116 : tensor<1x32xi32> to tensor<1x32xi64> loc(#loc45)
    %118 = arith.extsi %cst_50 : tensor<1x32xi32> to tensor<1x32xi64> loc(#loc45)
    %119 = arith.muli %117, %118 : tensor<1x32xi64> loc(#loc45)
    %c2147483647_i64_51 = arith.constant 2147483647 : i64 loc(#loc45)
    %c-2147483648_i64_52 = arith.constant -2147483648 : i64 loc(#loc45)
    %cst_53 = arith.constant dense<2147483647> : tensor<1x32xi64> loc(#loc45)
    %120 = arith.cmpi sle, %119, %cst_53 : tensor<1x32xi64> loc(#loc45)
    %cst_54 = arith.constant dense<-2147483648> : tensor<1x32xi64> loc(#loc45)
    %121 = arith.cmpi sge, %119, %cst_54 : tensor<1x32xi64> loc(#loc45)
    %122 = arith.andi %120, %121 : tensor<1x32xi1> loc(#loc45)
    %123 = arith.muli %116, %cst_50 : tensor<1x32xi32> loc(#loc45)
    %124 = tt.broadcast %115 : tensor<16x1xi32> -> tensor<16x32xi32> loc(#loc46)
    %125 = tt.broadcast %123 : tensor<1x32xi32> -> tensor<16x32xi32> loc(#loc46)
    %126 = arith.extsi %124 : tensor<16x32xi32> to tensor<16x32xi64> loc(#loc46)
    %127 = arith.extsi %125 : tensor<16x32xi32> to tensor<16x32xi64> loc(#loc46)
    %128 = arith.addi %126, %127 : tensor<16x32xi64> loc(#loc46)
    %c2147483647_i64_55 = arith.constant 2147483647 : i64 loc(#loc46)
    %c-2147483648_i64_56 = arith.constant -2147483648 : i64 loc(#loc46)
    %cst_57 = arith.constant dense<2147483647> : tensor<16x32xi64> loc(#loc46)
    %129 = arith.cmpi sle, %128, %cst_57 : tensor<16x32xi64> loc(#loc46)
    %cst_58 = arith.constant dense<-2147483648> : tensor<16x32xi64> loc(#loc46)
    %130 = arith.cmpi sge, %128, %cst_58 : tensor<16x32xi64> loc(#loc46)
    %131 = arith.andi %129, %130 : tensor<16x32xi1> loc(#loc46)
    %132 = arith.addi %124, %125 : tensor<16x32xi32> loc(#loc46)
    %133 = tt.splat %arg1 : !tt.ptr<f32> -> tensor<16x32x!tt.ptr<f32>> loc(#loc47)
    %134 = tt.addptr %133, %132 : tensor<16x32x!tt.ptr<f32>>, tensor<16x32xi32> loc(#loc47)
    %135 = tt.call @"zeros____(0, 0)cconstexpr_32__(0, 1)cconstexpr_32__(1,)cconstexpr_fp32_"() : () -> tensor<32x32xf32> loc(#loc48)
    %136 = tt.call @"cdiv__i32__(1,)cconstexpr_16_"(%arg5) : (i32) -> i32 loc(#loc49)
    %c0_i32_59 = arith.constant 0 : i32 loc(#loc50)
    %c1_i32_60 = arith.constant 1 : i32 loc(#loc50)
    %137 = arith.bitcast %c0_i32_59 : i32 to i32 loc(#loc50)
    %138 = arith.bitcast %136 : i32 to i32 loc(#loc50)
    %139 = arith.bitcast %c1_i32_60 : i32 to i32 loc(#loc50)
    %140 = ub.poison : i32 loc(#loc50)
    %141:3 = scf.for %arg9 = %137 to %138 step %139 iter_args(%arg10 = %135, %arg11 = %106, %arg12 = %134) -> (tensor<32x32xf32>, tensor<32x16x!tt.ptr<f32>>, tensor<16x32x!tt.ptr<f32>>)  : i32 {
      %206 = tt.expand_dims %78 {axis = 0 : i32} : tensor<16xi32> -> tensor<1x16xi32> loc(#loc51)
      %c16_i32 = arith.constant 16 : i32 loc(#loc52)
      %c16_i32_88 = arith.constant 16 : i32 loc(#loc52)
      %207 = arith.extsi %arg9 : i32 to i64 loc(#loc52)
      %208 = arith.extsi %c16_i32_88 : i32 to i64 loc(#loc52)
      %209 = arith.muli %207, %208 : i64 loc(#loc52)
      %c2147483647_i64_89 = arith.constant 2147483647 : i64 loc(#loc52)
      %c-2147483648_i64_90 = arith.constant -2147483648 : i64 loc(#loc52)
      %210 = arith.cmpi sle, %209, %c2147483647_i64_89 : i64 loc(#loc52)
      %211 = arith.cmpi sge, %209, %c-2147483648_i64_90 : i64 loc(#loc52)
      %212 = arith.andi %210, %211 : i1 loc(#loc52)
      %213 = arith.muli %arg9, %c16_i32_88 : i32 loc(#loc52)
      %214 = arith.extsi %arg5 : i32 to i64 loc(#loc53)
      %215 = arith.extsi %213 : i32 to i64 loc(#loc53)
      %216 = arith.subi %214, %215 : i64 loc(#loc53)
      %c2147483647_i64_91 = arith.constant 2147483647 : i64 loc(#loc53)
      %c-2147483648_i64_92 = arith.constant -2147483648 : i64 loc(#loc53)
      %217 = arith.cmpi sle, %216, %c2147483647_i64_91 : i64 loc(#loc53)
      %218 = arith.cmpi sge, %216, %c-2147483648_i64_92 : i64 loc(#loc53)
      %219 = arith.andi %217, %218 : i1 loc(#loc53)
      %220 = arith.subi %arg5, %213 : i32 loc(#loc53)
      %221 = tt.splat %220 : i32 -> tensor<1x16xi32> loc(#loc54)
      %222 = arith.cmpi slt, %206, %221 : tensor<1x16xi32> loc(#loc54)
      %cst_93 = arith.constant 0.000000e+00 : f32 loc(#loc55)
      %223 = tt.broadcast %222 : tensor<1x16xi1> -> tensor<32x16xi1> loc(#loc55)
      %cst_94 = arith.constant dense<0.000000e+00> : tensor<32x16xf32> loc(#loc55)
      %224 = tt.load %arg11, %223, %cst_94 : tensor<32x16x!tt.ptr<f32>> loc(#loc55)
      %225 = tt.expand_dims %78 {axis = 1 : i32} : tensor<16xi32> -> tensor<16x1xi32> loc(#loc56)
      %c16_i32_95 = arith.constant 16 : i32 loc(#loc57)
      %c16_i32_96 = arith.constant 16 : i32 loc(#loc57)
      %226 = arith.extsi %arg9 : i32 to i64 loc(#loc57)
      %227 = arith.extsi %c16_i32_96 : i32 to i64 loc(#loc57)
      %228 = arith.muli %226, %227 : i64 loc(#loc57)
      %c2147483647_i64_97 = arith.constant 2147483647 : i64 loc(#loc57)
      %c-2147483648_i64_98 = arith.constant -2147483648 : i64 loc(#loc57)
      %229 = arith.cmpi sle, %228, %c2147483647_i64_97 : i64 loc(#loc57)
      %230 = arith.cmpi sge, %228, %c-2147483648_i64_98 : i64 loc(#loc57)
      %231 = arith.andi %229, %230 : i1 loc(#loc57)
      %232 = arith.muli %arg9, %c16_i32_96 : i32 loc(#loc57)
      %233 = arith.extsi %arg5 : i32 to i64 loc(#loc58)
      %234 = arith.extsi %232 : i32 to i64 loc(#loc58)
      %235 = arith.subi %233, %234 : i64 loc(#loc58)
      %c2147483647_i64_99 = arith.constant 2147483647 : i64 loc(#loc58)
      %c-2147483648_i64_100 = arith.constant -2147483648 : i64 loc(#loc58)
      %236 = arith.cmpi sle, %235, %c2147483647_i64_99 : i64 loc(#loc58)
      %237 = arith.cmpi sge, %235, %c-2147483648_i64_100 : i64 loc(#loc58)
      %238 = arith.andi %236, %237 : i1 loc(#loc58)
      %239 = arith.subi %arg5, %232 : i32 loc(#loc58)
      %240 = tt.splat %239 : i32 -> tensor<16x1xi32> loc(#loc59)
      %241 = arith.cmpi slt, %225, %240 : tensor<16x1xi32> loc(#loc59)
      %cst_101 = arith.constant 0.000000e+00 : f32 loc(#loc60)
      %242 = tt.broadcast %241 : tensor<16x1xi1> -> tensor<16x32xi1> loc(#loc60)
      %cst_102 = arith.constant dense<0.000000e+00> : tensor<16x32xf32> loc(#loc60)
      %243 = tt.load %arg12, %242, %cst_102 : tensor<16x32x!tt.ptr<f32>> loc(#loc60)
      %cst_103 = arith.constant 0.000000e+00 : f32 loc(#loc61)
      %244 = tt.dot %224, %243, %arg10, inputPrecision = tf32 : tensor<32x16xf32> * tensor<16x32xf32> -> tensor<32x32xf32> loc(#loc61)
      %c16_i32_104 = arith.constant 16 : i32 loc(#loc62)
      %cst_105 = arith.constant dense<16> : tensor<32x16xi32> loc(#loc62)
      %245 = tt.addptr %arg11, %cst_105 : tensor<32x16x!tt.ptr<f32>>, tensor<32x16xi32> loc(#loc62)
      %c16_i32_106 = arith.constant 16 : i32 loc(#loc63)
      %c16_i32_107 = arith.constant 16 : i32 loc(#loc63)
      %246 = arith.extsi %c16_i32_107 : i32 to i64 loc(#loc63)
      %247 = arith.extsi %arg7 : i32 to i64 loc(#loc63)
      %248 = arith.muli %246, %247 : i64 loc(#loc63)
      %c2147483647_i64_108 = arith.constant 2147483647 : i64 loc(#loc63)
      %c-2147483648_i64_109 = arith.constant -2147483648 : i64 loc(#loc63)
      %249 = arith.cmpi sle, %248, %c2147483647_i64_108 : i64 loc(#loc63)
      %250 = arith.cmpi sge, %248, %c-2147483648_i64_109 : i64 loc(#loc63)
      %251 = arith.andi %249, %250 : i1 loc(#loc63)
      %252 = arith.muli %c16_i32_107, %arg7 : i32 loc(#loc63)
      %253 = tt.splat %252 : i32 -> tensor<16x32xi32> loc(#loc64)
      %254 = tt.addptr %arg12, %253 : tensor<16x32x!tt.ptr<f32>>, tensor<16x32xi32> loc(#loc64)
      scf.yield %244, %245, %254 : tensor<32x32xf32>, tensor<32x16x!tt.ptr<f32>>, tensor<16x32x!tt.ptr<f32>> loc(#loc65)
    } loc(#loc50)
    %142 = arith.truncf %141#0 : tensor<32x32xf32> to tensor<32x32xf16> loc(#loc66)
    %c32_i32_61 = arith.constant 32 : i32 loc(#loc67)
    %c32_i32_62 = arith.constant 32 : i32 loc(#loc67)
    %143 = arith.extsi %34 : i32 to i64 loc(#loc67)
    %144 = arith.extsi %c32_i32_62 : i32 to i64 loc(#loc67)
    %145 = arith.muli %143, %144 : i64 loc(#loc67)
    %c2147483647_i64_63 = arith.constant 2147483647 : i64 loc(#loc67)
    %c-2147483648_i64_64 = arith.constant -2147483648 : i64 loc(#loc67)
    %146 = arith.cmpi sle, %145, %c2147483647_i64_63 : i64 loc(#loc67)
    %147 = arith.cmpi sge, %145, %c-2147483648_i64_64 : i64 loc(#loc67)
    %148 = arith.andi %146, %147 : i1 loc(#loc67)
    %149 = arith.muli %34, %c32_i32_62 : i32 loc(#loc67)
    %150 = tt.make_range {end = 32 : i32, start = 0 : i32} : tensor<32xi32> loc(#loc68)
    %151 = tt.splat %149 : i32 -> tensor<32xi32> loc(#loc69)
    %152 = arith.extsi %151 : tensor<32xi32> to tensor<32xi64> loc(#loc69)
    %153 = arith.extsi %150 : tensor<32xi32> to tensor<32xi64> loc(#loc69)
    %154 = arith.addi %152, %153 : tensor<32xi64> loc(#loc69)
    %c2147483647_i64_65 = arith.constant 2147483647 : i64 loc(#loc69)
    %c-2147483648_i64_66 = arith.constant -2147483648 : i64 loc(#loc69)
    %cst_67 = arith.constant dense<2147483647> : tensor<32xi64> loc(#loc69)
    %155 = arith.cmpi sle, %154, %cst_67 : tensor<32xi64> loc(#loc69)
    %cst_68 = arith.constant dense<-2147483648> : tensor<32xi64> loc(#loc69)
    %156 = arith.cmpi sge, %154, %cst_68 : tensor<32xi64> loc(#loc69)
    %157 = arith.andi %155, %156 : tensor<32xi1> loc(#loc69)
    %158 = arith.addi %151, %150 : tensor<32xi32> loc(#loc69)
    %c32_i32_69 = arith.constant 32 : i32 loc(#loc70)
    %c32_i32_70 = arith.constant 32 : i32 loc(#loc70)
    %159 = arith.extsi %36 : i32 to i64 loc(#loc70)
    %160 = arith.extsi %c32_i32_70 : i32 to i64 loc(#loc70)
    %161 = arith.muli %159, %160 : i64 loc(#loc70)
    %c2147483647_i64_71 = arith.constant 2147483647 : i64 loc(#loc70)
    %c-2147483648_i64_72 = arith.constant -2147483648 : i64 loc(#loc70)
    %162 = arith.cmpi sle, %161, %c2147483647_i64_71 : i64 loc(#loc70)
    %163 = arith.cmpi sge, %161, %c-2147483648_i64_72 : i64 loc(#loc70)
    %164 = arith.andi %162, %163 : i1 loc(#loc70)
    %165 = arith.muli %36, %c32_i32_70 : i32 loc(#loc70)
    %166 = tt.make_range {end = 32 : i32, start = 0 : i32} : tensor<32xi32> loc(#loc71)
    %167 = tt.splat %165 : i32 -> tensor<32xi32> loc(#loc72)
    %168 = arith.extsi %167 : tensor<32xi32> to tensor<32xi64> loc(#loc72)
    %169 = arith.extsi %166 : tensor<32xi32> to tensor<32xi64> loc(#loc72)
    %170 = arith.addi %168, %169 : tensor<32xi64> loc(#loc72)
    %c2147483647_i64_73 = arith.constant 2147483647 : i64 loc(#loc72)
    %c-2147483648_i64_74 = arith.constant -2147483648 : i64 loc(#loc72)
    %cst_75 = arith.constant dense<2147483647> : tensor<32xi64> loc(#loc72)
    %171 = arith.cmpi sle, %170, %cst_75 : tensor<32xi64> loc(#loc72)
    %cst_76 = arith.constant dense<-2147483648> : tensor<32xi64> loc(#loc72)
    %172 = arith.cmpi sge, %170, %cst_76 : tensor<32xi64> loc(#loc72)
    %173 = arith.andi %171, %172 : tensor<32xi1> loc(#loc72)
    %174 = arith.addi %167, %166 : tensor<32xi32> loc(#loc72)
    %175 = tt.expand_dims %158 {axis = 1 : i32} : tensor<32xi32> -> tensor<32x1xi32> loc(#loc73)
    %176 = tt.splat %arg8 : i32 -> tensor<32x1xi32> loc(#loc74)
    %177 = arith.extsi %176 : tensor<32x1xi32> to tensor<32x1xi64> loc(#loc74)
    %178 = arith.extsi %175 : tensor<32x1xi32> to tensor<32x1xi64> loc(#loc74)
    %179 = arith.muli %177, %178 : tensor<32x1xi64> loc(#loc74)
    %c2147483647_i64_77 = arith.constant 2147483647 : i64 loc(#loc74)
    %c-2147483648_i64_78 = arith.constant -2147483648 : i64 loc(#loc74)
    %cst_79 = arith.constant dense<2147483647> : tensor<32x1xi64> loc(#loc74)
    %180 = arith.cmpi sle, %179, %cst_79 : tensor<32x1xi64> loc(#loc74)
    %cst_80 = arith.constant dense<-2147483648> : tensor<32x1xi64> loc(#loc74)
    %181 = arith.cmpi sge, %179, %cst_80 : tensor<32x1xi64> loc(#loc74)
    %182 = arith.andi %180, %181 : tensor<32x1xi1> loc(#loc74)
    %183 = arith.muli %176, %175 : tensor<32x1xi32> loc(#loc74)
    %184 = tt.splat %arg2 : !tt.ptr<f16> -> tensor<32x1x!tt.ptr<f16>> loc(#loc75)
    %185 = tt.addptr %184, %183 : tensor<32x1x!tt.ptr<f16>>, tensor<32x1xi32> loc(#loc75)
    %186 = tt.expand_dims %174 {axis = 0 : i32} : tensor<32xi32> -> tensor<1x32xi32> loc(#loc76)
    %c1_i32_81 = arith.constant 1 : i32 loc(#loc77)
    %c1_i32_82 = arith.constant 1 : i32 loc(#loc77)
    %cst_83 = arith.constant dense<1> : tensor<1x32xi32> loc(#loc77)
    %187 = arith.extsi %cst_83 : tensor<1x32xi32> to tensor<1x32xi64> loc(#loc77)
    %188 = arith.extsi %186 : tensor<1x32xi32> to tensor<1x32xi64> loc(#loc77)
    %189 = arith.muli %187, %188 : tensor<1x32xi64> loc(#loc77)
    %c2147483647_i64_84 = arith.constant 2147483647 : i64 loc(#loc77)
    %c-2147483648_i64_85 = arith.constant -2147483648 : i64 loc(#loc77)
    %cst_86 = arith.constant dense<2147483647> : tensor<1x32xi64> loc(#loc77)
    %190 = arith.cmpi sle, %189, %cst_86 : tensor<1x32xi64> loc(#loc77)
    %cst_87 = arith.constant dense<-2147483648> : tensor<1x32xi64> loc(#loc77)
    %191 = arith.cmpi sge, %189, %cst_87 : tensor<1x32xi64> loc(#loc77)
    %192 = arith.andi %190, %191 : tensor<1x32xi1> loc(#loc77)
    %193 = arith.muli %cst_83, %186 : tensor<1x32xi32> loc(#loc77)
    %194 = tt.broadcast %185 : tensor<32x1x!tt.ptr<f16>> -> tensor<32x32x!tt.ptr<f16>> loc(#loc78)
    %195 = tt.broadcast %193 : tensor<1x32xi32> -> tensor<32x32xi32> loc(#loc78)
    %196 = tt.addptr %194, %195 : tensor<32x32x!tt.ptr<f16>>, tensor<32x32xi32> loc(#loc78)
    %197 = tt.expand_dims %158 {axis = 1 : i32} : tensor<32xi32> -> tensor<32x1xi32> loc(#loc79)
    %198 = tt.splat %arg3 : i32 -> tensor<32x1xi32> loc(#loc80)
    %199 = arith.cmpi slt, %197, %198 : tensor<32x1xi32> loc(#loc80)
    %200 = tt.expand_dims %174 {axis = 0 : i32} : tensor<32xi32> -> tensor<1x32xi32> loc(#loc81)
    %201 = tt.splat %arg4 : i32 -> tensor<1x32xi32> loc(#loc82)
    %202 = arith.cmpi slt, %200, %201 : tensor<1x32xi32> loc(#loc82)
    %203 = tt.broadcast %199 : tensor<32x1xi1> -> tensor<32x32xi1> loc(#loc83)
    %204 = tt.broadcast %202 : tensor<1x32xi1> -> tensor<32x32xi1> loc(#loc83)
    %205 = arith.andi %203, %204 : tensor<32x32xi1> loc(#loc83)
    tt.store %196, %142, %205 : tensor<32x32x!tt.ptr<f16>> loc(#loc84)
    tt.return loc(#loc85)
  } loc(#loc)
  tt.func private @"cdiv__i32__(1,)cconstexpr_32_"(%arg0: i32 loc("/home/ahmed/miniconda3/envs/torch-env/lib/python3.13/site-packages/triton/language/standard.py":31:0)) -> i32 attributes {noinline = false} {
    %c32_i32 = arith.constant 32 : i32 loc(#loc87)
    %c31_i32 = arith.constant 31 : i32 loc(#loc88)
    %0 = arith.addi %arg0, %c31_i32 : i32 loc(#loc88)
    %1 = arith.divsi %0, %c32_i32 : i32 loc(#loc89)
    tt.return %1 : i32 loc(#loc90)
  } loc(#loc86)
  tt.func private @"zeros____(0, 0)cconstexpr_32__(0, 1)cconstexpr_32__(1,)cconstexpr_fp32_"() -> tensor<32x32xf32> attributes {noinline = false} {
    %cst = arith.constant 0.000000e+00 : f32 loc(#loc92)
    %cst_0 = arith.constant dense<0.000000e+00> : tensor<32x32xf32> loc(#loc92)
    tt.return %cst_0 : tensor<32x32xf32> loc(#loc93)
  ^bb1:  // no predecessors
    %0 = ub.poison : tensor<32x32xf32> loc(#loc94)
    tt.return %0 : tensor<32x32xf32> loc(#loc94)
  } loc(#loc91)
  tt.func private @"cdiv__i32__(1,)cconstexpr_16_"(%arg0: i32 loc("/home/ahmed/miniconda3/envs/torch-env/lib/python3.13/site-packages/triton/language/standard.py":31:0)) -> i32 attributes {noinline = false} {
    %c16_i32 = arith.constant 16 : i32 loc(#loc95)
    %c16_i32_0 = arith.constant 16 : i32 loc(#loc95)
    %0 = arith.extsi %arg0 : i32 to i64 loc(#loc95)
    %1 = arith.extsi %c16_i32_0 : i32 to i64 loc(#loc95)
    %2 = arith.addi %0, %1 : i64 loc(#loc95)
    %c2147483647_i64 = arith.constant 2147483647 : i64 loc(#loc95)
    %c-2147483648_i64 = arith.constant -2147483648 : i64 loc(#loc95)
    %3 = arith.cmpi sle, %2, %c2147483647_i64 : i64 loc(#loc95)
    %4 = arith.cmpi sge, %2, %c-2147483648_i64 : i64 loc(#loc95)
    %5 = arith.andi %3, %4 : i1 loc(#loc95)
    %6 = arith.addi %arg0, %c16_i32_0 : i32 loc(#loc95)
    %c1_i32 = arith.constant 1 : i32 loc(#loc88)
    %c1_i32_1 = arith.constant 1 : i32 loc(#loc88)
    %7 = arith.extsi %6 : i32 to i64 loc(#loc88)
    %8 = arith.extsi %c1_i32_1 : i32 to i64 loc(#loc88)
    %9 = arith.subi %7, %8 : i64 loc(#loc88)
    %c2147483647_i64_2 = arith.constant 2147483647 : i64 loc(#loc88)
    %c-2147483648_i64_3 = arith.constant -2147483648 : i64 loc(#loc88)
    %10 = arith.cmpi sle, %9, %c2147483647_i64_2 : i64 loc(#loc88)
    %11 = arith.cmpi sge, %9, %c-2147483648_i64_3 : i64 loc(#loc88)
    %12 = arith.andi %10, %11 : i1 loc(#loc88)
    %13 = arith.subi %6, %c1_i32_1 : i32 loc(#loc88)
    %c16_i32_4 = arith.constant 16 : i32 loc(#loc89)
    %c16_i32_5 = arith.constant 16 : i32 loc(#loc89)
    %14 = arith.divsi %13, %c16_i32_5 : i32 loc(#loc89)
    tt.return %14 : i32 loc(#loc90)
  ^bb1:  // no predecessors
    %15 = ub.poison : i32 loc(#loc96)
    tt.return %15 : i32 loc(#loc96)
  } loc(#loc86)
} loc(#loc)
#loc1 = loc("examples/kernels/binary_ops.py":126:24)
#loc2 = loc("examples/kernels/binary_ops.py":127:27)
#loc3 = loc("examples/kernels/binary_ops.py":128:27)
#loc4 = loc("examples/kernels/binary_ops.py":129:38)
#loc5 = loc("examples/kernels/binary_ops.py":130:22)
#loc6 = loc("examples/kernels/binary_ops.py":131:29)
#loc7 = loc("examples/kernels/binary_ops.py":132:35)
#loc8 = loc("examples/kernels/binary_ops.py":132:48)
#loc9 = loc("examples/kernels/binary_ops.py":133:34)
#loc10 = loc("examples/kernels/binary_ops.py":133:54)
#loc11 = loc("examples/kernels/binary_ops.py":133:27)
#loc12 = loc("examples/kernels/binary_ops.py":134:19)
#loc13 = loc("examples/kernels/binary_ops.py":134:40)
#loc14 = loc("examples/kernels/binary_ops.py":140:23)
#loc15 = loc("examples/kernels/binary_ops.py":140:14)
#loc16 = loc("examples/kernels/binary_ops.py":141:23)
#loc17 = loc("examples/kernels/binary_ops.py":141:14)
#loc18 = loc("examples/kernels/binary_ops.py":142:26)
#loc19 = loc("examples/kernels/binary_ops.py":142:14)
#loc20 = loc("examples/kernels/binary_ops.py":143:14)
#loc21 = loc("examples/kernels/binary_ops.py":144:14)
#loc22 = loc("examples/kernels/binary_ops.py":145:26)
#loc23 = loc("examples/kernels/binary_ops.py":145:14)
#loc24 = loc("examples/kernels/binary_ops.py":146:26)
#loc25 = loc("examples/kernels/binary_ops.py":146:14)
#loc26 = loc("examples/kernels/binary_ops.py":147:14)
#loc27 = loc("examples/kernels/binary_ops.py":156:23)
#loc28 = loc("examples/kernels/binary_ops.py":156:51)
#loc29 = loc("examples/kernels/binary_ops.py":156:38)
#loc30 = loc("examples/kernels/binary_ops.py":156:68)
#loc31 = loc("examples/kernels/binary_ops.py":157:23)
#loc32 = loc("examples/kernels/binary_ops.py":157:51)
#loc33 = loc("examples/kernels/binary_ops.py":157:38)
#loc34 = loc("examples/kernels/binary_ops.py":157:68)
#loc35 = loc("examples/kernels/binary_ops.py":158:26)
#loc36 = loc("examples/kernels/binary_ops.py":159:30)
#loc37 = loc("examples/kernels/binary_ops.py":159:41)
#loc38 = loc("examples/kernels/binary_ops.py":159:60)
#loc39 = loc("examples/kernels/binary_ops.py":159:71)
#loc40 = loc("examples/kernels/binary_ops.py":159:53)
#loc41 = loc("examples/kernels/binary_ops.py":159:22)
#loc42 = loc("examples/kernels/binary_ops.py":160:29)
#loc43 = loc("examples/kernels/binary_ops.py":160:40)
#loc44 = loc("examples/kernels/binary_ops.py":160:60)
#loc45 = loc("examples/kernels/binary_ops.py":160:71)
#loc46 = loc("examples/kernels/binary_ops.py":160:52)
#loc47 = loc("examples/kernels/binary_ops.py":160:22)
#loc48 = loc("examples/kernels/binary_ops.py":167:27)
#loc49 = loc("examples/kernels/binary_ops.py":168:33)
#loc50 = loc("examples/kernels/binary_ops.py":168:22)
#loc51 = loc("examples/kernels/binary_ops.py":171:40)
#loc52 = loc("examples/kernels/binary_ops.py":171:59)
#loc53 = loc("examples/kernels/binary_ops.py":171:55)
#loc54 = loc("examples/kernels/binary_ops.py":171:51)
#loc55 = loc("examples/kernels/binary_ops.py":171:20)
#loc56 = loc("examples/kernels/binary_ops.py":172:40)
#loc57 = loc("examples/kernels/binary_ops.py":172:59)
#loc58 = loc("examples/kernels/binary_ops.py":172:55)
#loc59 = loc("examples/kernels/binary_ops.py":172:51)
#loc60 = loc("examples/kernels/binary_ops.py":172:20)
#loc61 = loc("examples/kernels/binary_ops.py":174:35)
#loc62 = loc("examples/kernels/binary_ops.py":176:18)
#loc63 = loc("examples/kernels/binary_ops.py":177:33)
#loc64 = loc("examples/kernels/binary_ops.py":177:18)
#loc65 = loc("examples/kernels/binary_ops.py":177:8)
#loc66 = loc("examples/kernels/binary_ops.py":182:23)
#loc67 = loc("examples/kernels/binary_ops.py":186:22)
#loc68 = loc("examples/kernels/binary_ops.py":186:50)
#loc69 = loc("examples/kernels/binary_ops.py":186:37)
#loc70 = loc("examples/kernels/binary_ops.py":187:22)
#loc71 = loc("examples/kernels/binary_ops.py":187:50)
#loc72 = loc("examples/kernels/binary_ops.py":187:37)
#loc73 = loc("examples/kernels/binary_ops.py":188:41)
#loc74 = loc("examples/kernels/binary_ops.py":188:33)
#loc75 = loc("examples/kernels/binary_ops.py":188:21)
#loc76 = loc("examples/kernels/binary_ops.py":188:72)
#loc77 = loc("examples/kernels/binary_ops.py":188:64)
#loc78 = loc("examples/kernels/binary_ops.py":188:52)
#loc79 = loc("examples/kernels/binary_ops.py":189:22)
#loc80 = loc("examples/kernels/binary_ops.py":189:33)
#loc81 = loc("examples/kernels/binary_ops.py":189:47)
#loc82 = loc("examples/kernels/binary_ops.py":189:58)
#loc83 = loc("examples/kernels/binary_ops.py":189:39)
#loc84 = loc("examples/kernels/binary_ops.py":190:21)
#loc85 = loc("examples/kernels/binary_ops.py":190:4)
#loc87 = loc(unknown)
#loc88 = loc("/home/ahmed/miniconda3/envs/torch-env/lib/python3.13/site-packages/triton/language/standard.py":40:22)
#loc89 = loc("/home/ahmed/miniconda3/envs/torch-env/lib/python3.13/site-packages/triton/language/standard.py":40:28)
#loc90 = loc("/home/ahmed/miniconda3/envs/torch-env/lib/python3.13/site-packages/triton/language/standard.py":40:11)
#loc91 = loc("/home/ahmed/miniconda3/envs/torch-env/lib/python3.13/site-packages/triton/language/standard.py":113:0)
#loc92 = loc("/home/ahmed/miniconda3/envs/torch-env/lib/python3.13/site-packages/triton/language/standard.py":122:31)
#loc93 = loc("/home/ahmed/miniconda3/envs/torch-env/lib/python3.13/site-packages/triton/language/standard.py":122:11)
#loc94 = loc("/home/ahmed/miniconda3/envs/torch-env/lib/python3.13/site-packages/triton/language/standard.py":122:4)
#loc95 = loc("/home/ahmed/miniconda3/envs/torch-env/lib/python3.13/site-packages/triton/language/standard.py":40:16)
#loc96 = loc("/home/ahmed/miniconda3/envs/torch-env/lib/python3.13/site-packages/triton/language/standard.py":40:4)


// -----// IR Dump Before Canonicalizer (canonicalize) ('tt.func' operation: @cdiv__i32__(1,)cconstexpr_16_) //----- //
#loc = loc("examples/kernels/binary_ops.py":103:0)
#loc86 = loc("/home/ahmed/miniconda3/envs/torch-env/lib/python3.13/site-packages/triton/language/standard.py":31:0)
module {
  tt.func public @matmul_kernel(%arg0: !tt.ptr<f32> {tt.divisibility = 16 : i32} loc("examples/kernels/binary_ops.py":103:0), %arg1: !tt.ptr<f32> {tt.divisibility = 16 : i32} loc("examples/kernels/binary_ops.py":103:0), %arg2: !tt.ptr<f16> {tt.divisibility = 16 : i32} loc("examples/kernels/binary_ops.py":103:0), %arg3: i32 {tt.divisibility = 16 : i32} loc("examples/kernels/binary_ops.py":103:0), %arg4: i32 {tt.divisibility = 16 : i32} loc("examples/kernels/binary_ops.py":103:0), %arg5: i32 loc("examples/kernels/binary_ops.py":103:0), %arg6: i32 loc("examples/kernels/binary_ops.py":103:0), %arg7: i32 {tt.divisibility = 16 : i32} loc("examples/kernels/binary_ops.py":103:0), %arg8: i32 {tt.divisibility = 16 : i32} loc("examples/kernels/binary_ops.py":103:0)) attributes {noinline = false} {
    %0 = tt.get_program_id x : i32 loc(#loc1)
    %1 = tt.call @"cdiv__i32__(1,)cconstexpr_32_"(%arg3) : (i32) -> i32 loc(#loc2)
    %2 = tt.call @"cdiv__i32__(1,)cconstexpr_32_"(%arg4) : (i32) -> i32 loc(#loc3)
    %c4_i32 = arith.constant 4 : i32 loc(#loc4)
    %c4_i32_0 = arith.constant 4 : i32 loc(#loc4)
    %3 = arith.extsi %c4_i32_0 : i32 to i64 loc(#loc4)
    %4 = arith.extsi %2 : i32 to i64 loc(#loc4)
    %5 = arith.muli %3, %4 : i64 loc(#loc4)
    %c2147483647_i64 = arith.constant 2147483647 : i64 loc(#loc4)
    %c-2147483648_i64 = arith.constant -2147483648 : i64 loc(#loc4)
    %6 = arith.cmpi sle, %5, %c2147483647_i64 : i64 loc(#loc4)
    %7 = arith.cmpi sge, %5, %c-2147483648_i64 : i64 loc(#loc4)
    %8 = arith.andi %6, %7 : i1 loc(#loc4)
    %9 = arith.muli %c4_i32_0, %2 : i32 loc(#loc4)
    %10 = arith.divsi %0, %9 : i32 loc(#loc5)
    %c4_i32_1 = arith.constant 4 : i32 loc(#loc6)
    %c4_i32_2 = arith.constant 4 : i32 loc(#loc6)
    %11 = arith.extsi %10 : i32 to i64 loc(#loc6)
    %12 = arith.extsi %c4_i32_2 : i32 to i64 loc(#loc6)
    %13 = arith.muli %11, %12 : i64 loc(#loc6)
    %c2147483647_i64_3 = arith.constant 2147483647 : i64 loc(#loc6)
    %c-2147483648_i64_4 = arith.constant -2147483648 : i64 loc(#loc6)
    %14 = arith.cmpi sle, %13, %c2147483647_i64_3 : i64 loc(#loc6)
    %15 = arith.cmpi sge, %13, %c-2147483648_i64_4 : i64 loc(#loc6)
    %16 = arith.andi %14, %15 : i1 loc(#loc6)
    %17 = arith.muli %10, %c4_i32_2 : i32 loc(#loc6)
    %18 = arith.extsi %1 : i32 to i64 loc(#loc7)
    %19 = arith.extsi %17 : i32 to i64 loc(#loc7)
    %20 = arith.subi %18, %19 : i64 loc(#loc7)
    %c2147483647_i64_5 = arith.constant 2147483647 : i64 loc(#loc7)
    %c-2147483648_i64_6 = arith.constant -2147483648 : i64 loc(#loc7)
    %21 = arith.cmpi sle, %20, %c2147483647_i64_5 : i64 loc(#loc7)
    %22 = arith.cmpi sge, %20, %c-2147483648_i64_6 : i64 loc(#loc7)
    %23 = arith.andi %21, %22 : i1 loc(#loc7)
    %24 = arith.subi %1, %17 : i32 loc(#loc7)
    %c4_i32_7 = arith.constant 4 : i32 loc(#loc8)
    %25 = arith.minsi %24, %c4_i32_7 : i32 loc(#loc8)
    %26 = arith.remsi %0, %9 : i32 loc(#loc9)
    %27 = arith.remsi %26, %25 : i32 loc(#loc10)
    %28 = arith.extsi %17 : i32 to i64 loc(#loc11)
    %29 = arith.extsi %27 : i32 to i64 loc(#loc11)
    %30 = arith.addi %28, %29 : i64 loc(#loc11)
    %c2147483647_i64_8 = arith.constant 2147483647 : i64 loc(#loc11)
    %c-2147483648_i64_9 = arith.constant -2147483648 : i64 loc(#loc11)
    %31 = arith.cmpi sle, %30, %c2147483647_i64_8 : i64 loc(#loc11)
    %32 = arith.cmpi sge, %30, %c-2147483648_i64_9 : i64 loc(#loc11)
    %33 = arith.andi %31, %32 : i1 loc(#loc11)
    %34 = arith.addi %17, %27 : i32 loc(#loc11)
    %35 = arith.remsi %0, %9 : i32 loc(#loc12)
    %36 = arith.divsi %35, %25 : i32 loc(#loc13)
    %c0_i32 = arith.constant 0 : i32 loc(#loc14)
    %37 = arith.cmpi sge, %34, %c0_i32 : i32 loc(#loc14)
    llvm.intr.assume %37 : i1 loc(#loc15)
    %c0_i32_10 = arith.constant 0 : i32 loc(#loc16)
    %38 = arith.cmpi sge, %36, %c0_i32_10 : i32 loc(#loc16)
    llvm.intr.assume %38 : i1 loc(#loc17)
    %c0_i32_11 = arith.constant 0 : i32 loc(#loc18)
    %39 = arith.cmpi sgt, %arg6, %c0_i32_11 : i32 loc(#loc18)
    llvm.intr.assume %39 : i1 loc(#loc19)
    %true = arith.constant true loc(#loc20)
    llvm.intr.assume %true : i1 loc(#loc20)
    %true_12 = arith.constant true loc(#loc21)
    llvm.intr.assume %true_12 : i1 loc(#loc21)
    %c0_i32_13 = arith.constant 0 : i32 loc(#loc22)
    %40 = arith.cmpi sgt, %arg7, %c0_i32_13 : i32 loc(#loc22)
    llvm.intr.assume %40 : i1 loc(#loc23)
    %c0_i32_14 = arith.constant 0 : i32 loc(#loc24)
    %41 = arith.cmpi sgt, %arg8, %c0_i32_14 : i32 loc(#loc24)
    llvm.intr.assume %41 : i1 loc(#loc25)
    %true_15 = arith.constant true loc(#loc26)
    llvm.intr.assume %true_15 : i1 loc(#loc26)
    %c32_i32 = arith.constant 32 : i32 loc(#loc27)
    %c32_i32_16 = arith.constant 32 : i32 loc(#loc27)
    %42 = arith.extsi %34 : i32 to i64 loc(#loc27)
    %43 = arith.extsi %c32_i32_16 : i32 to i64 loc(#loc27)
    %44 = arith.muli %42, %43 : i64 loc(#loc27)
    %c2147483647_i64_17 = arith.constant 2147483647 : i64 loc(#loc27)
    %c-2147483648_i64_18 = arith.constant -2147483648 : i64 loc(#loc27)
    %45 = arith.cmpi sle, %44, %c2147483647_i64_17 : i64 loc(#loc27)
    %46 = arith.cmpi sge, %44, %c-2147483648_i64_18 : i64 loc(#loc27)
    %47 = arith.andi %45, %46 : i1 loc(#loc27)
    %48 = arith.muli %34, %c32_i32_16 : i32 loc(#loc27)
    %49 = tt.make_range {end = 32 : i32, start = 0 : i32} : tensor<32xi32> loc(#loc28)
    %50 = tt.splat %48 : i32 -> tensor<32xi32> loc(#loc29)
    %51 = arith.extsi %50 : tensor<32xi32> to tensor<32xi64> loc(#loc29)
    %52 = arith.extsi %49 : tensor<32xi32> to tensor<32xi64> loc(#loc29)
    %53 = arith.addi %51, %52 : tensor<32xi64> loc(#loc29)
    %c2147483647_i64_19 = arith.constant 2147483647 : i64 loc(#loc29)
    %c-2147483648_i64_20 = arith.constant -2147483648 : i64 loc(#loc29)
    %cst = arith.constant dense<2147483647> : tensor<32xi64> loc(#loc29)
    %54 = arith.cmpi sle, %53, %cst : tensor<32xi64> loc(#loc29)
    %cst_21 = arith.constant dense<-2147483648> : tensor<32xi64> loc(#loc29)
    %55 = arith.cmpi sge, %53, %cst_21 : tensor<32xi64> loc(#loc29)
    %56 = arith.andi %54, %55 : tensor<32xi1> loc(#loc29)
    %57 = arith.addi %50, %49 : tensor<32xi32> loc(#loc29)
    %58 = tt.splat %arg3 : i32 -> tensor<32xi32> loc(#loc30)
    %59 = arith.remsi %57, %58 : tensor<32xi32> loc(#loc30)
    %c32_i32_22 = arith.constant 32 : i32 loc(#loc31)
    %c32_i32_23 = arith.constant 32 : i32 loc(#loc31)
    %60 = arith.extsi %36 : i32 to i64 loc(#loc31)
    %61 = arith.extsi %c32_i32_23 : i32 to i64 loc(#loc31)
    %62 = arith.muli %60, %61 : i64 loc(#loc31)
    %c2147483647_i64_24 = arith.constant 2147483647 : i64 loc(#loc31)
    %c-2147483648_i64_25 = arith.constant -2147483648 : i64 loc(#loc31)
    %63 = arith.cmpi sle, %62, %c2147483647_i64_24 : i64 loc(#loc31)
    %64 = arith.cmpi sge, %62, %c-2147483648_i64_25 : i64 loc(#loc31)
    %65 = arith.andi %63, %64 : i1 loc(#loc31)
    %66 = arith.muli %36, %c32_i32_23 : i32 loc(#loc31)
    %67 = tt.make_range {end = 32 : i32, start = 0 : i32} : tensor<32xi32> loc(#loc32)
    %68 = tt.splat %66 : i32 -> tensor<32xi32> loc(#loc33)
    %69 = arith.extsi %68 : tensor<32xi32> to tensor<32xi64> loc(#loc33)
    %70 = arith.extsi %67 : tensor<32xi32> to tensor<32xi64> loc(#loc33)
    %71 = arith.addi %69, %70 : tensor<32xi64> loc(#loc33)
    %c2147483647_i64_26 = arith.constant 2147483647 : i64 loc(#loc33)
    %c-2147483648_i64_27 = arith.constant -2147483648 : i64 loc(#loc33)
    %cst_28 = arith.constant dense<2147483647> : tensor<32xi64> loc(#loc33)
    %72 = arith.cmpi sle, %71, %cst_28 : tensor<32xi64> loc(#loc33)
    %cst_29 = arith.constant dense<-2147483648> : tensor<32xi64> loc(#loc33)
    %73 = arith.cmpi sge, %71, %cst_29 : tensor<32xi64> loc(#loc33)
    %74 = arith.andi %72, %73 : tensor<32xi1> loc(#loc33)
    %75 = arith.addi %68, %67 : tensor<32xi32> loc(#loc33)
    %76 = tt.splat %arg4 : i32 -> tensor<32xi32> loc(#loc34)
    %77 = arith.remsi %75, %76 : tensor<32xi32> loc(#loc34)
    %78 = tt.make_range {end = 16 : i32, start = 0 : i32} : tensor<16xi32> loc(#loc35)
    %79 = tt.expand_dims %59 {axis = 1 : i32} : tensor<32xi32> -> tensor<32x1xi32> loc(#loc36)
    %80 = tt.splat %arg6 : i32 -> tensor<32x1xi32> loc(#loc37)
    %81 = arith.extsi %79 : tensor<32x1xi32> to tensor<32x1xi64> loc(#loc37)
    %82 = arith.extsi %80 : tensor<32x1xi32> to tensor<32x1xi64> loc(#loc37)
    %83 = arith.muli %81, %82 : tensor<32x1xi64> loc(#loc37)
    %c2147483647_i64_30 = arith.constant 2147483647 : i64 loc(#loc37)
    %c-2147483648_i64_31 = arith.constant -2147483648 : i64 loc(#loc37)
    %cst_32 = arith.constant dense<2147483647> : tensor<32x1xi64> loc(#loc37)
    %84 = arith.cmpi sle, %83, %cst_32 : tensor<32x1xi64> loc(#loc37)
    %cst_33 = arith.constant dense<-2147483648> : tensor<32x1xi64> loc(#loc37)
    %85 = arith.cmpi sge, %83, %cst_33 : tensor<32x1xi64> loc(#loc37)
    %86 = arith.andi %84, %85 : tensor<32x1xi1> loc(#loc37)
    %87 = arith.muli %79, %80 : tensor<32x1xi32> loc(#loc37)
    %88 = tt.expand_dims %78 {axis = 0 : i32} : tensor<16xi32> -> tensor<1x16xi32> loc(#loc38)
    %c1_i32 = arith.constant 1 : i32 loc(#loc39)
    %c1_i32_34 = arith.constant 1 : i32 loc(#loc39)
    %cst_35 = arith.constant dense<1> : tensor<1x16xi32> loc(#loc39)
    %89 = arith.extsi %88 : tensor<1x16xi32> to tensor<1x16xi64> loc(#loc39)
    %90 = arith.extsi %cst_35 : tensor<1x16xi32> to tensor<1x16xi64> loc(#loc39)
    %91 = arith.muli %89, %90 : tensor<1x16xi64> loc(#loc39)
    %c2147483647_i64_36 = arith.constant 2147483647 : i64 loc(#loc39)
    %c-2147483648_i64_37 = arith.constant -2147483648 : i64 loc(#loc39)
    %cst_38 = arith.constant dense<2147483647> : tensor<1x16xi64> loc(#loc39)
    %92 = arith.cmpi sle, %91, %cst_38 : tensor<1x16xi64> loc(#loc39)
    %cst_39 = arith.constant dense<-2147483648> : tensor<1x16xi64> loc(#loc39)
    %93 = arith.cmpi sge, %91, %cst_39 : tensor<1x16xi64> loc(#loc39)
    %94 = arith.andi %92, %93 : tensor<1x16xi1> loc(#loc39)
    %95 = arith.muli %88, %cst_35 : tensor<1x16xi32> loc(#loc39)
    %96 = tt.broadcast %87 : tensor<32x1xi32> -> tensor<32x16xi32> loc(#loc40)
    %97 = tt.broadcast %95 : tensor<1x16xi32> -> tensor<32x16xi32> loc(#loc40)
    %98 = arith.extsi %96 : tensor<32x16xi32> to tensor<32x16xi64> loc(#loc40)
    %99 = arith.extsi %97 : tensor<32x16xi32> to tensor<32x16xi64> loc(#loc40)
    %100 = arith.addi %98, %99 : tensor<32x16xi64> loc(#loc40)
    %c2147483647_i64_40 = arith.constant 2147483647 : i64 loc(#loc40)
    %c-2147483648_i64_41 = arith.constant -2147483648 : i64 loc(#loc40)
    %cst_42 = arith.constant dense<2147483647> : tensor<32x16xi64> loc(#loc40)
    %101 = arith.cmpi sle, %100, %cst_42 : tensor<32x16xi64> loc(#loc40)
    %cst_43 = arith.constant dense<-2147483648> : tensor<32x16xi64> loc(#loc40)
    %102 = arith.cmpi sge, %100, %cst_43 : tensor<32x16xi64> loc(#loc40)
    %103 = arith.andi %101, %102 : tensor<32x16xi1> loc(#loc40)
    %104 = arith.addi %96, %97 : tensor<32x16xi32> loc(#loc40)
    %105 = tt.splat %arg0 : !tt.ptr<f32> -> tensor<32x16x!tt.ptr<f32>> loc(#loc41)
    %106 = tt.addptr %105, %104 : tensor<32x16x!tt.ptr<f32>>, tensor<32x16xi32> loc(#loc41)
    %107 = tt.expand_dims %78 {axis = 1 : i32} : tensor<16xi32> -> tensor<16x1xi32> loc(#loc42)
    %108 = tt.splat %arg7 : i32 -> tensor<16x1xi32> loc(#loc43)
    %109 = arith.extsi %107 : tensor<16x1xi32> to tensor<16x1xi64> loc(#loc43)
    %110 = arith.extsi %108 : tensor<16x1xi32> to tensor<16x1xi64> loc(#loc43)
    %111 = arith.muli %109, %110 : tensor<16x1xi64> loc(#loc43)
    %c2147483647_i64_44 = arith.constant 2147483647 : i64 loc(#loc43)
    %c-2147483648_i64_45 = arith.constant -2147483648 : i64 loc(#loc43)
    %cst_46 = arith.constant dense<2147483647> : tensor<16x1xi64> loc(#loc43)
    %112 = arith.cmpi sle, %111, %cst_46 : tensor<16x1xi64> loc(#loc43)
    %cst_47 = arith.constant dense<-2147483648> : tensor<16x1xi64> loc(#loc43)
    %113 = arith.cmpi sge, %111, %cst_47 : tensor<16x1xi64> loc(#loc43)
    %114 = arith.andi %112, %113 : tensor<16x1xi1> loc(#loc43)
    %115 = arith.muli %107, %108 : tensor<16x1xi32> loc(#loc43)
    %116 = tt.expand_dims %77 {axis = 0 : i32} : tensor<32xi32> -> tensor<1x32xi32> loc(#loc44)
    %c1_i32_48 = arith.constant 1 : i32 loc(#loc45)
    %c1_i32_49 = arith.constant 1 : i32 loc(#loc45)
    %cst_50 = arith.constant dense<1> : tensor<1x32xi32> loc(#loc45)
    %117 = arith.extsi %116 : tensor<1x32xi32> to tensor<1x32xi64> loc(#loc45)
    %118 = arith.extsi %cst_50 : tensor<1x32xi32> to tensor<1x32xi64> loc(#loc45)
    %119 = arith.muli %117, %118 : tensor<1x32xi64> loc(#loc45)
    %c2147483647_i64_51 = arith.constant 2147483647 : i64 loc(#loc45)
    %c-2147483648_i64_52 = arith.constant -2147483648 : i64 loc(#loc45)
    %cst_53 = arith.constant dense<2147483647> : tensor<1x32xi64> loc(#loc45)
    %120 = arith.cmpi sle, %119, %cst_53 : tensor<1x32xi64> loc(#loc45)
    %cst_54 = arith.constant dense<-2147483648> : tensor<1x32xi64> loc(#loc45)
    %121 = arith.cmpi sge, %119, %cst_54 : tensor<1x32xi64> loc(#loc45)
    %122 = arith.andi %120, %121 : tensor<1x32xi1> loc(#loc45)
    %123 = arith.muli %116, %cst_50 : tensor<1x32xi32> loc(#loc45)
    %124 = tt.broadcast %115 : tensor<16x1xi32> -> tensor<16x32xi32> loc(#loc46)
    %125 = tt.broadcast %123 : tensor<1x32xi32> -> tensor<16x32xi32> loc(#loc46)
    %126 = arith.extsi %124 : tensor<16x32xi32> to tensor<16x32xi64> loc(#loc46)
    %127 = arith.extsi %125 : tensor<16x32xi32> to tensor<16x32xi64> loc(#loc46)
    %128 = arith.addi %126, %127 : tensor<16x32xi64> loc(#loc46)
    %c2147483647_i64_55 = arith.constant 2147483647 : i64 loc(#loc46)
    %c-2147483648_i64_56 = arith.constant -2147483648 : i64 loc(#loc46)
    %cst_57 = arith.constant dense<2147483647> : tensor<16x32xi64> loc(#loc46)
    %129 = arith.cmpi sle, %128, %cst_57 : tensor<16x32xi64> loc(#loc46)
    %cst_58 = arith.constant dense<-2147483648> : tensor<16x32xi64> loc(#loc46)
    %130 = arith.cmpi sge, %128, %cst_58 : tensor<16x32xi64> loc(#loc46)
    %131 = arith.andi %129, %130 : tensor<16x32xi1> loc(#loc46)
    %132 = arith.addi %124, %125 : tensor<16x32xi32> loc(#loc46)
    %133 = tt.splat %arg1 : !tt.ptr<f32> -> tensor<16x32x!tt.ptr<f32>> loc(#loc47)
    %134 = tt.addptr %133, %132 : tensor<16x32x!tt.ptr<f32>>, tensor<16x32xi32> loc(#loc47)
    %135 = tt.call @"zeros____(0, 0)cconstexpr_32__(0, 1)cconstexpr_32__(1,)cconstexpr_fp32_"() : () -> tensor<32x32xf32> loc(#loc48)
    %136 = tt.call @"cdiv__i32__(1,)cconstexpr_16_"(%arg5) : (i32) -> i32 loc(#loc49)
    %c0_i32_59 = arith.constant 0 : i32 loc(#loc50)
    %c1_i32_60 = arith.constant 1 : i32 loc(#loc50)
    %137 = arith.bitcast %c0_i32_59 : i32 to i32 loc(#loc50)
    %138 = arith.bitcast %136 : i32 to i32 loc(#loc50)
    %139 = arith.bitcast %c1_i32_60 : i32 to i32 loc(#loc50)
    %140 = ub.poison : i32 loc(#loc50)
    %141:3 = scf.for %arg9 = %137 to %138 step %139 iter_args(%arg10 = %135, %arg11 = %106, %arg12 = %134) -> (tensor<32x32xf32>, tensor<32x16x!tt.ptr<f32>>, tensor<16x32x!tt.ptr<f32>>)  : i32 {
      %206 = tt.expand_dims %78 {axis = 0 : i32} : tensor<16xi32> -> tensor<1x16xi32> loc(#loc51)
      %c16_i32 = arith.constant 16 : i32 loc(#loc52)
      %c16_i32_88 = arith.constant 16 : i32 loc(#loc52)
      %207 = arith.extsi %arg9 : i32 to i64 loc(#loc52)
      %208 = arith.extsi %c16_i32_88 : i32 to i64 loc(#loc52)
      %209 = arith.muli %207, %208 : i64 loc(#loc52)
      %c2147483647_i64_89 = arith.constant 2147483647 : i64 loc(#loc52)
      %c-2147483648_i64_90 = arith.constant -2147483648 : i64 loc(#loc52)
      %210 = arith.cmpi sle, %209, %c2147483647_i64_89 : i64 loc(#loc52)
      %211 = arith.cmpi sge, %209, %c-2147483648_i64_90 : i64 loc(#loc52)
      %212 = arith.andi %210, %211 : i1 loc(#loc52)
      %213 = arith.muli %arg9, %c16_i32_88 : i32 loc(#loc52)
      %214 = arith.extsi %arg5 : i32 to i64 loc(#loc53)
      %215 = arith.extsi %213 : i32 to i64 loc(#loc53)
      %216 = arith.subi %214, %215 : i64 loc(#loc53)
      %c2147483647_i64_91 = arith.constant 2147483647 : i64 loc(#loc53)
      %c-2147483648_i64_92 = arith.constant -2147483648 : i64 loc(#loc53)
      %217 = arith.cmpi sle, %216, %c2147483647_i64_91 : i64 loc(#loc53)
      %218 = arith.cmpi sge, %216, %c-2147483648_i64_92 : i64 loc(#loc53)
      %219 = arith.andi %217, %218 : i1 loc(#loc53)
      %220 = arith.subi %arg5, %213 : i32 loc(#loc53)
      %221 = tt.splat %220 : i32 -> tensor<1x16xi32> loc(#loc54)
      %222 = arith.cmpi slt, %206, %221 : tensor<1x16xi32> loc(#loc54)
      %cst_93 = arith.constant 0.000000e+00 : f32 loc(#loc55)
      %223 = tt.broadcast %222 : tensor<1x16xi1> -> tensor<32x16xi1> loc(#loc55)
      %cst_94 = arith.constant dense<0.000000e+00> : tensor<32x16xf32> loc(#loc55)
      %224 = tt.load %arg11, %223, %cst_94 : tensor<32x16x!tt.ptr<f32>> loc(#loc55)
      %225 = tt.expand_dims %78 {axis = 1 : i32} : tensor<16xi32> -> tensor<16x1xi32> loc(#loc56)
      %c16_i32_95 = arith.constant 16 : i32 loc(#loc57)
      %c16_i32_96 = arith.constant 16 : i32 loc(#loc57)
      %226 = arith.extsi %arg9 : i32 to i64 loc(#loc57)
      %227 = arith.extsi %c16_i32_96 : i32 to i64 loc(#loc57)
      %228 = arith.muli %226, %227 : i64 loc(#loc57)
      %c2147483647_i64_97 = arith.constant 2147483647 : i64 loc(#loc57)
      %c-2147483648_i64_98 = arith.constant -2147483648 : i64 loc(#loc57)
      %229 = arith.cmpi sle, %228, %c2147483647_i64_97 : i64 loc(#loc57)
      %230 = arith.cmpi sge, %228, %c-2147483648_i64_98 : i64 loc(#loc57)
      %231 = arith.andi %229, %230 : i1 loc(#loc57)
      %232 = arith.muli %arg9, %c16_i32_96 : i32 loc(#loc57)
      %233 = arith.extsi %arg5 : i32 to i64 loc(#loc58)
      %234 = arith.extsi %232 : i32 to i64 loc(#loc58)
      %235 = arith.subi %233, %234 : i64 loc(#loc58)
      %c2147483647_i64_99 = arith.constant 2147483647 : i64 loc(#loc58)
      %c-2147483648_i64_100 = arith.constant -2147483648 : i64 loc(#loc58)
      %236 = arith.cmpi sle, %235, %c2147483647_i64_99 : i64 loc(#loc58)
      %237 = arith.cmpi sge, %235, %c-2147483648_i64_100 : i64 loc(#loc58)
      %238 = arith.andi %236, %237 : i1 loc(#loc58)
      %239 = arith.subi %arg5, %232 : i32 loc(#loc58)
      %240 = tt.splat %239 : i32 -> tensor<16x1xi32> loc(#loc59)
      %241 = arith.cmpi slt, %225, %240 : tensor<16x1xi32> loc(#loc59)
      %cst_101 = arith.constant 0.000000e+00 : f32 loc(#loc60)
      %242 = tt.broadcast %241 : tensor<16x1xi1> -> tensor<16x32xi1> loc(#loc60)
      %cst_102 = arith.constant dense<0.000000e+00> : tensor<16x32xf32> loc(#loc60)
      %243 = tt.load %arg12, %242, %cst_102 : tensor<16x32x!tt.ptr<f32>> loc(#loc60)
      %cst_103 = arith.constant 0.000000e+00 : f32 loc(#loc61)
      %244 = tt.dot %224, %243, %arg10, inputPrecision = tf32 : tensor<32x16xf32> * tensor<16x32xf32> -> tensor<32x32xf32> loc(#loc61)
      %c16_i32_104 = arith.constant 16 : i32 loc(#loc62)
      %cst_105 = arith.constant dense<16> : tensor<32x16xi32> loc(#loc62)
      %245 = tt.addptr %arg11, %cst_105 : tensor<32x16x!tt.ptr<f32>>, tensor<32x16xi32> loc(#loc62)
      %c16_i32_106 = arith.constant 16 : i32 loc(#loc63)
      %c16_i32_107 = arith.constant 16 : i32 loc(#loc63)
      %246 = arith.extsi %c16_i32_107 : i32 to i64 loc(#loc63)
      %247 = arith.extsi %arg7 : i32 to i64 loc(#loc63)
      %248 = arith.muli %246, %247 : i64 loc(#loc63)
      %c2147483647_i64_108 = arith.constant 2147483647 : i64 loc(#loc63)
      %c-2147483648_i64_109 = arith.constant -2147483648 : i64 loc(#loc63)
      %249 = arith.cmpi sle, %248, %c2147483647_i64_108 : i64 loc(#loc63)
      %250 = arith.cmpi sge, %248, %c-2147483648_i64_109 : i64 loc(#loc63)
      %251 = arith.andi %249, %250 : i1 loc(#loc63)
      %252 = arith.muli %c16_i32_107, %arg7 : i32 loc(#loc63)
      %253 = tt.splat %252 : i32 -> tensor<16x32xi32> loc(#loc64)
      %254 = tt.addptr %arg12, %253 : tensor<16x32x!tt.ptr<f32>>, tensor<16x32xi32> loc(#loc64)
      scf.yield %244, %245, %254 : tensor<32x32xf32>, tensor<32x16x!tt.ptr<f32>>, tensor<16x32x!tt.ptr<f32>> loc(#loc65)
    } loc(#loc50)
    %142 = arith.truncf %141#0 : tensor<32x32xf32> to tensor<32x32xf16> loc(#loc66)
    %c32_i32_61 = arith.constant 32 : i32 loc(#loc67)
    %c32_i32_62 = arith.constant 32 : i32 loc(#loc67)
    %143 = arith.extsi %34 : i32 to i64 loc(#loc67)
    %144 = arith.extsi %c32_i32_62 : i32 to i64 loc(#loc67)
    %145 = arith.muli %143, %144 : i64 loc(#loc67)
    %c2147483647_i64_63 = arith.constant 2147483647 : i64 loc(#loc67)
    %c-2147483648_i64_64 = arith.constant -2147483648 : i64 loc(#loc67)
    %146 = arith.cmpi sle, %145, %c2147483647_i64_63 : i64 loc(#loc67)
    %147 = arith.cmpi sge, %145, %c-2147483648_i64_64 : i64 loc(#loc67)
    %148 = arith.andi %146, %147 : i1 loc(#loc67)
    %149 = arith.muli %34, %c32_i32_62 : i32 loc(#loc67)
    %150 = tt.make_range {end = 32 : i32, start = 0 : i32} : tensor<32xi32> loc(#loc68)
    %151 = tt.splat %149 : i32 -> tensor<32xi32> loc(#loc69)
    %152 = arith.extsi %151 : tensor<32xi32> to tensor<32xi64> loc(#loc69)
    %153 = arith.extsi %150 : tensor<32xi32> to tensor<32xi64> loc(#loc69)
    %154 = arith.addi %152, %153 : tensor<32xi64> loc(#loc69)
    %c2147483647_i64_65 = arith.constant 2147483647 : i64 loc(#loc69)
    %c-2147483648_i64_66 = arith.constant -2147483648 : i64 loc(#loc69)
    %cst_67 = arith.constant dense<2147483647> : tensor<32xi64> loc(#loc69)
    %155 = arith.cmpi sle, %154, %cst_67 : tensor<32xi64> loc(#loc69)
    %cst_68 = arith.constant dense<-2147483648> : tensor<32xi64> loc(#loc69)
    %156 = arith.cmpi sge, %154, %cst_68 : tensor<32xi64> loc(#loc69)
    %157 = arith.andi %155, %156 : tensor<32xi1> loc(#loc69)
    %158 = arith.addi %151, %150 : tensor<32xi32> loc(#loc69)
    %c32_i32_69 = arith.constant 32 : i32 loc(#loc70)
    %c32_i32_70 = arith.constant 32 : i32 loc(#loc70)
    %159 = arith.extsi %36 : i32 to i64 loc(#loc70)
    %160 = arith.extsi %c32_i32_70 : i32 to i64 loc(#loc70)
    %161 = arith.muli %159, %160 : i64 loc(#loc70)
    %c2147483647_i64_71 = arith.constant 2147483647 : i64 loc(#loc70)
    %c-2147483648_i64_72 = arith.constant -2147483648 : i64 loc(#loc70)
    %162 = arith.cmpi sle, %161, %c2147483647_i64_71 : i64 loc(#loc70)
    %163 = arith.cmpi sge, %161, %c-2147483648_i64_72 : i64 loc(#loc70)
    %164 = arith.andi %162, %163 : i1 loc(#loc70)
    %165 = arith.muli %36, %c32_i32_70 : i32 loc(#loc70)
    %166 = tt.make_range {end = 32 : i32, start = 0 : i32} : tensor<32xi32> loc(#loc71)
    %167 = tt.splat %165 : i32 -> tensor<32xi32> loc(#loc72)
    %168 = arith.extsi %167 : tensor<32xi32> to tensor<32xi64> loc(#loc72)
    %169 = arith.extsi %166 : tensor<32xi32> to tensor<32xi64> loc(#loc72)
    %170 = arith.addi %168, %169 : tensor<32xi64> loc(#loc72)
    %c2147483647_i64_73 = arith.constant 2147483647 : i64 loc(#loc72)
    %c-2147483648_i64_74 = arith.constant -2147483648 : i64 loc(#loc72)
    %cst_75 = arith.constant dense<2147483647> : tensor<32xi64> loc(#loc72)
    %171 = arith.cmpi sle, %170, %cst_75 : tensor<32xi64> loc(#loc72)
    %cst_76 = arith.constant dense<-2147483648> : tensor<32xi64> loc(#loc72)
    %172 = arith.cmpi sge, %170, %cst_76 : tensor<32xi64> loc(#loc72)
    %173 = arith.andi %171, %172 : tensor<32xi1> loc(#loc72)
    %174 = arith.addi %167, %166 : tensor<32xi32> loc(#loc72)
    %175 = tt.expand_dims %158 {axis = 1 : i32} : tensor<32xi32> -> tensor<32x1xi32> loc(#loc73)
    %176 = tt.splat %arg8 : i32 -> tensor<32x1xi32> loc(#loc74)
    %177 = arith.extsi %176 : tensor<32x1xi32> to tensor<32x1xi64> loc(#loc74)
    %178 = arith.extsi %175 : tensor<32x1xi32> to tensor<32x1xi64> loc(#loc74)
    %179 = arith.muli %177, %178 : tensor<32x1xi64> loc(#loc74)
    %c2147483647_i64_77 = arith.constant 2147483647 : i64 loc(#loc74)
    %c-2147483648_i64_78 = arith.constant -2147483648 : i64 loc(#loc74)
    %cst_79 = arith.constant dense<2147483647> : tensor<32x1xi64> loc(#loc74)
    %180 = arith.cmpi sle, %179, %cst_79 : tensor<32x1xi64> loc(#loc74)
    %cst_80 = arith.constant dense<-2147483648> : tensor<32x1xi64> loc(#loc74)
    %181 = arith.cmpi sge, %179, %cst_80 : tensor<32x1xi64> loc(#loc74)
    %182 = arith.andi %180, %181 : tensor<32x1xi1> loc(#loc74)
    %183 = arith.muli %176, %175 : tensor<32x1xi32> loc(#loc74)
    %184 = tt.splat %arg2 : !tt.ptr<f16> -> tensor<32x1x!tt.ptr<f16>> loc(#loc75)
    %185 = tt.addptr %184, %183 : tensor<32x1x!tt.ptr<f16>>, tensor<32x1xi32> loc(#loc75)
    %186 = tt.expand_dims %174 {axis = 0 : i32} : tensor<32xi32> -> tensor<1x32xi32> loc(#loc76)
    %c1_i32_81 = arith.constant 1 : i32 loc(#loc77)
    %c1_i32_82 = arith.constant 1 : i32 loc(#loc77)
    %cst_83 = arith.constant dense<1> : tensor<1x32xi32> loc(#loc77)
    %187 = arith.extsi %cst_83 : tensor<1x32xi32> to tensor<1x32xi64> loc(#loc77)
    %188 = arith.extsi %186 : tensor<1x32xi32> to tensor<1x32xi64> loc(#loc77)
    %189 = arith.muli %187, %188 : tensor<1x32xi64> loc(#loc77)
    %c2147483647_i64_84 = arith.constant 2147483647 : i64 loc(#loc77)
    %c-2147483648_i64_85 = arith.constant -2147483648 : i64 loc(#loc77)
    %cst_86 = arith.constant dense<2147483647> : tensor<1x32xi64> loc(#loc77)
    %190 = arith.cmpi sle, %189, %cst_86 : tensor<1x32xi64> loc(#loc77)
    %cst_87 = arith.constant dense<-2147483648> : tensor<1x32xi64> loc(#loc77)
    %191 = arith.cmpi sge, %189, %cst_87 : tensor<1x32xi64> loc(#loc77)
    %192 = arith.andi %190, %191 : tensor<1x32xi1> loc(#loc77)
    %193 = arith.muli %cst_83, %186 : tensor<1x32xi32> loc(#loc77)
    %194 = tt.broadcast %185 : tensor<32x1x!tt.ptr<f16>> -> tensor<32x32x!tt.ptr<f16>> loc(#loc78)
    %195 = tt.broadcast %193 : tensor<1x32xi32> -> tensor<32x32xi32> loc(#loc78)
    %196 = tt.addptr %194, %195 : tensor<32x32x!tt.ptr<f16>>, tensor<32x32xi32> loc(#loc78)
    %197 = tt.expand_dims %158 {axis = 1 : i32} : tensor<32xi32> -> tensor<32x1xi32> loc(#loc79)
    %198 = tt.splat %arg3 : i32 -> tensor<32x1xi32> loc(#loc80)
    %199 = arith.cmpi slt, %197, %198 : tensor<32x1xi32> loc(#loc80)
    %200 = tt.expand_dims %174 {axis = 0 : i32} : tensor<32xi32> -> tensor<1x32xi32> loc(#loc81)
    %201 = tt.splat %arg4 : i32 -> tensor<1x32xi32> loc(#loc82)
    %202 = arith.cmpi slt, %200, %201 : tensor<1x32xi32> loc(#loc82)
    %203 = tt.broadcast %199 : tensor<32x1xi1> -> tensor<32x32xi1> loc(#loc83)
    %204 = tt.broadcast %202 : tensor<1x32xi1> -> tensor<32x32xi1> loc(#loc83)
    %205 = arith.andi %203, %204 : tensor<32x32xi1> loc(#loc83)
    tt.store %196, %142, %205 : tensor<32x32x!tt.ptr<f16>> loc(#loc84)
    tt.return loc(#loc85)
  } loc(#loc)
  tt.func private @"cdiv__i32__(1,)cconstexpr_32_"(%arg0: i32 loc("/home/ahmed/miniconda3/envs/torch-env/lib/python3.13/site-packages/triton/language/standard.py":31:0)) -> i32 attributes {noinline = false} {
    %c32_i32 = arith.constant 32 : i32 loc(#loc87)
    %c31_i32 = arith.constant 31 : i32 loc(#loc88)
    %0 = arith.addi %arg0, %c31_i32 : i32 loc(#loc88)
    %1 = arith.divsi %0, %c32_i32 : i32 loc(#loc89)
    tt.return %1 : i32 loc(#loc90)
  } loc(#loc86)
  tt.func private @"zeros____(0, 0)cconstexpr_32__(0, 1)cconstexpr_32__(1,)cconstexpr_fp32_"() -> tensor<32x32xf32> attributes {noinline = false} {
    %cst = arith.constant dense<0.000000e+00> : tensor<32x32xf32> loc(#loc92)
    tt.return %cst : tensor<32x32xf32> loc(#loc93)
  } loc(#loc91)
  tt.func private @"cdiv__i32__(1,)cconstexpr_16_"(%arg0: i32 loc("/home/ahmed/miniconda3/envs/torch-env/lib/python3.13/site-packages/triton/language/standard.py":31:0)) -> i32 attributes {noinline = false} {
    %c16_i32 = arith.constant 16 : i32 loc(#loc94)
    %c16_i32_0 = arith.constant 16 : i32 loc(#loc94)
    %0 = arith.extsi %arg0 : i32 to i64 loc(#loc94)
    %1 = arith.extsi %c16_i32_0 : i32 to i64 loc(#loc94)
    %2 = arith.addi %0, %1 : i64 loc(#loc94)
    %c2147483647_i64 = arith.constant 2147483647 : i64 loc(#loc94)
    %c-2147483648_i64 = arith.constant -2147483648 : i64 loc(#loc94)
    %3 = arith.cmpi sle, %2, %c2147483647_i64 : i64 loc(#loc94)
    %4 = arith.cmpi sge, %2, %c-2147483648_i64 : i64 loc(#loc94)
    %5 = arith.andi %3, %4 : i1 loc(#loc94)
    %6 = arith.addi %arg0, %c16_i32_0 : i32 loc(#loc94)
    %c1_i32 = arith.constant 1 : i32 loc(#loc88)
    %c1_i32_1 = arith.constant 1 : i32 loc(#loc88)
    %7 = arith.extsi %6 : i32 to i64 loc(#loc88)
    %8 = arith.extsi %c1_i32_1 : i32 to i64 loc(#loc88)
    %9 = arith.subi %7, %8 : i64 loc(#loc88)
    %c2147483647_i64_2 = arith.constant 2147483647 : i64 loc(#loc88)
    %c-2147483648_i64_3 = arith.constant -2147483648 : i64 loc(#loc88)
    %10 = arith.cmpi sle, %9, %c2147483647_i64_2 : i64 loc(#loc88)
    %11 = arith.cmpi sge, %9, %c-2147483648_i64_3 : i64 loc(#loc88)
    %12 = arith.andi %10, %11 : i1 loc(#loc88)
    %13 = arith.subi %6, %c1_i32_1 : i32 loc(#loc88)
    %c16_i32_4 = arith.constant 16 : i32 loc(#loc89)
    %c16_i32_5 = arith.constant 16 : i32 loc(#loc89)
    %14 = arith.divsi %13, %c16_i32_5 : i32 loc(#loc89)
    tt.return %14 : i32 loc(#loc90)
  ^bb1:  // no predecessors
    %15 = ub.poison : i32 loc(#loc95)
    tt.return %15 : i32 loc(#loc95)
  } loc(#loc86)
} loc(#loc)
#loc1 = loc("examples/kernels/binary_ops.py":126:24)
#loc2 = loc("examples/kernels/binary_ops.py":127:27)
#loc3 = loc("examples/kernels/binary_ops.py":128:27)
#loc4 = loc("examples/kernels/binary_ops.py":129:38)
#loc5 = loc("examples/kernels/binary_ops.py":130:22)
#loc6 = loc("examples/kernels/binary_ops.py":131:29)
#loc7 = loc("examples/kernels/binary_ops.py":132:35)
#loc8 = loc("examples/kernels/binary_ops.py":132:48)
#loc9 = loc("examples/kernels/binary_ops.py":133:34)
#loc10 = loc("examples/kernels/binary_ops.py":133:54)
#loc11 = loc("examples/kernels/binary_ops.py":133:27)
#loc12 = loc("examples/kernels/binary_ops.py":134:19)
#loc13 = loc("examples/kernels/binary_ops.py":134:40)
#loc14 = loc("examples/kernels/binary_ops.py":140:23)
#loc15 = loc("examples/kernels/binary_ops.py":140:14)
#loc16 = loc("examples/kernels/binary_ops.py":141:23)
#loc17 = loc("examples/kernels/binary_ops.py":141:14)
#loc18 = loc("examples/kernels/binary_ops.py":142:26)
#loc19 = loc("examples/kernels/binary_ops.py":142:14)
#loc20 = loc("examples/kernels/binary_ops.py":143:14)
#loc21 = loc("examples/kernels/binary_ops.py":144:14)
#loc22 = loc("examples/kernels/binary_ops.py":145:26)
#loc23 = loc("examples/kernels/binary_ops.py":145:14)
#loc24 = loc("examples/kernels/binary_ops.py":146:26)
#loc25 = loc("examples/kernels/binary_ops.py":146:14)
#loc26 = loc("examples/kernels/binary_ops.py":147:14)
#loc27 = loc("examples/kernels/binary_ops.py":156:23)
#loc28 = loc("examples/kernels/binary_ops.py":156:51)
#loc29 = loc("examples/kernels/binary_ops.py":156:38)
#loc30 = loc("examples/kernels/binary_ops.py":156:68)
#loc31 = loc("examples/kernels/binary_ops.py":157:23)
#loc32 = loc("examples/kernels/binary_ops.py":157:51)
#loc33 = loc("examples/kernels/binary_ops.py":157:38)
#loc34 = loc("examples/kernels/binary_ops.py":157:68)
#loc35 = loc("examples/kernels/binary_ops.py":158:26)
#loc36 = loc("examples/kernels/binary_ops.py":159:30)
#loc37 = loc("examples/kernels/binary_ops.py":159:41)
#loc38 = loc("examples/kernels/binary_ops.py":159:60)
#loc39 = loc("examples/kernels/binary_ops.py":159:71)
#loc40 = loc("examples/kernels/binary_ops.py":159:53)
#loc41 = loc("examples/kernels/binary_ops.py":159:22)
#loc42 = loc("examples/kernels/binary_ops.py":160:29)
#loc43 = loc("examples/kernels/binary_ops.py":160:40)
#loc44 = loc("examples/kernels/binary_ops.py":160:60)
#loc45 = loc("examples/kernels/binary_ops.py":160:71)
#loc46 = loc("examples/kernels/binary_ops.py":160:52)
#loc47 = loc("examples/kernels/binary_ops.py":160:22)
#loc48 = loc("examples/kernels/binary_ops.py":167:27)
#loc49 = loc("examples/kernels/binary_ops.py":168:33)
#loc50 = loc("examples/kernels/binary_ops.py":168:22)
#loc51 = loc("examples/kernels/binary_ops.py":171:40)
#loc52 = loc("examples/kernels/binary_ops.py":171:59)
#loc53 = loc("examples/kernels/binary_ops.py":171:55)
#loc54 = loc("examples/kernels/binary_ops.py":171:51)
#loc55 = loc("examples/kernels/binary_ops.py":171:20)
#loc56 = loc("examples/kernels/binary_ops.py":172:40)
#loc57 = loc("examples/kernels/binary_ops.py":172:59)
#loc58 = loc("examples/kernels/binary_ops.py":172:55)
#loc59 = loc("examples/kernels/binary_ops.py":172:51)
#loc60 = loc("examples/kernels/binary_ops.py":172:20)
#loc61 = loc("examples/kernels/binary_ops.py":174:35)
#loc62 = loc("examples/kernels/binary_ops.py":176:18)
#loc63 = loc("examples/kernels/binary_ops.py":177:33)
#loc64 = loc("examples/kernels/binary_ops.py":177:18)
#loc65 = loc("examples/kernels/binary_ops.py":177:8)
#loc66 = loc("examples/kernels/binary_ops.py":182:23)
#loc67 = loc("examples/kernels/binary_ops.py":186:22)
#loc68 = loc("examples/kernels/binary_ops.py":186:50)
#loc69 = loc("examples/kernels/binary_ops.py":186:37)
#loc70 = loc("examples/kernels/binary_ops.py":187:22)
#loc71 = loc("examples/kernels/binary_ops.py":187:50)
#loc72 = loc("examples/kernels/binary_ops.py":187:37)
#loc73 = loc("examples/kernels/binary_ops.py":188:41)
#loc74 = loc("examples/kernels/binary_ops.py":188:33)
#loc75 = loc("examples/kernels/binary_ops.py":188:21)
#loc76 = loc("examples/kernels/binary_ops.py":188:72)
#loc77 = loc("examples/kernels/binary_ops.py":188:64)
#loc78 = loc("examples/kernels/binary_ops.py":188:52)
#loc79 = loc("examples/kernels/binary_ops.py":189:22)
#loc80 = loc("examples/kernels/binary_ops.py":189:33)
#loc81 = loc("examples/kernels/binary_ops.py":189:47)
#loc82 = loc("examples/kernels/binary_ops.py":189:58)
#loc83 = loc("examples/kernels/binary_ops.py":189:39)
#loc84 = loc("examples/kernels/binary_ops.py":190:21)
#loc85 = loc("examples/kernels/binary_ops.py":190:4)
#loc87 = loc(unknown)
#loc88 = loc("/home/ahmed/miniconda3/envs/torch-env/lib/python3.13/site-packages/triton/language/standard.py":40:22)
#loc89 = loc("/home/ahmed/miniconda3/envs/torch-env/lib/python3.13/site-packages/triton/language/standard.py":40:28)
#loc90 = loc("/home/ahmed/miniconda3/envs/torch-env/lib/python3.13/site-packages/triton/language/standard.py":40:11)
#loc91 = loc("/home/ahmed/miniconda3/envs/torch-env/lib/python3.13/site-packages/triton/language/standard.py":113:0)
#loc92 = loc("/home/ahmed/miniconda3/envs/torch-env/lib/python3.13/site-packages/triton/language/standard.py":122:31)
#loc93 = loc("/home/ahmed/miniconda3/envs/torch-env/lib/python3.13/site-packages/triton/language/standard.py":122:11)
#loc94 = loc("/home/ahmed/miniconda3/envs/torch-env/lib/python3.13/site-packages/triton/language/standard.py":40:16)
#loc95 = loc("/home/ahmed/miniconda3/envs/torch-env/lib/python3.13/site-packages/triton/language/standard.py":40:4)


// -----// IR Dump Before Canonicalizer (canonicalize) ('tt.func' operation: @matmul_kernel) //----- //
#loc = loc("examples/kernels/binary_ops.py":103:0)
#loc86 = loc("/home/ahmed/miniconda3/envs/torch-env/lib/python3.13/site-packages/triton/language/standard.py":31:0)
module {
  tt.func public @matmul_kernel(%arg0: !tt.ptr<f32> {tt.divisibility = 16 : i32} loc("examples/kernels/binary_ops.py":103:0), %arg1: !tt.ptr<f32> {tt.divisibility = 16 : i32} loc("examples/kernels/binary_ops.py":103:0), %arg2: !tt.ptr<f16> {tt.divisibility = 16 : i32} loc("examples/kernels/binary_ops.py":103:0), %arg3: i32 {tt.divisibility = 16 : i32} loc("examples/kernels/binary_ops.py":103:0), %arg4: i32 {tt.divisibility = 16 : i32} loc("examples/kernels/binary_ops.py":103:0), %arg5: i32 loc("examples/kernels/binary_ops.py":103:0), %arg6: i32 loc("examples/kernels/binary_ops.py":103:0), %arg7: i32 {tt.divisibility = 16 : i32} loc("examples/kernels/binary_ops.py":103:0), %arg8: i32 {tt.divisibility = 16 : i32} loc("examples/kernels/binary_ops.py":103:0)) attributes {noinline = false} {
    %0 = tt.get_program_id x : i32 loc(#loc1)
    %1 = tt.call @"cdiv__i32__(1,)cconstexpr_32_"(%arg3) : (i32) -> i32 loc(#loc2)
    %2 = tt.call @"cdiv__i32__(1,)cconstexpr_32_"(%arg4) : (i32) -> i32 loc(#loc3)
    %c4_i32 = arith.constant 4 : i32 loc(#loc4)
    %c4_i32_0 = arith.constant 4 : i32 loc(#loc4)
    %3 = arith.extsi %c4_i32_0 : i32 to i64 loc(#loc4)
    %4 = arith.extsi %2 : i32 to i64 loc(#loc4)
    %5 = arith.muli %3, %4 : i64 loc(#loc4)
    %c2147483647_i64 = arith.constant 2147483647 : i64 loc(#loc4)
    %c-2147483648_i64 = arith.constant -2147483648 : i64 loc(#loc4)
    %6 = arith.cmpi sle, %5, %c2147483647_i64 : i64 loc(#loc4)
    %7 = arith.cmpi sge, %5, %c-2147483648_i64 : i64 loc(#loc4)
    %8 = arith.andi %6, %7 : i1 loc(#loc4)
    %9 = arith.muli %c4_i32_0, %2 : i32 loc(#loc4)
    %10 = arith.divsi %0, %9 : i32 loc(#loc5)
    %c4_i32_1 = arith.constant 4 : i32 loc(#loc6)
    %c4_i32_2 = arith.constant 4 : i32 loc(#loc6)
    %11 = arith.extsi %10 : i32 to i64 loc(#loc6)
    %12 = arith.extsi %c4_i32_2 : i32 to i64 loc(#loc6)
    %13 = arith.muli %11, %12 : i64 loc(#loc6)
    %c2147483647_i64_3 = arith.constant 2147483647 : i64 loc(#loc6)
    %c-2147483648_i64_4 = arith.constant -2147483648 : i64 loc(#loc6)
    %14 = arith.cmpi sle, %13, %c2147483647_i64_3 : i64 loc(#loc6)
    %15 = arith.cmpi sge, %13, %c-2147483648_i64_4 : i64 loc(#loc6)
    %16 = arith.andi %14, %15 : i1 loc(#loc6)
    %17 = arith.muli %10, %c4_i32_2 : i32 loc(#loc6)
    %18 = arith.extsi %1 : i32 to i64 loc(#loc7)
    %19 = arith.extsi %17 : i32 to i64 loc(#loc7)
    %20 = arith.subi %18, %19 : i64 loc(#loc7)
    %c2147483647_i64_5 = arith.constant 2147483647 : i64 loc(#loc7)
    %c-2147483648_i64_6 = arith.constant -2147483648 : i64 loc(#loc7)
    %21 = arith.cmpi sle, %20, %c2147483647_i64_5 : i64 loc(#loc7)
    %22 = arith.cmpi sge, %20, %c-2147483648_i64_6 : i64 loc(#loc7)
    %23 = arith.andi %21, %22 : i1 loc(#loc7)
    %24 = arith.subi %1, %17 : i32 loc(#loc7)
    %c4_i32_7 = arith.constant 4 : i32 loc(#loc8)
    %25 = arith.minsi %24, %c4_i32_7 : i32 loc(#loc8)
    %26 = arith.remsi %0, %9 : i32 loc(#loc9)
    %27 = arith.remsi %26, %25 : i32 loc(#loc10)
    %28 = arith.extsi %17 : i32 to i64 loc(#loc11)
    %29 = arith.extsi %27 : i32 to i64 loc(#loc11)
    %30 = arith.addi %28, %29 : i64 loc(#loc11)
    %c2147483647_i64_8 = arith.constant 2147483647 : i64 loc(#loc11)
    %c-2147483648_i64_9 = arith.constant -2147483648 : i64 loc(#loc11)
    %31 = arith.cmpi sle, %30, %c2147483647_i64_8 : i64 loc(#loc11)
    %32 = arith.cmpi sge, %30, %c-2147483648_i64_9 : i64 loc(#loc11)
    %33 = arith.andi %31, %32 : i1 loc(#loc11)
    %34 = arith.addi %17, %27 : i32 loc(#loc11)
    %35 = arith.remsi %0, %9 : i32 loc(#loc12)
    %36 = arith.divsi %35, %25 : i32 loc(#loc13)
    %c0_i32 = arith.constant 0 : i32 loc(#loc14)
    %37 = arith.cmpi sge, %34, %c0_i32 : i32 loc(#loc14)
    llvm.intr.assume %37 : i1 loc(#loc15)
    %c0_i32_10 = arith.constant 0 : i32 loc(#loc16)
    %38 = arith.cmpi sge, %36, %c0_i32_10 : i32 loc(#loc16)
    llvm.intr.assume %38 : i1 loc(#loc17)
    %c0_i32_11 = arith.constant 0 : i32 loc(#loc18)
    %39 = arith.cmpi sgt, %arg6, %c0_i32_11 : i32 loc(#loc18)
    llvm.intr.assume %39 : i1 loc(#loc19)
    %true = arith.constant true loc(#loc20)
    llvm.intr.assume %true : i1 loc(#loc20)
    %true_12 = arith.constant true loc(#loc21)
    llvm.intr.assume %true_12 : i1 loc(#loc21)
    %c0_i32_13 = arith.constant 0 : i32 loc(#loc22)
    %40 = arith.cmpi sgt, %arg7, %c0_i32_13 : i32 loc(#loc22)
    llvm.intr.assume %40 : i1 loc(#loc23)
    %c0_i32_14 = arith.constant 0 : i32 loc(#loc24)
    %41 = arith.cmpi sgt, %arg8, %c0_i32_14 : i32 loc(#loc24)
    llvm.intr.assume %41 : i1 loc(#loc25)
    %true_15 = arith.constant true loc(#loc26)
    llvm.intr.assume %true_15 : i1 loc(#loc26)
    %c32_i32 = arith.constant 32 : i32 loc(#loc27)
    %c32_i32_16 = arith.constant 32 : i32 loc(#loc27)
    %42 = arith.extsi %34 : i32 to i64 loc(#loc27)
    %43 = arith.extsi %c32_i32_16 : i32 to i64 loc(#loc27)
    %44 = arith.muli %42, %43 : i64 loc(#loc27)
    %c2147483647_i64_17 = arith.constant 2147483647 : i64 loc(#loc27)
    %c-2147483648_i64_18 = arith.constant -2147483648 : i64 loc(#loc27)
    %45 = arith.cmpi sle, %44, %c2147483647_i64_17 : i64 loc(#loc27)
    %46 = arith.cmpi sge, %44, %c-2147483648_i64_18 : i64 loc(#loc27)
    %47 = arith.andi %45, %46 : i1 loc(#loc27)
    %48 = arith.muli %34, %c32_i32_16 : i32 loc(#loc27)
    %49 = tt.make_range {end = 32 : i32, start = 0 : i32} : tensor<32xi32> loc(#loc28)
    %50 = tt.splat %48 : i32 -> tensor<32xi32> loc(#loc29)
    %51 = arith.extsi %50 : tensor<32xi32> to tensor<32xi64> loc(#loc29)
    %52 = arith.extsi %49 : tensor<32xi32> to tensor<32xi64> loc(#loc29)
    %53 = arith.addi %51, %52 : tensor<32xi64> loc(#loc29)
    %c2147483647_i64_19 = arith.constant 2147483647 : i64 loc(#loc29)
    %c-2147483648_i64_20 = arith.constant -2147483648 : i64 loc(#loc29)
    %cst = arith.constant dense<2147483647> : tensor<32xi64> loc(#loc29)
    %54 = arith.cmpi sle, %53, %cst : tensor<32xi64> loc(#loc29)
    %cst_21 = arith.constant dense<-2147483648> : tensor<32xi64> loc(#loc29)
    %55 = arith.cmpi sge, %53, %cst_21 : tensor<32xi64> loc(#loc29)
    %56 = arith.andi %54, %55 : tensor<32xi1> loc(#loc29)
    %57 = arith.addi %50, %49 : tensor<32xi32> loc(#loc29)
    %58 = tt.splat %arg3 : i32 -> tensor<32xi32> loc(#loc30)
…
    %73 = llvm.icmp "eq" %72, %29 : i32 loc(#loc30)
    %74 = llvm.select %73, %29, %30 : i1, i32 loc(#loc30)
    %75 = llvm.xor %71, %74 : i32 loc(#loc30)
    %76 = llvm.xor %75, %29 : i32 loc(#loc30)
    %77 = llvm.xor %75, %19 : i32 loc(#loc30)
    %78 = llvm.xor %75, %26 : i32 loc(#loc30)
    %79 = llvm.xor %75, %18 : i32 loc(#loc30)
    %80 = llvm.add %76, %21 : i32 loc(#loc30)
    %81 = llvm.add %77, %21 : i32 loc(#loc30)
    %82 = llvm.add %78, %21 : i32 loc(#loc30)
    %83 = llvm.add %79, %21 : i32 loc(#loc30)
    %84 = llvm.and %62, %30 : i32 loc(#loc30)
    %85 = llvm.icmp "eq" %84, %29 : i32 loc(#loc30)
    %86 = llvm.select %85, %29, %25 : i1, i32 loc(#loc30)
    %87 = llvm.xor %29, %86 : i32 loc(#loc30)
    %88 = llvm.and %62, %19 : i32 loc(#loc30)
    %89 = llvm.icmp "eq" %88, %29 : i32 loc(#loc30)
    %90 = llvm.select %89, %29, %20 : i1, i32 loc(#loc30)
    %91 = llvm.xor %87, %90 : i32 loc(#loc30)
    %92 = llvm.select %65, %29, %30 : i1, i32 loc(#loc30)
    %93 = llvm.xor %91, %92 : i32 loc(#loc30)
    %94 = llvm.select %69, %29, %19 : i1, i32 loc(#loc30)
    %95 = llvm.xor %93, %94 : i32 loc(#loc30)
    %96 = llvm.select %73, %29, %26 : i1, i32 loc(#loc30)
    %97 = llvm.xor %95, %96 : i32 loc(#loc30)
    %98 = llvm.xor %97, %29 : i32 loc(#loc30)
    %99 = llvm.add %98, %21 : i32 loc(#loc30)
    %100 = llvm.and %62, %25 : i32 loc(#loc30)
    %101 = llvm.icmp "eq" %100, %29 : i32 loc(#loc30)
    %102 = llvm.select %101, %29, %30 : i1, i32 loc(#loc30)
    %103 = llvm.xor %29, %102 : i32 loc(#loc30)
    %104 = llvm.and %62, %20 : i32 loc(#loc30)
    %105 = llvm.icmp "eq" %104, %29 : i32 loc(#loc30)
    %106 = llvm.select %105, %29, %19 : i1, i32 loc(#loc30)
    %107 = llvm.xor %103, %106 : i32 loc(#loc30)
    %108 = llvm.select %85, %29, %26 : i1, i32 loc(#loc30)
    %109 = llvm.xor %107, %108 : i32 loc(#loc30)
    %110 = llvm.xor %109, %29 : i32 loc(#loc30)
    %111 = llvm.xor %109, %25 : i32 loc(#loc30)
    %112 = llvm.xor %109, %20 : i32 loc(#loc30)
    %113 = llvm.xor %109, %17 : i32 loc(#loc30)
    %114 = llvm.add %110, %21 : i32 loc(#loc30)
    %115 = llvm.add %111, %21 : i32 loc(#loc30)
    %116 = llvm.add %112, %21 : i32 loc(#loc30)
    %117 = llvm.add %113, %21 : i32 loc(#loc30)
    %118 = llvm.select %101, %29, %19 : i1, i32 loc(#loc30)
    %119 = llvm.xor %29, %118 : i32 loc(#loc30)
    %120 = llvm.select %105, %29, %26 : i1, i32 loc(#loc30)
    %121 = llvm.xor %119, %120 : i32 loc(#loc30)
    %122 = llvm.xor %121, %29 : i32 loc(#loc30)
    %123 = llvm.add %122, %21 : i32 loc(#loc30)
    %124 = llvm.add %60, %80 : i32 loc(#loc31)
    %125 = llvm.add %60, %81 : i32 loc(#loc31)
    %126 = llvm.add %60, %82 : i32 loc(#loc31)
    %127 = llvm.add %60, %83 : i32 loc(#loc31)
    %128 = llvm.add %60, %99 : i32 loc(#loc31)
    %129 = llvm.srem %124, %arg3 : i32 loc(#loc32)
    %130 = llvm.srem %125, %arg3 : i32 loc(#loc32)
    %131 = llvm.srem %126, %arg3 : i32 loc(#loc32)
    %132 = llvm.srem %127, %arg3 : i32 loc(#loc32)
    %133 = llvm.mul %54, %27 : i32 loc(#loc33)
    %134 = llvm.add %133, %114 : i32 loc(#loc34)
    %135 = llvm.add %133, %115 : i32 loc(#loc34)
    %136 = llvm.add %133, %116 : i32 loc(#loc34)
    %137 = llvm.add %133, %117 : i32 loc(#loc34)
    %138 = llvm.add %133, %123 : i32 loc(#loc34)
    %139 = llvm.srem %134, %arg4 : i32 loc(#loc35)
    %140 = llvm.srem %135, %arg4 : i32 loc(#loc35)
    %141 = llvm.srem %136, %arg4 : i32 loc(#loc35)
    %142 = llvm.srem %137, %arg4 : i32 loc(#loc35)
    %143 = llvm.mul %129, %arg6 : i32 loc(#loc36)
    %144 = llvm.mul %130, %arg6 : i32 loc(#loc36)
    %145 = llvm.mul %131, %arg6 : i32 loc(#loc36)
    %146 = llvm.mul %132, %arg6 : i32 loc(#loc36)
    %147 = llvm.select %101, %29, %25 : i1, i32 loc(#loc37)
    %148 = llvm.xor %29, %147 : i32 loc(#loc37)
    %149 = llvm.select %105, %29, %20 : i1, i32 loc(#loc37)
    %150 = llvm.xor %148, %149 : i32 loc(#loc37)
    %151 = llvm.select %85, %29, %30 : i1, i32 loc(#loc37)
    %152 = llvm.xor %150, %151 : i32 loc(#loc37)
    %153 = llvm.select %89, %29, %19 : i1, i32 loc(#loc37)
    %154 = llvm.xor %152, %153 : i32 loc(#loc37)
    %155 = llvm.xor %154, %29 : i32 loc(#loc37)
    %156 = llvm.add %155, %21 : i32 loc(#loc37)
    %157 = llvm.add %143, %156 : i32 loc(#loc38)
    %158 = llvm.add %144, %156 : i32 loc(#loc38)
    %159 = llvm.add %145, %156 : i32 loc(#loc38)
    %160 = llvm.add %146, %156 : i32 loc(#loc38)
    %161 = llvm.getelementptr %arg0[%157] : (!llvm.ptr<1>, i32) -> !llvm.ptr<1>, f32 loc(#loc39)
    %162 = llvm.getelementptr %arg0[%158] : (!llvm.ptr<1>, i32) -> !llvm.ptr<1>, f32 loc(#loc39)
    %163 = llvm.getelementptr %arg0[%159] : (!llvm.ptr<1>, i32) -> !llvm.ptr<1>, f32 loc(#loc39)
    %164 = llvm.getelementptr %arg0[%160] : (!llvm.ptr<1>, i32) -> !llvm.ptr<1>, f32 loc(#loc39)
    %165 = llvm.insertvalue %161, %13[0] : !llvm.struct<(ptr<1>, ptr<1>, ptr<1>, ptr<1>)>  loc(#loc39)
    %166 = llvm.insertvalue %162, %165[1] : !llvm.struct<(ptr<1>, ptr<1>, ptr<1>, ptr<1>)>  loc(#loc39)
    %167 = llvm.insertvalue %163, %166[2] : !llvm.struct<(ptr<1>, ptr<1>, ptr<1>, ptr<1>)>  loc(#loc39)
    %168 = llvm.insertvalue %164, %167[3] : !llvm.struct<(ptr<1>, ptr<1>, ptr<1>, ptr<1>)>  loc(#loc39)
    %169 = llvm.select %89, %29, %25 : i1, i32 loc(#loc40)
    %170 = llvm.xor %29, %169 : i32 loc(#loc40)
    %171 = llvm.select %65, %29, %20 : i1, i32 loc(#loc40)
    %172 = llvm.xor %170, %171 : i32 loc(#loc40)
    %173 = llvm.select %69, %29, %30 : i1, i32 loc(#loc40)
    %174 = llvm.xor %172, %173 : i32 loc(#loc40)
    %175 = llvm.select %73, %29, %19 : i1, i32 loc(#loc40)
    %176 = llvm.xor %174, %175 : i32 loc(#loc40)
    %177 = llvm.xor %176, %29 : i32 loc(#loc40)
    %178 = llvm.add %177, %21 : i32 loc(#loc40)
    %179 = llvm.mul %178, %arg7 : i32 loc(#loc41)
    %180 = llvm.add %179, %139 : i32 loc(#loc42)
    %181 = llvm.add %179, %140 : i32 loc(#loc42)
    %182 = llvm.add %179, %141 : i32 loc(#loc42)
    %183 = llvm.add %179, %142 : i32 loc(#loc42)
    %184 = llvm.getelementptr %arg1[%180] : (!llvm.ptr<1>, i32) -> !llvm.ptr<1>, f32 loc(#loc43)
    %185 = llvm.getelementptr %arg1[%181] : (!llvm.ptr<1>, i32) -> !llvm.ptr<1>, f32 loc(#loc43)
    %186 = llvm.getelementptr %arg1[%182] : (!llvm.ptr<1>, i32) -> !llvm.ptr<1>, f32 loc(#loc43)
    %187 = llvm.getelementptr %arg1[%183] : (!llvm.ptr<1>, i32) -> !llvm.ptr<1>, f32 loc(#loc43)
    %188 = llvm.insertvalue %184, %13[0] : !llvm.struct<(ptr<1>, ptr<1>, ptr<1>, ptr<1>)>  loc(#loc43)
    %189 = llvm.insertvalue %185, %188[1] : !llvm.struct<(ptr<1>, ptr<1>, ptr<1>, ptr<1>)>  loc(#loc43)
    %190 = llvm.insertvalue %186, %189[2] : !llvm.struct<(ptr<1>, ptr<1>, ptr<1>, ptr<1>)>  loc(#loc43)
    %191 = llvm.insertvalue %187, %190[3] : !llvm.struct<(ptr<1>, ptr<1>, ptr<1>, ptr<1>)>  loc(#loc43)
    %192 = llvm.add %arg5, %23 : i32 loc(#loc69)
    %193 = llvm.sdiv %192, %26 : i32 loc(#loc70)
    %194 = llvm.mul %arg7, %26 : i32 loc(#loc45)
    %195 = llvm.getelementptr %12[2048] : (!llvm.ptr<3>) -> !llvm.ptr<3>, i8 loc(#loc46)
    %196 = llvm.icmp "sgt" %193, %29 : i32 loc(#loc47)
    %197 = llvm.icmp "slt" %156, %arg5 : i32 loc(#loc48)
    %198 = llvm.mul %29, %11 : i32 loc(#loc49)
    %199 = llvm.add %198, %29 : i32 loc(#loc49)
    %200 = llvm.mul %29, %26 : i32 loc(#loc49)
    %201 = llvm.add %199, %200 : i32 loc(#loc49)
    %202 = llvm.mul %29, %25 : i32 loc(#loc49)
    %203 = llvm.add %201, %202 : i32 loc(#loc49)
    %204 = llvm.getelementptr %12[%203] : (!llvm.ptr<3>, i32) -> !llvm.ptr<3>, f32 loc(#loc49)
    %205 = llvm.and %196, %197 : i1 loc(#loc47)
    %206 = llvm.xor %154, %173 : i32 loc(#loc49)
    %207 = llvm.xor %206, %175 : i32 loc(#loc49)
    %208 = llvm.mul %207, %25 : i32 loc(#loc49)
    %209 = llvm.add %208, %29 : i32 loc(#loc49)
    %210 = llvm.mul %75, %26 : i32 loc(#loc49)
    %211 = llvm.add %209, %210 : i32 loc(#loc49)
    %212 = llvm.getelementptr inbounds %204[%211] : (!llvm.ptr<3>, i32) -> !llvm.ptr<3>, f32 loc(#loc49)
    %213 = llvm.xor %19, %66 : i32 loc(#loc49)
    %214 = llvm.xor %213, %70 : i32 loc(#loc49)
    %215 = llvm.xor %214, %74 : i32 loc(#loc49)
    %216 = llvm.mul %215, %26 : i32 loc(#loc49)
    %217 = llvm.add %209, %216 : i32 loc(#loc49)
    %218 = llvm.getelementptr inbounds %204[%217] : (!llvm.ptr<3>, i32) -> !llvm.ptr<3>, f32 loc(#loc49)
    %219 = llvm.xor %26, %66 : i32 loc(#loc49)
    %220 = llvm.xor %219, %70 : i32 loc(#loc49)
    %221 = llvm.xor %220, %74 : i32 loc(#loc49)
    %222 = llvm.mul %221, %26 : i32 loc(#loc49)
    %223 = llvm.add %209, %222 : i32 loc(#loc49)
    %224 = llvm.getelementptr inbounds %204[%223] : (!llvm.ptr<3>, i32) -> !llvm.ptr<3>, f32 loc(#loc49)
    %225 = llvm.xor %18, %66 : i32 loc(#loc49)
    %226 = llvm.xor %225, %70 : i32 loc(#loc49)
    %227 = llvm.xor %226, %74 : i32 loc(#loc49)
    %228 = llvm.mul %227, %26 : i32 loc(#loc49)
    %229 = llvm.add %209, %228 : i32 loc(#loc49)
    %230 = llvm.getelementptr inbounds %204[%229] : (!llvm.ptr<3>, i32) -> !llvm.ptr<3>, f32 loc(#loc49)
    %231 = llvm.select %205, %30, %29 : i1, i32 loc(#loc49)
    %232 = llvm.inline_asm has_side_effects asm_dialect = att operand_attrs = [] "cp.async.ca.shared.global [ $0 + 0 ], [ $1 + 0 ], 0x4, $2;", "r,l,r" %212, %161, %231 : (!llvm.ptr<3>, !llvm.ptr<1>, i32) -> !llvm.void loc(#loc49)
    %233 = llvm.inline_asm has_side_effects asm_dialect = att operand_attrs = [] "cp.async.ca.shared.global [ $0 + 0 ], [ $1 + 0 ], 0x4, $2;", "r,l,r" %218, %162, %231 : (!llvm.ptr<3>, !llvm.ptr<1>, i32) -> !llvm.void loc(#loc49)
    %234 = llvm.inline_asm has_side_effects asm_dialect = att operand_attrs = [] "cp.async.ca.shared.global [ $0 + 0 ], [ $1 + 0 ], 0x4, $2;", "r,l,r" %224, %163, %231 : (!llvm.ptr<3>, !llvm.ptr<1>, i32) -> !llvm.void loc(#loc49)
    %235 = llvm.inline_asm has_side_effects asm_dialect = att operand_attrs = [] "cp.async.ca.shared.global [ $0 + 0 ], [ $1 + 0 ], 0x4, $2;", "r,l,r" %230, %164, %231 : (!llvm.ptr<3>, !llvm.ptr<1>, i32) -> !llvm.void loc(#loc49)
    nvvm.cp.async.commit.group loc(#loc49)
    %236 = llvm.icmp "slt" %178, %arg5 : i32 loc(#loc50)
    %237 = llvm.mul %29, %27 : i32 loc(#loc46)
    %238 = llvm.add %199, %237 : i32 loc(#loc46)
    %239 = llvm.add %238, %202 : i32 loc(#loc46)
    %240 = llvm.getelementptr %195[%239] : (!llvm.ptr<3>, i32) -> !llvm.ptr<3>, f32 loc(#loc46)
    %241 = llvm.and %196, %236 : i1 loc(#loc47)
    %242 = llvm.xor %109, %153 : i32 loc(#loc46)
    %243 = llvm.select %65, %29, %26 : i1, i32 loc(#loc46)
    %244 = llvm.xor %242, %243 : i32 loc(#loc46)
    %245 = llvm.mul %244, %25 : i32 loc(#loc46)
    %246 = llvm.add %245, %29 : i32 loc(#loc46)
    %247 = llvm.mul %176, %27 : i32 loc(#loc46)
    %248 = llvm.add %246, %247 : i32 loc(#loc46)
    %249 = llvm.getelementptr inbounds %240[%248] : (!llvm.ptr<3>, i32) -> !llvm.ptr<3>, f32 loc(#loc46)
    %250 = llvm.select %241, %26, %29 : i1, i32 loc(#loc46)
    %251 = llvm.inline_asm has_side_effects asm_dialect = att operand_attrs = [] "cp.async.cg.shared.global [ $0 + 0 ], [ $1 + 0 ], 0x10, $2;", "r,l,r" %249, %184, %250 : (!llvm.ptr<3>, !llvm.ptr<1>, i32) -> !llvm.void loc(#loc46)
    nvvm.cp.async.commit.group loc(#loc46)
    llvm.br ^bb1(%29, %40, %168, %191, %29, %31 : i32, !llvm.struct<(f32, f32, f32, f32, f32, f32, f32, f32)>, !llvm.struct<(ptr<1>, ptr<1>, ptr<1>, ptr<1>)>, !llvm.struct<(ptr<1>, ptr<1>, ptr<1>, ptr<1>)>, i32, i32) loc(#loc47)
  ^bb1(%252: i32 loc("examples/kernels/binary_ops.py":168:22), %253: !llvm.struct<(f32, f32, f32, f32, f32, f32, f32, f32)> loc(unknown), %254: !llvm.struct<(ptr<1>, ptr<1>, ptr<1>, ptr<1>)> loc("examples/kernels/binary_ops.py":159:22), %255: !llvm.struct<(ptr<1>, ptr<1>, ptr<1>, ptr<1>)> loc("examples/kernels/binary_ops.py":160:22), %256: i32 loc(unknown), %257: i32 loc(unknown)):  // 2 preds: ^bb0, ^bb2
    %258 = llvm.icmp "slt" %252, %193 : i32 loc(#loc47)
    llvm.cond_br %258, ^bb2, ^bb3 loc(#loc47)
  ^bb2:  // pred: ^bb1
    %259 = llvm.sub %193, %25 : i32 loc(#loc47)
    %260 = llvm.icmp "slt" %252, %259 : i32 loc(#loc47)
    %261 = llvm.add %257, %25 : i32 loc(#loc47)
    %262 = llvm.icmp "slt" %261, %25 : i32 loc(#loc47)
    %263 = llvm.select %262, %261, %29 : i1, i32 loc(#loc47)
    nvvm.cp.async.wait.group 0 loc(#loc49)
    nvvm.barrier0 loc(#loc49)
    %264 = llvm.mul %263, %11 : i32 loc(#loc49)
    %265 = llvm.add %264, %29 : i32 loc(#loc49)
    %266 = llvm.add %265, %200 : i32 loc(#loc49)
    %267 = llvm.add %266, %202 : i32 loc(#loc49)
    %268 = llvm.getelementptr %12[%267] : (!llvm.ptr<3>, i32) -> !llvm.ptr<3>, f32 loc(#loc49)
    %269 = llvm.select %105, %29, %30 : i1, i32 loc(#loc49)
    %270 = llvm.xor %29, %269 : i32 loc(#loc49)
    %271 = llvm.select %85, %29, %19 : i1, i32 loc(#loc49)
    %272 = llvm.xor %270, %271 : i32 loc(#loc49)
    %273 = llvm.xor %272, %92 : i32 loc(#loc49)
    %274 = llvm.xor %154, %96 : i32 loc(#loc49)
    %275 = llvm.mul %273, %25 : i32 loc(#loc49)
    %276 = llvm.add %275, %29 : i32 loc(#loc49)
    %277 = llvm.mul %274, %26 : i32 loc(#loc49)
    %278 = llvm.add %276, %277 : i32 loc(#loc49)
    %279 = llvm.getelementptr inbounds %268[%278] : (!llvm.ptr<3>, i32) -> !llvm.ptr<3>, f32 loc(#loc49)
    %280 = llvm.ptrtoint %279 : !llvm.ptr<3> to i32 loc(#loc49)
    %281 = llvm.inline_asm has_side_effects asm_dialect = att operand_attrs = [] "ldmatrix.sync.aligned.m8n8.x4.shared.b16 {$0, $1, $2, $3}, [$4];", "=r,=r,=r,=r,r" %280 : (i32) -> !llvm.struct<(i32, i32, i32, i32)> loc(#loc49)
    %282 = llvm.extractvalue %281[0] : !llvm.struct<(i32, i32, i32, i32)>  loc(#loc49)
    %283 = llvm.extractvalue %281[1] : !llvm.struct<(i32, i32, i32, i32)>  loc(#loc49)
    %284 = llvm.extractvalue %281[2] : !llvm.struct<(i32, i32, i32, i32)>  loc(#loc49)
    %285 = llvm.extractvalue %281[3] : !llvm.struct<(i32, i32, i32, i32)>  loc(#loc49)
    %286 = llvm.xor %19, %269 : i32 loc(#loc49)
    %287 = llvm.xor %286, %271 : i32 loc(#loc49)
    %288 = llvm.xor %287, %92 : i32 loc(#loc49)
    %289 = llvm.mul %288, %25 : i32 loc(#loc49)
    %290 = llvm.add %289, %29 : i32 loc(#loc49)
    %291 = llvm.add %290, %277 : i32 loc(#loc49)
    %292 = llvm.getelementptr inbounds %268[%291] : (!llvm.ptr<3>, i32) -> !llvm.ptr<3>, f32 loc(#loc49)
    %293 = llvm.ptrtoint %292 : !llvm.ptr<3> to i32 loc(#loc49)
    %294 = llvm.inline_asm has_side_effects asm_dialect = att operand_attrs = [] "ldmatrix.sync.aligned.m8n8.x4.shared.b16 {$0, $1, $2, $3}, [$4];", "=r,=r,=r,=r,r" %293 : (i32) -> !llvm.struct<(i32, i32, i32, i32)> loc(#loc49)
    %295 = llvm.extractvalue %294[0] : !llvm.struct<(i32, i32, i32, i32)>  loc(#loc49)
    %296 = llvm.extractvalue %294[1] : !llvm.struct<(i32, i32, i32, i32)>  loc(#loc49)
    %297 = llvm.extractvalue %294[2] : !llvm.struct<(i32, i32, i32, i32)>  loc(#loc49)
    %298 = llvm.extractvalue %294[3] : !llvm.struct<(i32, i32, i32, i32)>  loc(#loc49)
    %299 = llvm.bitcast %282 : i32 to vector<1xf32> loc(#loc49)
    %300 = llvm.extractelement %299[%29 : i32] : vector<1xf32> loc(#loc49)
    %301 = llvm.bitcast %283 : i32 to vector<1xf32> loc(#loc49)
    %302 = llvm.extractelement %301[%29 : i32] : vector<1xf32> loc(#loc49)
    %303 = llvm.bitcast %284 : i32 to vector<1xf32> loc(#loc49)
    %304 = llvm.extractelement %303[%29 : i32] : vector<1xf32> loc(#loc49)
    %305 = llvm.bitcast %285 : i32 to vector<1xf32> loc(#loc49)
    %306 = llvm.extractelement %305[%29 : i32] : vector<1xf32> loc(#loc49)
    %307 = llvm.bitcast %295 : i32 to vector<1xf32> loc(#loc49)
    %308 = llvm.extractelement %307[%29 : i32] : vector<1xf32> loc(#loc49)
    %309 = llvm.bitcast %296 : i32 to vector<1xf32> loc(#loc49)
    %310 = llvm.extractelement %309[%29 : i32] : vector<1xf32> loc(#loc49)
    %311 = llvm.bitcast %297 : i32 to vector<1xf32> loc(#loc49)
    %312 = llvm.extractelement %311[%29 : i32] : vector<1xf32> loc(#loc49)
    %313 = llvm.bitcast %298 : i32 to vector<1xf32> loc(#loc49)
    %314 = llvm.extractelement %313[%29 : i32] : vector<1xf32> loc(#loc49)
    %315 = llvm.add %265, %237 : i32 loc(#loc46)
    %316 = llvm.add %315, %202 : i32 loc(#loc46)
    %317 = llvm.getelementptr %195[%316] : (!llvm.ptr<3>, i32) -> !llvm.ptr<3>, f32 loc(#loc46)
    %318 = llvm.xor %121, %86 : i32 loc(#loc46)
    %319 = llvm.xor %318, %90 : i32 loc(#loc46)
    %320 = llvm.xor %319, %92 : i32 loc(#loc46)
    %321 = llvm.xor %320, %94 : i32 loc(#loc46)
    %322 = llvm.mul %321, %25 : i32 loc(#loc46)
    %323 = llvm.add %322, %29 : i32 loc(#loc46)
    %324 = llvm.mul %150, %27 : i32 loc(#loc46)
    %325 = llvm.add %323, %324 : i32 loc(#loc46)
    %326 = llvm.getelementptr inbounds %317[%325] : (!llvm.ptr<3>, i32) -> !llvm.ptr<3>, f32 loc(#loc46)
    %327 = llvm.load %326 {alignment = 4 : i64} : !llvm.ptr<3> -> vector<1xf32> loc(#loc46)
    %328 = llvm.extractelement %327[%29 : i32] : vector<1xf32> loc(#loc46)
    %329 = llvm.xor %30, %147 : i32 loc(#loc46)
    %330 = llvm.xor %329, %149 : i32 loc(#loc46)
    %331 = llvm.mul %330, %27 : i32 loc(#loc46)
    %332 = llvm.add %323, %331 : i32 loc(#loc46)
    %333 = llvm.getelementptr inbounds %317[%332] : (!llvm.ptr<3>, i32) -> !llvm.ptr<3>, f32 loc(#loc46)
    %334 = llvm.load %333 {alignment = 4 : i64} : !llvm.ptr<3> -> vector<1xf32> loc(#loc46)
    %335 = llvm.extractelement %334[%29 : i32] : vector<1xf32> loc(#loc46)
    %336 = llvm.xor %19, %147 : i32 loc(#loc46)
    %337 = llvm.xor %336, %149 : i32 loc(#loc46)
    %338 = llvm.mul %337, %27 : i32 loc(#loc46)
    %339 = llvm.add %323, %338 : i32 loc(#loc46)
    %340 = llvm.getelementptr inbounds %317[%339] : (!llvm.ptr<3>, i32) -> !llvm.ptr<3>, f32 loc(#loc46)
    %341 = llvm.load %340 {alignment = 4 : i64} : !llvm.ptr<3> -> vector<1xf32> loc(#loc46)
    %342 = llvm.extractelement %341[%29 : i32] : vector<1xf32> loc(#loc46)
    %343 = llvm.xor %8, %147 : i32 loc(#loc46)
    %344 = llvm.xor %343, %149 : i32 loc(#loc46)
    %345 = llvm.mul %344, %27 : i32 loc(#loc46)
    %346 = llvm.add %323, %345 : i32 loc(#loc46)
    %347 = llvm.getelementptr inbounds %317[%346] : (!llvm.ptr<3>, i32) -> !llvm.ptr<3>, f32 loc(#loc46)
    %348 = llvm.load %347 {alignment = 4 : i64} : !llvm.ptr<3> -> vector<1xf32> loc(#loc46)
    %349 = llvm.extractelement %348[%29 : i32] : vector<1xf32> loc(#loc46)
    %350 = llvm.xor %26, %118 : i32 loc(#loc46)
    %351 = llvm.xor %350, %120 : i32 loc(#loc46)
    %352 = llvm.xor %351, %86 : i32 loc(#loc46)
    %353 = llvm.xor %352, %90 : i32 loc(#loc46)
    %354 = llvm.xor %353, %92 : i32 loc(#loc46)
    %355 = llvm.xor %354, %94 : i32 loc(#loc46)
    %356 = llvm.mul %355, %25 : i32 loc(#loc46)
    %357 = llvm.add %356, %29 : i32 loc(#loc46)
    %358 = llvm.add %357, %324 : i32 loc(#loc46)
    %359 = llvm.getelementptr inbounds %317[%358] : (!llvm.ptr<3>, i32) -> !llvm.ptr<3>, f32 loc(#loc46)
    %360 = llvm.load %359 {alignment = 4 : i64} : !llvm.ptr<3> -> vector<1xf32> loc(#loc46)
    %361 = llvm.extractelement %360[%29 : i32] : vector<1xf32> loc(#loc46)
    %362 = llvm.add %357, %331 : i32 loc(#loc46)
    %363 = llvm.getelementptr inbounds %317[%362] : (!llvm.ptr<3>, i32) -> !llvm.ptr<3>, f32 loc(#loc46)
    %364 = llvm.load %363 {alignment = 4 : i64} : !llvm.ptr<3> -> vector<1xf32> loc(#loc46)
    %365 = llvm.extractelement %364[%29 : i32] : vector<1xf32> loc(#loc46)
    %366 = llvm.add %357, %338 : i32 loc(#loc46)
    %367 = llvm.getelementptr inbounds %317[%366] : (!llvm.ptr<3>, i32) -> !llvm.ptr<3>, f32 loc(#loc46)
    %368 = llvm.load %367 {alignment = 4 : i64} : !llvm.ptr<3> -> vector<1xf32> loc(#loc46)
    %369 = llvm.extractelement %368[%29 : i32] : vector<1xf32> loc(#loc46)
    %370 = llvm.add %357, %345 : i32 loc(#loc46)
    %371 = llvm.getelementptr inbounds %317[%370] : (!llvm.ptr<3>, i32) -> !llvm.ptr<3>, f32 loc(#loc46)
    %372 = llvm.load %371 {alignment = 4 : i64} : !llvm.ptr<3> -> vector<1xf32> loc(#loc46)
    %373 = llvm.extractelement %372[%29 : i32] : vector<1xf32> loc(#loc46)
    %374 = llvm.insertelement %300, %6[%29 : i32] : vector<1xf32> loc(#loc51)
    %375 = llvm.bitcast %374 : vector<1xf32> to i32 loc(#loc51)
    %376 = llvm.insertelement %302, %6[%29 : i32] : vector<1xf32> loc(#loc51)
    %377 = llvm.bitcast %376 : vector<1xf32> to i32 loc(#loc51)
    %378 = llvm.insertelement %304, %6[%29 : i32] : vector<1xf32> loc(#loc51)
    %379 = llvm.bitcast %378 : vector<1xf32> to i32 loc(#loc51)
    %380 = llvm.insertelement %306, %6[%29 : i32] : vector<1xf32> loc(#loc51)
    %381 = llvm.bitcast %380 : vector<1xf32> to i32 loc(#loc51)
    %382 = llvm.insertelement %308, %6[%29 : i32] : vector<1xf32> loc(#loc51)
    %383 = llvm.bitcast %382 : vector<1xf32> to i32 loc(#loc51)
    %384 = llvm.insertelement %310, %6[%29 : i32] : vector<1xf32> loc(#loc51)
    %385 = llvm.bitcast %384 : vector<1xf32> to i32 loc(#loc51)
    %386 = llvm.insertelement %312, %6[%29 : i32] : vector<1xf32> loc(#loc51)
    %387 = llvm.bitcast %386 : vector<1xf32> to i32 loc(#loc51)
    %388 = llvm.insertelement %314, %6[%29 : i32] : vector<1xf32> loc(#loc51)
    %389 = llvm.bitcast %388 : vector<1xf32> to i32 loc(#loc51)
    %390 = llvm.insertelement %328, %6[%29 : i32] : vector<1xf32> loc(#loc51)
    %391 = llvm.bitcast %390 : vector<1xf32> to i32 loc(#loc51)
    %392 = llvm.insertelement %335, %6[%29 : i32] : vector<1xf32> loc(#loc51)
    %393 = llvm.bitcast %392 : vector<1xf32> to i32 loc(#loc51)
    %394 = llvm.insertelement %342, %6[%29 : i32] : vector<1xf32> loc(#loc51)
    %395 = llvm.bitcast %394 : vector<1xf32> to i32 loc(#loc51)
    %396 = llvm.insertelement %349, %6[%29 : i32] : vector<1xf32> loc(#loc51)
    %397 = llvm.bitcast %396 : vector<1xf32> to i32 loc(#loc51)
    %398 = llvm.insertelement %361, %6[%29 : i32] : vector<1xf32> loc(#loc51)
    %399 = llvm.bitcast %398 : vector<1xf32> to i32 loc(#loc51)
    %400 = llvm.insertelement %365, %6[%29 : i32] : vector<1xf32> loc(#loc51)
    %401 = llvm.bitcast %400 : vector<1xf32> to i32 loc(#loc51)
    %402 = llvm.insertelement %369, %6[%29 : i32] : vector<1xf32> loc(#loc51)
    %403 = llvm.bitcast %402 : vector<1xf32> to i32 loc(#loc51)
    %404 = llvm.insertelement %373, %6[%29 : i32] : vector<1xf32> loc(#loc51)
    %405 = llvm.bitcast %404 : vector<1xf32> to i32 loc(#loc51)
    %406 = llvm.extractvalue %253[0] : !llvm.struct<(f32, f32, f32, f32, f32, f32, f32, f32)>  loc(#loc51)
    %407 = llvm.extractvalue %253[1] : !llvm.struct<(f32, f32, f32, f32, f32, f32, f32, f32)>  loc(#loc51)
    %408 = llvm.extractvalue %253[2] : !llvm.struct<(f32, f32, f32, f32, f32, f32, f32, f32)>  loc(#loc51)
    %409 = llvm.extractvalue %253[3] : !llvm.struct<(f32, f32, f32, f32, f32, f32, f32, f32)>  loc(#loc51)
    %410 = llvm.extractvalue %253[4] : !llvm.struct<(f32, f32, f32, f32, f32, f32, f32, f32)>  loc(#loc51)
    %411 = llvm.extractvalue %253[5] : !llvm.struct<(f32, f32, f32, f32, f32, f32, f32, f32)>  loc(#loc51)
    %412 = llvm.extractvalue %253[6] : !llvm.struct<(f32, f32, f32, f32, f32, f32, f32, f32)>  loc(#loc51)
    %413 = llvm.extractvalue %253[7] : !llvm.struct<(f32, f32, f32, f32, f32, f32, f32, f32)>  loc(#loc51)
    %414 = llvm.inline_asm has_side_effects asm_dialect = att operand_attrs = [] "mma.sync.aligned.m16n8k8.row.col.f32.tf32.tf32.f32 { $0, $1, $2, $3 }, { $8, $9, $10, $11 }, { $12, $13 }, { $4, $5, $6, $7 };", "=f,=f,=f,=f,0,1,2,3,r,r,r,r,r,r" %406, %407, %408, %409, %375, %377, %379, %381, %391, %393 : (f32, f32, f32, f32, i32, i32, i32, i32, i32, i32) -> !llvm.struct<(f32, f32, f32, f32)> loc(#loc51)
    %415 = llvm.extractvalue %414[0] : !llvm.struct<(f32, f32, f32, f32)>  loc(#loc51)
    %416 = llvm.extractvalue %414[1] : !llvm.struct<(f32, f32, f32, f32)>  loc(#loc51)
    %417 = llvm.extractvalue %414[2] : !llvm.struct<(f32, f32, f32, f32)>  loc(#loc51)
    %418 = llvm.extractvalue %414[3] : !llvm.struct<(f32, f32, f32, f32)>  loc(#loc51)
    %419 = llvm.inline_asm has_side_effects asm_dialect = att operand_attrs = [] "mma.sync.aligned.m16n8k8.row.col.f32.tf32.tf32.f32 { $0, $1, $2, $3 }, { $8, $9, $10, $11 }, { $12, $13 }, { $4, $5, $6, $7 };", "=f,=f,=f,=f,0,1,2,3,r,r,r,r,r,r" %410, %411, %412, %413, %375, %377, %379, %381, %399, %401 : (f32, f32, f32, f32, i32, i32, i32, i32, i32, i32) -> !llvm.struct<(f32, f32, f32, f32)> loc(#loc51)
    %420 = llvm.extractvalue %419[0] : !llvm.struct<(f32, f32, f32, f32)>  loc(#loc51)
    %421 = llvm.extractvalue %419[1] : !llvm.struct<(f32, f32, f32, f32)>  loc(#loc51)
    %422 = llvm.extractvalue %419[2] : !llvm.struct<(f32, f32, f32, f32)>  loc(#loc51)
    %423 = llvm.extractvalue %419[3] : !llvm.struct<(f32, f32, f32, f32)>  loc(#loc51)
    %424 = llvm.inline_asm has_side_effects asm_dialect = att operand_attrs = [] "mma.sync.aligned.m16n8k8.row.col.f32.tf32.tf32.f32 { $0, $1, $2, $3 }, { $8, $9, $10, $11 }, { $12, $13 }, { $4, $5, $6, $7 };", "=f,=f,=f,=f,0,1,2,3,r,r,r,r,r,r" %415, %416, %417, %418, %383, %385, %387, %389, %395, %397 : (f32, f32, f32, f32, i32, i32, i32, i32, i32, i32) -> !llvm.struct<(f32, f32, f32, f32)> loc(#loc51)
    %425 = llvm.extractvalue %424[0] : !llvm.struct<(f32, f32, f32, f32)>  loc(#loc51)
    %426 = llvm.extractvalue %424[1] : !llvm.struct<(f32, f32, f32, f32)>  loc(#loc51)
    %427 = llvm.extractvalue %424[2] : !llvm.struct<(f32, f32, f32, f32)>  loc(#loc51)
    %428 = llvm.extractvalue %424[3] : !llvm.struct<(f32, f32, f32, f32)>  loc(#loc51)
    %429 = llvm.inline_asm has_side_effects asm_dialect = att operand_attrs = [] "mma.sync.aligned.m16n8k8.row.col.f32.tf32.tf32.f32 { $0, $1, $2, $3 }, { $8, $9, $10, $11 }, { $12, $13 }, { $4, $5, $6, $7 };", "=f,=f,=f,=f,0,1,2,3,r,r,r,r,r,r" %420, %421, %422, %423, %383, %385, %387, %389, %403, %405 : (f32, f32, f32, f32, i32, i32, i32, i32, i32, i32) -> !llvm.struct<(f32, f32, f32, f32)> loc(#loc51)
    %430 = llvm.extractvalue %429[0] : !llvm.struct<(f32, f32, f32, f32)>  loc(#loc51)
    %431 = llvm.extractvalue %429[1] : !llvm.struct<(f32, f32, f32, f32)>  loc(#loc51)
    %432 = llvm.extractvalue %429[2] : !llvm.struct<(f32, f32, f32, f32)>  loc(#loc51)
    %433 = llvm.extractvalue %429[3] : !llvm.struct<(f32, f32, f32, f32)>  loc(#loc51)
    %434 = llvm.insertvalue %425, %22[0] : !llvm.struct<(f32, f32, f32, f32, f32, f32, f32, f32)>  loc(#loc51)
    %435 = llvm.insertvalue %426, %434[1] : !llvm.struct<(f32, f32, f32, f32, f32, f32, f32, f32)>  loc(#loc51)
    %436 = llvm.insertvalue %427, %435[2] : !llvm.struct<(f32, f32, f32, f32, f32, f32, f32, f32)>  loc(#loc51)
    %437 = llvm.insertvalue %428, %436[3] : !llvm.struct<(f32, f32, f32, f32, f32, f32, f32, f32)>  loc(#loc51)
    %438 = llvm.insertvalue %430, %437[4] : !llvm.struct<(f32, f32, f32, f32, f32, f32, f32, f32)>  loc(#loc51)
    %439 = llvm.insertvalue %431, %438[5] : !llvm.struct<(f32, f32, f32, f32, f32, f32, f32, f32)>  loc(#loc51)
    %440 = llvm.insertvalue %432, %439[6] : !llvm.struct<(f32, f32, f32, f32, f32, f32, f32, f32)>  loc(#loc51)
    %441 = llvm.insertvalue %433, %440[7] : !llvm.struct<(f32, f32, f32, f32, f32, f32, f32, f32)>  loc(#loc51)
    %442 = llvm.extractvalue %254[0] : !llvm.struct<(ptr<1>, ptr<1>, ptr<1>, ptr<1>)>  loc(#loc52)
    %443 = llvm.extractvalue %254[1] : !llvm.struct<(ptr<1>, ptr<1>, ptr<1>, ptr<1>)>  loc(#loc52)
    %444 = llvm.extractvalue %254[2] : !llvm.struct<(ptr<1>, ptr<1>, ptr<1>, ptr<1>)>  loc(#loc52)
    %445 = llvm.extractvalue %254[3] : !llvm.struct<(ptr<1>, ptr<1>, ptr<1>, ptr<1>)>  loc(#loc52)
    %446 = llvm.getelementptr %442[16] : (!llvm.ptr<1>) -> !llvm.ptr<1>, f32 loc(#loc52)
    %447 = llvm.getelementptr %443[16] : (!llvm.ptr<1>) -> !llvm.ptr<1>, f32 loc(#loc52)
    %448 = llvm.getelementptr %444[16] : (!llvm.ptr<1>) -> !llvm.ptr<1>, f32 loc(#loc52)
    %449 = llvm.getelementptr %445[16] : (!llvm.ptr<1>) -> !llvm.ptr<1>, f32 loc(#loc52)
    %450 = llvm.insertvalue %446, %13[0] : !llvm.struct<(ptr<1>, ptr<1>, ptr<1>, ptr<1>)>  loc(#loc52)
    %451 = llvm.insertvalue %447, %450[1] : !llvm.struct<(ptr<1>, ptr<1>, ptr<1>, ptr<1>)>  loc(#loc52)
    %452 = llvm.insertvalue %448, %451[2] : !llvm.struct<(ptr<1>, ptr<1>, ptr<1>, ptr<1>)>  loc(#loc52)
    %453 = llvm.insertvalue %449, %452[3] : !llvm.struct<(ptr<1>, ptr<1>, ptr<1>, ptr<1>)>  loc(#loc52)
    %454 = llvm.extractvalue %255[0] : !llvm.struct<(ptr<1>, ptr<1>, ptr<1>, ptr<1>)>  loc(#loc53)
    %455 = llvm.extractvalue %255[1] : !llvm.struct<(ptr<1>, ptr<1>, ptr<1>, ptr<1>)>  loc(#loc53)
    %456 = llvm.extractvalue %255[2] : !llvm.struct<(ptr<1>, ptr<1>, ptr<1>, ptr<1>)>  loc(#loc53)
    %457 = llvm.extractvalue %255[3] : !llvm.struct<(ptr<1>, ptr<1>, ptr<1>, ptr<1>)>  loc(#loc53)
    %458 = llvm.getelementptr %454[%194] : (!llvm.ptr<1>, i32) -> !llvm.ptr<1>, f32 loc(#loc53)
    %459 = llvm.getelementptr %455[%194] : (!llvm.ptr<1>, i32) -> !llvm.ptr<1>, f32 loc(#loc53)
    %460 = llvm.getelementptr %456[%194] : (!llvm.ptr<1>, i32) -> !llvm.ptr<1>, f32 loc(#loc53)
    %461 = llvm.getelementptr %457[%194] : (!llvm.ptr<1>, i32) -> !llvm.ptr<1>, f32 loc(#loc53)
    %462 = llvm.insertvalue %458, %13[0] : !llvm.struct<(ptr<1>, ptr<1>, ptr<1>, ptr<1>)>  loc(#loc53)
    %463 = llvm.insertvalue %459, %462[1] : !llvm.struct<(ptr<1>, ptr<1>, ptr<1>, ptr<1>)>  loc(#loc53)
    %464 = llvm.insertvalue %460, %463[2] : !llvm.struct<(ptr<1>, ptr<1>, ptr<1>, ptr<1>)>  loc(#loc53)
    %465 = llvm.insertvalue %461, %464[3] : !llvm.struct<(ptr<1>, ptr<1>, ptr<1>, ptr<1>)>  loc(#loc53)
    %466 = llvm.add %256, %25 : i32 loc(#loc47)
    %467 = llvm.icmp "slt" %466, %25 : i32 loc(#loc47)
    %468 = llvm.select %467, %466, %29 : i1, i32 loc(#loc47)
    %469 = llvm.add %252, %25 : i32 loc(#loc47)
    %470 = llvm.mul %469, %26 : i32 loc(#loc54)
    %471 = llvm.sub %arg5, %470 : i32 loc(#loc55)
    %472 = llvm.icmp "slt" %156, %471 : i32 loc(#loc48)
    %473 = llvm.mul %468, %11 : i32 loc(#loc49)
    %474 = llvm.add %473, %29 : i32 loc(#loc49)
    %475 = llvm.add %474, %200 : i32 loc(#loc49)
    %476 = llvm.add %475, %202 : i32 loc(#loc49)
    %477 = llvm.getelementptr %12[%476] : (!llvm.ptr<3>, i32) -> !llvm.ptr<3>, f32 loc(#loc49)
    %478 = llvm.and %260, %472 : i1 loc(#loc47)
    nvvm.barrier0 loc(#loc49)
    %479 = llvm.getelementptr inbounds %477[%211] : (!llvm.ptr<3>, i32) -> !llvm.ptr<3>, f32 loc(#loc49)
    %480 = llvm.getelementptr inbounds %477[%217] : (!llvm.ptr<3>, i32) -> !llvm.ptr<3>, f32 loc(#loc49)
    %481 = llvm.getelementptr inbounds %477[%223] : (!llvm.ptr<3>, i32) -> !llvm.ptr<3>, f32 loc(#loc49)
    %482 = llvm.getelementptr inbounds %477[%229] : (!llvm.ptr<3>, i32) -> !llvm.ptr<3>, f32 loc(#loc49)
    %483 = llvm.select %478, %30, %29 : i1, i32 loc(#loc49)
    %484 = llvm.inline_asm has_side_effects asm_dialect = att operand_attrs = [] "cp.async.ca.shared.global [ $0 + 0 ], [ $1 + 0 ], 0x4, $2;", "r,l,r" %479, %446, %483 : (!llvm.ptr<3>, !llvm.ptr<1>, i32) -> !llvm.void loc(#loc49)
    %485 = llvm.inline_asm has_side_effects asm_dialect = att operand_attrs = [] "cp.async.ca.shared.global [ $0 + 0 ], [ $1 + 0 ], 0x4, $2;", "r,l,r" %480, %447, %483 : (!llvm.ptr<3>, !llvm.ptr<1>, i32) -> !llvm.void loc(#loc49)
    %486 = llvm.inline_asm has_side_effects asm_dialect = att operand_attrs = [] "cp.async.ca.shared.global [ $0 + 0 ], [ $1 + 0 ], 0x4, $2;", "r,l,r" %481, %448, %483 : (!llvm.ptr<3>, !llvm.ptr<1>, i32) -> !llvm.void loc(#loc49)
    %487 = llvm.inline_asm has_side_effects asm_dialect = att operand_attrs = [] "cp.async.ca.shared.global [ $0 + 0 ], [ $1 + 0 ], 0x4, $2;", "r,l,r" %482, %449, %483 : (!llvm.ptr<3>, !llvm.ptr<1>, i32) -> !llvm.void loc(#loc49)
    nvvm.cp.async.commit.group loc(#loc49)
    %488 = llvm.icmp "slt" %178, %471 : i32 loc(#loc50)
    %489 = llvm.add %474, %237 : i32 loc(#loc46)
    %490 = llvm.add %489, %202 : i32 loc(#loc46)
    %491 = llvm.getelementptr %195[%490] : (!llvm.ptr<3>, i32) -> !llvm.ptr<3>, f32 loc(#loc46)
    %492 = llvm.and %260, %488 : i1 loc(#loc47)
    %493 = llvm.getelementptr inbounds %491[%248] : (!llvm.ptr<3>, i32) -> !llvm.ptr<3>, f32 loc(#loc46)
    %494 = llvm.select %492, %26, %29 : i1, i32 loc(#loc46)
    %495 = llvm.inline_asm has_side_effects asm_dialect = att operand_attrs = [] "cp.async.cg.shared.global [ $0 + 0 ], [ $1 + 0 ], 0x10, $2;", "r,l,r" %493, %458, %494 : (!llvm.ptr<3>, !llvm.ptr<1>, i32) -> !llvm.void loc(#loc46)
    nvvm.cp.async.commit.group loc(#loc46)
    llvm.br ^bb1(%469, %441, %453, %465, %468, %263 : i32, !llvm.struct<(f32, f32, f32, f32, f32, f32, f32, f32)>, !llvm.struct<(ptr<1>, ptr<1>, ptr<1>, ptr<1>)>, !llvm.struct<(ptr<1>, ptr<1>, ptr<1>, ptr<1>)>, i32, i32) loc(#loc47)
  ^bb3:  // pred: ^bb1
    nvvm.cp.async.wait.group 0 loc(#loc47)
    nvvm.barrier0 loc(#loc47)
    %496 = llvm.extractvalue %253[0] : !llvm.struct<(f32, f32, f32, f32, f32, f32, f32, f32)>  loc(#loc56)
    %497 = llvm.extractvalue %253[1] : !llvm.struct<(f32, f32, f32, f32, f32, f32, f32, f32)>  loc(#loc56)
    %498 = llvm.extractvalue %253[2] : !llvm.struct<(f32, f32, f32, f32, f32, f32, f32, f32)>  loc(#loc56)
    %499 = llvm.extractvalue %253[3] : !llvm.struct<(f32, f32, f32, f32, f32, f32, f32, f32)>  loc(#loc56)
    %500 = llvm.extractvalue %253[4] : !llvm.struct<(f32, f32, f32, f32, f32, f32, f32, f32)>  loc(#loc56)
    %501 = llvm.extractvalue %253[5] : !llvm.struct<(f32, f32, f32, f32, f32, f32, f32, f32)>  loc(#loc56)
    %502 = llvm.extractvalue %253[6] : !llvm.struct<(f32, f32, f32, f32, f32, f32, f32, f32)>  loc(#loc56)
    %503 = llvm.extractvalue %253[7] : !llvm.struct<(f32, f32, f32, f32, f32, f32, f32, f32)>  loc(#loc56)
    %504 = llvm.fptrunc %496 : f32 to f16 loc(#loc56)
    %505 = llvm.fptrunc %497 : f32 to f16 loc(#loc56)
    %506 = llvm.fptrunc %498 : f32 to f16 loc(#loc56)
    %507 = llvm.fptrunc %499 : f32 to f16 loc(#loc56)
    %508 = llvm.fptrunc %500 : f32 to f16 loc(#loc56)
    %509 = llvm.fptrunc %501 : f32 to f16 loc(#loc56)
    %510 = llvm.fptrunc %502 : f32 to f16 loc(#loc56)
    %511 = llvm.fptrunc %503 : f32 to f16 loc(#loc56)
    %512 = llvm.mul %arg8, %128 : i32 loc(#loc57)
    %513 = llvm.getelementptr %arg2[%512] : (!llvm.ptr<1>, i32) -> !llvm.ptr<1>, f16 loc(#loc58)
    %514 = llvm.getelementptr %513[%138] : (!llvm.ptr<1>, i32) -> !llvm.ptr<1>, f16 loc(#loc59)
    %515 = llvm.icmp "slt" %128, %arg3 : i32 loc(#loc60)
    %516 = llvm.icmp "slt" %138, %arg4 : i32 loc(#loc61)
    %517 = llvm.and %515, %516 : i1 loc(#loc62)
    %518 = llvm.select %101, %29, %20 : i1, i32 loc(#loc63)
    %519 = llvm.xor %29, %518 : i32 loc(#loc63)
    %520 = llvm.select %105, %29, %30 : i1, i32 loc(#loc63)
    %521 = llvm.xor %519, %520 : i32 loc(#loc63)
    %522 = llvm.select %85, %29, %27 : i1, i32 loc(#loc63)
    %523 = llvm.xor %521, %522 : i32 loc(#loc63)
    %524 = llvm.select %89, %29, %5 : i1, i32 loc(#loc63)
    %525 = llvm.xor %523, %524 : i32 loc(#loc63)
    %526 = llvm.select %65, %29, %10 : i1, i32 loc(#loc63)
    %527 = llvm.xor %525, %526 : i32 loc(#loc63)
    %528 = llvm.xor %527, %94 : i32 loc(#loc63)
    %529 = llvm.select %73, %29, %11 : i1, i32 loc(#loc63)
    %530 = llvm.xor %528, %529 : i32 loc(#loc63)
    %531 = llvm.xor %121, %522 : i32 loc(#loc63)
    %532 = llvm.xor %531, %524 : i32 loc(#loc63)
    %533 = llvm.xor %532, %526 : i32 loc(#loc63)
    %534 = llvm.select %69, %29, %9 : i1, i32 loc(#loc63)
    %535 = llvm.xor %533, %534 : i32 loc(#loc63)
    %536 = llvm.xor %535, %529 : i32 loc(#loc63)
    %537 = llvm.xor %530, %29 : i32 loc(#loc63)
    %538 = llvm.lshr %537, %16 : i32 loc(#loc63)
    %539 = llvm.shl %538, %17 : i32 loc(#loc63)
    %540 = llvm.add %539, %537 : i32 loc(#loc63)
    %541 = llvm.getelementptr inbounds %12[%540] : (!llvm.ptr<3>, i32) -> !llvm.ptr<3>, f16 loc(#loc63)
    %542 = llvm.insertelement %504, %4[%29 : i32] : vector<2xf16> loc(#loc63)
    %543 = llvm.insertelement %505, %542[%25 : i32] : vector<2xf16> loc(#loc63)
    %544 = llvm.extractelement %543[%29 : i32] : vector<2xf16> loc(#loc63)
    %545 = llvm.extractelement %543[%25 : i32] : vector<2xf16> loc(#loc63)
    %546 = llvm.bitcast %544 : f16 to i16 loc(#loc63)
    %547 = llvm.bitcast %545 : f16 to i16 loc(#loc63)
    %548 = llvm.insertelement %546, %3[%29 : i32] : vector<2xi16> loc(#loc63)
    %549 = llvm.insertelement %547, %548[%25 : i32] : vector<2xi16> loc(#loc63)
    %550 = llvm.extractelement %549[%29 : i32] : vector<2xi16> loc(#loc63)
    %551 = llvm.extractelement %549[%25 : i32] : vector<2xi16> loc(#loc63)
    %552 = llvm.inline_asm has_side_effects asm_dialect = att operand_attrs = [] "@$3 st.shared.v2.b16 [ $0 + 0 ], { $1, $2 };", "r,h,h,b" %541, %550, %551, %28 : (!llvm.ptr<3>, i16, i16, i1) -> !llvm.void loc(#loc63)
    %553 = llvm.xor %530, %9 : i32 loc(#loc63)
    %554 = llvm.lshr %553, %16 : i32 loc(#loc63)
    %555 = llvm.shl %554, %17 : i32 loc(#loc63)
    %556 = llvm.add %555, %553 : i32 loc(#loc63)
    %557 = llvm.getelementptr inbounds %12[%556] : (!llvm.ptr<3>, i32) -> !llvm.ptr<3>, f16 loc(#loc63)
    %558 = llvm.insertelement %506, %4[%29 : i32] : vector<2xf16> loc(#loc63)
    %559 = llvm.insertelement %507, %558[%25 : i32] : vector<2xf16> loc(#loc63)
    %560 = llvm.extractelement %559[%29 : i32] : vector<2xf16> loc(#loc63)
    %561 = llvm.extractelement %559[%25 : i32] : vector<2xf16> loc(#loc63)
    %562 = llvm.bitcast %560 : f16 to i16 loc(#loc63)
    %563 = llvm.bitcast %561 : f16 to i16 loc(#loc63)
    %564 = llvm.insertelement %562, %3[%29 : i32] : vector<2xi16> loc(#loc63)
    %565 = llvm.insertelement %563, %564[%25 : i32] : vector<2xi16> loc(#loc63)
    %566 = llvm.extractelement %565[%29 : i32] : vector<2xi16> loc(#loc63)
    %567 = llvm.extractelement %565[%25 : i32] : vector<2xi16> loc(#loc63)
    %568 = llvm.inline_asm has_side_effects asm_dialect = att operand_attrs = [] "@$3 st.shared.v2.b16 [ $0 + 0 ], { $1, $2 };", "r,h,h,b" %557, %566, %567, %28 : (!llvm.ptr<3>, i16, i16, i1) -> !llvm.void loc(#loc63)
    %569 = llvm.xor %530, %26 : i32 loc(#loc63)
    %570 = llvm.lshr %569, %16 : i32 loc(#loc63)
    %571 = llvm.shl %570, %17 : i32 loc(#loc63)
    %572 = llvm.add %571, %569 : i32 loc(#loc63)
    %573 = llvm.getelementptr inbounds %12[%572] : (!llvm.ptr<3>, i32) -> !llvm.ptr<3>, f16 loc(#loc63)
    %574 = llvm.insertelement %508, %4[%29 : i32] : vector<2xf16> loc(#loc63)
    %575 = llvm.insertelement %509, %574[%25 : i32] : vector<2xf16> loc(#loc63)
    %576 = llvm.extractelement %575[%29 : i32] : vector<2xf16> loc(#loc63)
    %577 = llvm.extractelement %575[%25 : i32] : vector<2xf16> loc(#loc63)
    %578 = llvm.bitcast %576 : f16 to i16 loc(#loc63)
    %579 = llvm.bitcast %577 : f16 to i16 loc(#loc63)
    %580 = llvm.insertelement %578, %3[%29 : i32] : vector<2xi16> loc(#loc63)
    %581 = llvm.insertelement %579, %580[%25 : i32] : vector<2xi16> loc(#loc63)
    %582 = llvm.extractelement %581[%29 : i32] : vector<2xi16> loc(#loc63)
    %583 = llvm.extractelement %581[%25 : i32] : vector<2xi16> loc(#loc63)
    %584 = llvm.inline_asm has_side_effects asm_dialect = att operand_attrs = [] "@$3 st.shared.v2.b16 [ $0 + 0 ], { $1, $2 };", "r,h,h,b" %573, %582, %583, %28 : (!llvm.ptr<3>, i16, i16, i1) -> !llvm.void loc(#loc63)
    %585 = llvm.xor %530, %7 : i32 loc(#loc63)
    %586 = llvm.lshr %585, %16 : i32 loc(#loc63)
    %587 = llvm.shl %586, %17 : i32 loc(#loc63)
    %588 = llvm.add %587, %585 : i32 loc(#loc63)
    %589 = llvm.getelementptr inbounds %12[%588] : (!llvm.ptr<3>, i32) -> !llvm.ptr<3>, f16 loc(#loc63)
    %590 = llvm.insertelement %510, %4[%29 : i32] : vector<2xf16> loc(#loc63)
    %591 = llvm.insertelement %511, %590[%25 : i32] : vector<2xf16> loc(#loc63)
    %592 = llvm.extractelement %591[%29 : i32] : vector<2xf16> loc(#loc63)
    %593 = llvm.extractelement %591[%25 : i32] : vector<2xf16> loc(#loc63)
    %594 = llvm.bitcast %592 : f16 to i16 loc(#loc63)
    %595 = llvm.bitcast %593 : f16 to i16 loc(#loc63)
    %596 = llvm.insertelement %594, %3[%29 : i32] : vector<2xi16> loc(#loc63)
    %597 = llvm.insertelement %595, %596[%25 : i32] : vector<2xi16> loc(#loc63)
    %598 = llvm.extractelement %597[%29 : i32] : vector<2xi16> loc(#loc63)
    %599 = llvm.extractelement %597[%25 : i32] : vector<2xi16> loc(#loc63)
    %600 = llvm.inline_asm has_side_effects asm_dialect = att operand_attrs = [] "@$3 st.shared.v2.b16 [ $0 + 0 ], { $1, $2 };", "r,h,h,b" %589, %598, %599, %28 : (!llvm.ptr<3>, i16, i16, i1) -> !llvm.void loc(#loc63)
    nvvm.barrier0 loc(#loc63)
    %601 = llvm.xor %536, %29 : i32 loc(#loc63)
    %602 = llvm.lshr %601, %16 : i32 loc(#loc63)
    %603 = llvm.shl %602, %17 : i32 loc(#loc63)
    %604 = llvm.add %603, %601 : i32 loc(#loc63)
    %605 = llvm.getelementptr inbounds %12[%604] : (!llvm.ptr<3>, i32) -> !llvm.ptr<3>, f16 loc(#loc63)
    %606 = llvm.load %605 : !llvm.ptr<3> -> vector<4xi32> loc(#loc63)
    %607 = llvm.extractelement %606[%29 : i32] : vector<4xi32> loc(#loc63)
    %608 = llvm.extractelement %606[%25 : i32] : vector<4xi32> loc(#loc63)
    %609 = llvm.extractelement %606[%20 : i32] : vector<4xi32> loc(#loc63)
    %610 = llvm.extractelement %606[%17 : i32] : vector<4xi32> loc(#loc63)
    %611 = llvm.insertelement %607, %2[%29 : i32] : vector<4xi32> loc(#loc63)
    %612 = llvm.insertelement %608, %611[%25 : i32] : vector<4xi32> loc(#loc63)
    %613 = llvm.insertelement %609, %612[%20 : i32] : vector<4xi32> loc(#loc63)
    %614 = llvm.insertelement %610, %613[%17 : i32] : vector<4xi32> loc(#loc63)
    %615 = llvm.extractelement %614[%29 : i32] : vector<4xi32> loc(#loc63)
    %616 = llvm.extractelement %614[%25 : i32] : vector<4xi32> loc(#loc63)
    %617 = llvm.extractelement %614[%20 : i32] : vector<4xi32> loc(#loc63)
    %618 = llvm.extractelement %614[%17 : i32] : vector<4xi32> loc(#loc63)
    %619 = llvm.bitcast %615 : i32 to vector<2xi16> loc(#loc63)
    %620 = llvm.extractelement %619[%29 : i32] : vector<2xi16> loc(#loc63)
    %621 = llvm.extractelement %619[%25 : i32] : vector<2xi16> loc(#loc63)
    %622 = llvm.bitcast %616 : i32 to vector<2xi16> loc(#loc63)
    %623 = llvm.extractelement %622[%29 : i32] : vector<2xi16> loc(#loc63)
    %624 = llvm.extractelement %622[%25 : i32] : vector<2xi16> loc(#loc63)
    %625 = llvm.bitcast %617 : i32 to vector<2xi16> loc(#loc63)
    %626 = llvm.extractelement %625[%29 : i32] : vector<2xi16> loc(#loc63)
    %627 = llvm.extractelement %625[%25 : i32] : vector<2xi16> loc(#loc63)
    %628 = llvm.bitcast %618 : i32 to vector<2xi16> loc(#loc63)
    %629 = llvm.extractelement %628[%29 : i32] : vector<2xi16> loc(#loc63)
    %630 = llvm.extractelement %628[%25 : i32] : vector<2xi16> loc(#loc63)
    %631 = llvm.insertelement %620, %1[%29 : i32] : vector<8xi16> loc(#loc63)
    %632 = llvm.insertelement %621, %631[%25 : i32] : vector<8xi16> loc(#loc63)
    %633 = llvm.insertelement %623, %632[%20 : i32] : vector<8xi16> loc(#loc63)
    %634 = llvm.insertelement %624, %633[%17 : i32] : vector<8xi16> loc(#loc63)
    %635 = llvm.insertelement %626, %634[%30 : i32] : vector<8xi16> loc(#loc63)
    %636 = llvm.insertelement %627, %635[%16 : i32] : vector<8xi16> loc(#loc63)
    %637 = llvm.insertelement %629, %636[%15 : i32] : vector<8xi16> loc(#loc63)
    %638 = llvm.insertelement %630, %637[%14 : i32] : vector<8xi16> loc(#loc63)
    %639 = llvm.extractelement %638[%29 : i32] : vector<8xi16> loc(#loc63)
    %640 = llvm.extractelement %638[%25 : i32] : vector<8xi16> loc(#loc63)
    %641 = llvm.extractelement %638[%20 : i32] : vector<8xi16> loc(#loc63)
    %642 = llvm.extractelement %638[%17 : i32] : vector<8xi16> loc(#loc63)
    %643 = llvm.extractelement %638[%30 : i32] : vector<8xi16> loc(#loc63)
    %644 = llvm.extractelement %638[%16 : i32] : vector<8xi16> loc(#loc63)
    %645 = llvm.extractelement %638[%15 : i32] : vector<8xi16> loc(#loc63)
    %646 = llvm.extractelement %638[%14 : i32] : vector<8xi16> loc(#loc63)
    %647 = llvm.bitcast %639 : i16 to f16 loc(#loc63)
    %648 = llvm.bitcast %640 : i16 to f16 loc(#loc63)
    %649 = llvm.bitcast %641 : i16 to f16 loc(#loc63)
    %650 = llvm.bitcast %642 : i16 to f16 loc(#loc63)
    %651 = llvm.bitcast %643 : i16 to f16 loc(#loc63)
    %652 = llvm.bitcast %644 : i16 to f16 loc(#loc63)
    %653 = llvm.bitcast %645 : i16 to f16 loc(#loc63)
    %654 = llvm.bitcast %646 : i16 to f16 loc(#loc63)
    %655 = llvm.insertelement %647, %0[%29 : i32] : vector<8xf16> loc(#loc63)
    %656 = llvm.insertelement %648, %655[%25 : i32] : vector<8xf16> loc(#loc63)
    %657 = llvm.insertelement %649, %656[%20 : i32] : vector<8xf16> loc(#loc63)
    %658 = llvm.insertelement %650, %657[%17 : i32] : vector<8xf16> loc(#loc63)
    %659 = llvm.insertelement %651, %658[%30 : i32] : vector<8xf16> loc(#loc63)
    %660 = llvm.insertelement %652, %659[%16 : i32] : vector<8xf16> loc(#loc63)
    %661 = llvm.insertelement %653, %660[%15 : i32] : vector<8xf16> loc(#loc63)
    %662 = llvm.insertelement %654, %661[%14 : i32] : vector<8xf16> loc(#loc63)
    %663 = llvm.extractelement %662[%29 : i32] : vector<8xf16> loc(#loc63)
    %664 = llvm.extractelement %662[%25 : i32] : vector<8xf16> loc(#loc63)
    %665 = llvm.extractelement %662[%20 : i32] : vector<8xf16> loc(#loc63)
    %666 = llvm.extractelement %662[%17 : i32] : vector<8xf16> loc(#loc63)
    %667 = llvm.extractelement %662[%30 : i32] : vector<8xf16> loc(#loc63)
    %668 = llvm.extractelement %662[%16 : i32] : vector<8xf16> loc(#loc63)
    %669 = llvm.extractelement %662[%15 : i32] : vector<8xf16> loc(#loc63)
    %670 = llvm.extractelement %662[%14 : i32] : vector<8xf16> loc(#loc63)
    %671 = llvm.insertelement %663, %4[%29 : i32] : vector<2xf16> loc(#loc63)
    %672 = llvm.insertelement %664, %671[%25 : i32] : vector<2xf16> loc(#loc63)
    %673 = llvm.bitcast %672 : vector<2xf16> to i32 loc(#loc63)
    %674 = llvm.insertelement %665, %4[%29 : i32] : vector<2xf16> loc(#loc63)
    %675 = llvm.insertelement %666, %674[%25 : i32] : vector<2xf16> loc(#loc63)
    %676 = llvm.bitcast %675 : vector<2xf16> to i32 loc(#loc63)
    %677 = llvm.insertelement %667, %4[%29 : i32] : vector<2xf16> loc(#loc63)
    %678 = llvm.insertelement %668, %677[%25 : i32] : vector<2xf16> loc(#loc63)
    %679 = llvm.bitcast %678 : vector<2xf16> to i32 loc(#loc63)
    %680 = llvm.insertelement %669, %4[%29 : i32] : vector<2xf16> loc(#loc63)
    %681 = llvm.insertelement %670, %680[%25 : i32] : vector<2xf16> loc(#loc63)
    %682 = llvm.bitcast %681 : vector<2xf16> to i32 loc(#loc63)
    %683 = llvm.inline_asm has_side_effects asm_dialect = att operand_attrs = [] "@$5 st.global.v4.b32 [ $4 + 0 ], { $0, $1, $2, $3 };", "r,r,r,r,l,b" %673, %676, %679, %682, %514, %517 : (i32, i32, i32, i32, !llvm.ptr<1>, i1) -> !llvm.void loc(#loc63)
    llvm.return loc(#loc64)
  } loc(#loc)
} loc(#loc)
#loc2 = loc("examples/kernels/binary_ops.py":126:24)
#loc3 = loc("/home/ahmed/miniconda3/envs/torch-env/lib/python3.13/site-packages/triton/language/standard.py":40:22)
#loc4 = loc("examples/kernels/binary_ops.py":127:27)
#loc5 = loc("/home/ahmed/miniconda3/envs/torch-env/lib/python3.13/site-packages/triton/language/standard.py":40:28)
#loc6 = loc("examples/kernels/binary_ops.py":128:27)
#loc7 = loc("examples/kernels/binary_ops.py":129:38)
#loc8 = loc("examples/kernels/binary_ops.py":130:22)
#loc9 = loc("examples/kernels/binary_ops.py":131:29)
#loc10 = loc("examples/kernels/binary_ops.py":132:35)
#loc11 = loc("examples/kernels/binary_ops.py":132:48)
#loc12 = loc("examples/kernels/binary_ops.py":133:34)
#loc13 = loc("examples/kernels/binary_ops.py":133:54)
#loc14 = loc("examples/kernels/binary_ops.py":133:27)
#loc15 = loc("examples/kernels/binary_ops.py":134:40)
#loc16 = loc("examples/kernels/binary_ops.py":140:23)
#loc17 = loc("examples/kernels/binary_ops.py":140:14)
#loc18 = loc("examples/kernels/binary_ops.py":141:23)
#loc19 = loc("examples/kernels/binary_ops.py":141:14)
#loc20 = loc("examples/kernels/binary_ops.py":142:26)
#loc21 = loc("examples/kernels/binary_ops.py":142:14)
#loc22 = loc("examples/kernels/binary_ops.py":143:14)
#loc23 = loc("examples/kernels/binary_ops.py":144:14)
#loc24 = loc("examples/kernels/binary_ops.py":145:26)
#loc25 = loc("examples/kernels/binary_ops.py":145:14)
#loc26 = loc("examples/kernels/binary_ops.py":146:26)
#loc27 = loc("examples/kernels/binary_ops.py":146:14)
#loc28 = loc("examples/kernels/binary_ops.py":147:14)
#loc29 = loc("examples/kernels/binary_ops.py":156:23)
#loc30 = loc("examples/kernels/binary_ops.py":156:51)
#loc31 = loc("examples/kernels/binary_ops.py":156:38)
#loc32 = loc("examples/kernels/binary_ops.py":156:68)
#loc33 = loc("examples/kernels/binary_ops.py":157:23)
#loc34 = loc("examples/kernels/binary_ops.py":157:38)
#loc35 = loc("examples/kernels/binary_ops.py":157:68)
#loc36 = loc("examples/kernels/binary_ops.py":159:41)
#loc37 = loc("examples/kernels/binary_ops.py":159:60)
#loc38 = loc("examples/kernels/binary_ops.py":159:53)
#loc40 = loc("examples/kernels/binary_ops.py":160:29)
#loc41 = loc("examples/kernels/binary_ops.py":160:40)
#loc42 = loc("examples/kernels/binary_ops.py":160:52)
#loc44 = loc("examples/kernels/binary_ops.py":168:33)
#loc45 = loc("examples/kernels/binary_ops.py":177:33)
#loc46 = loc("examples/kernels/binary_ops.py":172:20)
#loc48 = loc("examples/kernels/binary_ops.py":171:51)
#loc49 = loc("examples/kernels/binary_ops.py":171:20)
#loc50 = loc("examples/kernels/binary_ops.py":172:51)
#loc51 = loc("examples/kernels/binary_ops.py":174:35)
#loc52 = loc("examples/kernels/binary_ops.py":176:18)
#loc53 = loc("examples/kernels/binary_ops.py":177:18)
#loc54 = loc("examples/kernels/binary_ops.py":171:59)
#loc55 = loc("examples/kernels/binary_ops.py":171:55)
#loc56 = loc("examples/kernels/binary_ops.py":182:23)
#loc57 = loc("examples/kernels/binary_ops.py":188:33)
#loc58 = loc("examples/kernels/binary_ops.py":188:21)
#loc59 = loc("examples/kernels/binary_ops.py":188:52)
#loc60 = loc("examples/kernels/binary_ops.py":189:33)
#loc61 = loc("examples/kernels/binary_ops.py":189:58)
#loc62 = loc("examples/kernels/binary_ops.py":189:39)
#loc63 = loc("examples/kernels/binary_ops.py":190:21)
#loc64 = loc("examples/kernels/binary_ops.py":190:4)
#loc65 = loc(callsite(#loc3 at #loc4))
#loc66 = loc(callsite(#loc5 at #loc4))
#loc67 = loc(callsite(#loc3 at #loc6))
#loc68 = loc(callsite(#loc5 at #loc6))
#loc69 = loc(callsite(#loc3 at #loc44))
#loc70 = loc(callsite(#loc5 at #loc44))


